Config/NeuralNets/WhistleDetector/ccnn.onnx (onnx, 164030 bytes, 21 tensors)

backbone.0.conv1.bias f4 [32]
0	0x3bff9c96	0.007800649
1	0x3bf98dfc	0.007615803
2	0x3b4d297a	0.003130524
3	0xbb4b6157	-0.003103336
4	0xbb6d1e4f	-0.0036181395
5	0x3b2feedc	0.0026845252
6	0x39677e78	0.0002207699
7	0xbb88aa3b	-0.0041706837
8	0x3a346f5e	0.000688305
9	0xbafb7ba1	-0.0019186625
10	0x3c0b0b73	0.008486616
11	0x3b5c7686	0.0033639981
12	0x3c0f1c3c	0.008734759
13	0x3b981c94	0.0046420787
14	0xbbd1c53f	-0.0064016874
15	0xbb68e130	-0.0035534613
16	0xba94545a	-0.0011316643
17	0xbb890669	-0.0041816724
18	0x3bdc377a	0.0067204805
19	0x3b7751d3	0.003773798
20	0x3be60210	0.007019289
21	0x3b5eaecd	0.00339787
22	0xbb8a2c81	-0.004216731
23	0xbb810576	-0.0039374186
24	0x3beed24a	0.007288252
25	0x3bd9d000	0.00664711
26	0x3ba01dd3	0.004886368
27	0xbbc6bd1d	-0.0060650245
28	0xba82ddf2	-0.0009984358
29	0xba24eb45	-0.00062911614
30	0x39eddc42	0.00045368267
31	0x3a9619da	0.0011451796

backbone.0.conv1.Kernel.kernel_net.0.bias f4 [32]
0	0x3f45cf70	0.7726965
1	0x3e2b2fa9	0.167174
2	0xbea5b0f4	-0.32361567
3	0x3f1e1046	0.6174358
4	0x3e1fc56f	0.15602659
5	0x3f4ea8d7	0.8072638
6	0x3de09a84	0.109669715
7	0xbea10c9a	-0.31454927
8	0x3e891675	0.26774946
9	0xbe8aaf58	-0.27086902
10	0x3ed78eb7	0.4210107
11	0x3f646f1a	0.8923203
12	0x3f14152d	0.5784481
13	0xbedfdb34	-0.43721926
14	0x3f13c6c0	0.57725143
15	0x3e3728a4	0.17886597
16	0x3f0223c0	0.508358
17	0xbf1bb9da	-0.6083046
18	0xbf7d4157	-0.98927826
19	0xbec5af94	-0.38610518
20	0xbf4499be	-0.7679709
21	0x3f51cc17	0.8195204
22	0x3e92e147	0.28687498
23	0x3ed4b287	0.41542456
24	0x3ea1df93	0.31615886
25	0xbc8fdea8	-0.017562225
26	0x3f484c6a	0.782416
27	0xbf35fb8c	-0.71086955
28	0x3d814681	0.06312276
29	0xbf2ef388	-0.6834035
30	0x3e9e84cd	0.30960694
31	0xbeaf8e08	-0.3428805

backbone.0.conv1.Kernel.kernel_net.3.bias f4 [32]
0	0xbdbbba22	-0.091663614
1	0xbe2e3e49	-0.17015947
2	0x3d8e9c7a	0.06963439
3	0x3dcf29d2	0.101153985
4	0xbe1d2ab1	-0.15348317
5	0x3d85d4e8	0.06534749
6	0x3e12c902	0.14334491
7	0x3c50a3ef	0.012734397
8	0xbdea12c4	-0.114293605
9	0x3e124a80	0.14286232
10	0x3d938159	0.072024055
11	0x3df7d2f3	0.12100782
12	0xbdedb641	-0.11607028
13	0x3dcb14c9	0.09916074
14	0xbdf5f3dd	-0.12009404
15	0x3e34c507	0.17653285
16	0xbd9b9666	-0.075970456
17	0x3dd8f1d9	0.10593004
18	0x3d14af70	0.036300123
19	0x3d3c482a	0.04596726
20	0xbcf23524	-0.029566355
21	0x3d8edda0	0.06975865
22	0xbd9450f0	-0.07242
23	0xbe297e9e	-0.16552207
24	0xbd8753ef	-0.06607806
25	0x3e04e0b7	0.12976347
26	0xbd2aea8b	-0.041727584
27	0x3d773f63	0.060363185
28	0xbd8151dc	-0.063144416
29	0x3e07b2ca	0.13251796
30	0x3dd8cdb5	0.105861105
31	0x3d77b5b1	0.06047601

backbone.0.conv1.Kernel.kernel_net.6.bias f4 [32]
0	0x3dafda29	0.085865326
1	0x3e1d24d2	0.15346077
2	0x3cb12c25	0.021627495
3	0xbe1de5aa	-0.15419641
4	0x3dfbdcdd	0.12297986
5	0x3c41f6a1	0.011838586
6	0x3ae7a494	0.001767295
7	0xbe289e78	-0.16466701
8	0xbd247658	-0.040151924
9	0xbdabfef4	-0.08398238
10	0x3e2072d3	0.15668802
11	0x3ded7ffa	0.11596675
12	0x3df85a9c	0.12126657
13	0x3dede178	0.116152704
14	0xbdd47129	-0.10373146
15	0xbd946968	-0.07246667
16	0xbd83a723	-0.06428363
17	0xbd862a1c	-0.065510005
18	0x3dfae773	0.12251177
19	0x3d459707	0.048239734
20	0x3e0345e7	0.12819634
21	0xbc859143	-0.016304618
22	0xbe1c8644	-0.15285593
23	0xbd3c0a02	-0.04590798
24	0x3de54cf1	0.11196316
25	0x3dbf08ad	0.09327827
26	0x3d449456	0.047993027
27	0xbd475814	-0.048667982
28	0xbe25b8bc	-0.16183752
29	0xbdb65c5c	-0.08904335
30	0x3dbaa292	0.09113039
31	0xbd91e880	-0.07124424

backbone.0.conv2.bias f4 [32]
0	0x3bee1559	0.0072657284
1	0x3b4abc93	0.0030935153
2	0xbc763dcf	-0.015029385
3	0xbab63fea	-0.0013904546
4	0x3a37e6f2	0.00070153095
5	0xbacf4457	-0.0015813214
6	0x3b5ea6d5	0.0033973951
7	0x3a90ec12	0.0011056683
8	0xbb621276	-0.0034495867
9	0x3be02e6c	0.0068414714
10	0xba7b4cf2	-0.0009586356
11	0xbb0c1b45	-0.0021378559
12	0x3b6bb3d7	0.0035965347
13	0xba7a6c3c	-0.00095528713
14	0x3a355df2	0.0006918601
15	0x3aaa02d8	0.0012970818
16	0xbb7597d5	-0.0037474532
17	0xbb34cc47	-0.002758758
18	0x3b18b2d3	0.0023299947
19	0xbbf994d4	-0.0076166186
20	0x3afbbebf	0.0019206627
21	0xbb98b1ec	-0.004659882
22	0x3b2e4d01	0.002659619
23	0x3972abda	0.00023142938
24	0xbb944570	-0.004524879
25	0xba4093d7	-0.00073462486
26	0x3b9fd288	0.004877392
27	0xbaeed624	-0.0018221778
28	0x3b19762a	0.0023416379
29	0xbbe7973b	-0.0070675886
30	0xbb9d8f94	-0.0048083756
31	0x3a193a92	0.00058452145

backbone.0.conv2.Kernel.kernel_net.0.bias f4 [32]
0	0x3ec905ba	0.39262182
1	0xbe3c5e14	-0.18395263
2	0x3d0b83e9	0.034061346
3	0x3e75186c	0.23935097
4	0xbdfdea63	-0.12398221
5	0x3f4ead52	0.80733216
6	0xbf483e1d	-0.7821978
7	0x3ef98b75	0.4873921
8	0xbf234249	-0.6377302
9	0xbf605d2a	-0.8764216
10	0xbe527933	-0.20554046
11	0x3ef9c58e	0.48783535
12	0x3f34d1ad	0.7063244
13	0x3e80ac6e	0.25131553
14	0xbdb0fe1d	-0.08642218
15	0xbd65055b	-0.05591331
16	0xbecf3af6	-0.4047467
17	0xbdb81f94	-0.08990398
18	0xbd8c91ac	-0.06863722
19	0x3f59badf	0.8505077
20	0x3f15c47a	0.58502924
21	0xbf4cc444	-0.7998698
22	0x3b900833	0.0043955087
23	0xbf1d628a	-0.61478484
24	0xbe22a6d5	-0.15883954
25	0xbf4b5e19	-0.79440457
26	0x3e85198e	0.2599606
27	0xbf38897f	-0.720848
28	0x3f7ca70a	0.9869238
29	0x3f4133b7	0.75469536
30	0xbf305fb9	-0.6889606
31	0xbf70f710	-0.9412699

backbone.0.conv2.Kernel.kernel_net.3.bias f4 [32]
0	0xbdcba8b2	-0.099442855
1	0xbddced6e	-0.107874736
2	0x3d451b9a	0.048122026
3	0x3cc689c7	0.02423562
4	0xbd4c9e36	-0.04995557
5	0x3e1a25d6	0.15053496
6	0xbe1bf773	-0.15231113
7	0x3d7ee115	0.062226374
8	0xbdc651a7	-0.09683543
9	0xbd2124ae	-0.03934162
10	0xbe2e1d1b	-0.1700329
11	0xbe06b7c0	-0.13156033
12	0xbe19f9ee	-0.15036747
13	0x3d9deb15	0.07710854
14	0xbd8810df	-0.06643843
15	0x3dbcdef0	0.092222095
16	0xbdc48fbe	-0.09597729
17	0xbd31cd9a	-0.043408968
18	0x3cb131ae	0.021630134
19	0x3e17eef4	0.14837247
20	0xbd404208	-0.046937972
21	0x3dd137c6	0.10215716
22	0x3d48a3e0	0.04898441
23	0x3ddc36b2	0.1075262
24	0x3de46c97	0.11153524
25	0x3d9223f1	0.071357615
26	0xbd57e927	-0.052712586
27	0xbd4d9cf8	-0.050198525
28	0x3d8c40ef	0.068483226
29	0x3dc7b38c	0.09751043
30	0xbc17273d	-0.009225664
31	0x3db5f14a	0.08883913

backbone.0.conv2.Kernel.kernel_net.6.bias f4 [1024]
0	0xbd6f5ecf	-0.058440026
1	0xbbc246a8	-0.005928833
2	0x3dd53b4f	0.10411703
3	0x3d9addfe	0.07561873
4	0xbd9c702d	-0.07638583
5	0xbddf5695	-0.10905186
6	0xbd9a2f50	-0.075285554
7	0x3d2d24c4	0.04227139
8	0xbe0bb51e	-0.1364331
9	0xbe0d5b4c	-0.13804358
10	0xbbf93d97	-0.007606219
11	0xbe216d0a	-0.15764251
12	0x3d83d15e	0.06436418
13	0xbd009242	-0.031389482
14	0x3ca4dabf	0.020123838
15	0x3d942223	0.072330736
16	0xbe1d349d	-0.15352102
17	0xbd43a815	-0.047767717
18	0x3d93e3e8	0.07221204
19	0x3e0d0972	0.13773134
20	0x3e18bef4	0.14916593
21	0x3e0d70e0	0.1381259
22	0x3d5e5c1b	0.054287057
23	0xbd10f78e	-0.035392337
24	0xbdd031d8	-0.10165757
25	0x3aa1ce5f	0.0012344829
26	0x3ca02e0c	0.019553207
27	0x3da47f61	0.08032108
28	0xbcf1fecd	-0.029540444
29	0xbd8ae2ea	-0.06781562
30	0xbb631a7a	-0.0034653232
31	0x3e2a0b43	0.16605859
32	0x3e08b745	0.13351162
33	0x3e287480	0.16450691
34	0xbdd3d126	-0.10342626
35	0xbdade242	-0.08490421
36	0x3df57c8b	0.11986645
37	0x3c805984	0.015667684
38	0xbdb7b8fb	-0.08970829
39	0x3e35632b	0.17713611
40	0x3daf8a38	0.08571285
41	0xbda696f7	-0.08134263
42	0xbcb40a9b	-0.021977713
43	0x3e14e6dc	0.14541191
44	0x3d1c51ba	0.038163878
45	0x3dc10469	0.09424669
46	0x3e035d40	0.12828541
47	0xbe196672	-0.14980486
48	0x3d02c3e7	0.03192511
49	0x3d2a2bb6	0.041545592
50	0x3e1effcc	0.15527266
51	0x3d7caddb	0.06168924
52	0x3e030135	0.12793429
53	0xbdd154be	-0.102212414
54	0xbd43e0d8	-0.04782185
55	0xbdb4a307	-0.088201575
56	0xbe1ba724	-0.15200478
57	0x3d85e127	0.06537085
58	0xbd3692c1	-0.04457355
59	0xbcd9720c	-0.02654364
60	0x3b5bd13f	0.0033541468
61	0xbd78f933	-0.06078453
62	0xbbc1bdef	-0.0059125344
63	0x3d989a96	0.0745136
64	0x3de401af	0.111331336
65	0xbdafa9b6	-0.08577292
66	0xbd8869fd	-0.06660841
67	0x3d759892	0.059959956
68	0x3e04cb54	0.12968189
69	0xbdcc36e7	-0.09971409
70	0x3df52a01	0.11970902
71	0xbdaf8882	-0.08570959
72	0xbd8e1e08	-0.06939322
73	0xbd3c3af1	-0.04595465
74	0x3da1fc90	0.079095006
75	0xbc024af8	-0.007952444
76	0x3d8847a4	0.06654289
77	0x3dc70b54	0.097189575
78	0xbdcf9624	-0.10136059
79	0x3d630b56	0.055430733
80	0xbd1c7d02	-0.038205154
81	0xbd509e60	-0.05093229
82	0xbd1ec44f	-0.038761433
83	0x3d133022	0.035934575
84	0xbd7f5dfc	-0.06234549
85	0x3e238671	0.15969254
86	0x3c5f18fa	0.013616795
87	0x3e0af2e5	0.1356922
88	0x3c05f9be	0.008177219
89	0xbd617f17	-0.055052843
90	0xbd2245dc	-0.039617404
91	0xbdd877b2	-0.10569705
92	0xbcaa6027	-0.020797802
93	0x3e141c5e	0.14463946
94	0xbc4dde81	-0.012565256
95	0x3e01561d	0.12630506
96	0xbe2ef850	-0.17086911
97	0xbd1e111d	-0.03859054
98	0x3da71833	0.081589125
99	0x3d760ca5	0.060070653
100	0x3bf57f93	0.0074920147
101	0xbdda9bea	-0.106742695
102	0xbd2ff493	-0.042957854
103	0xbd5e8cb5	-0.054333407
104	0xbd92f5a0	-0.071757555
105	0xbbf0c23b	-0.007347373
106	0xbd5ec946	-0.054391168
107	0xbd3f0007	-0.046630885
108	0xbda574e0	-0.08078933
109	0xbd4b4384	-0.049624935
110	0xbd31261c	-0.043249235
111	0x3d35f0aa	0.04441897
112	0xbd7c7251	-0.061632458
113	0x3d55c6a0	0.052191377
114	0xbce5993d	-0.028027171
115	0xbe2179c7	-0.1576911
116	0x3d0bbc8c	0.03411536
117	0xbe02b82c	-0.12765568
118	0x3e123c03	0.14280705
119	0xbd998b69	-0.074972935
120	0x3d987f55	0.07446162
121	0xbd601f8e	-0.054717593
122	0xbd88667f	-0.066601746
123	0xbe297cc8	-0.16551507
124	0xbe2835fc	-0.16426843
125	0x3e0681bc	0.13135427
126	0xbcaeb8b1	-0.021328302
127	0xbe24c180	-0.1608944
128	0xbe0fff96	-0.14062342
129	0xbd449d71	-0.04800171
130	0xbcfd172e	-0.030894842
131	0x3d702b6f	0.05863517
132	0x3b8a8929	0.0042277765
133	0xbd2bb399	-0.041919325
134	0xbe03ee6b	-0.12883918
135	0xbe12671c	-0.14297146
136	0x3cbf05ca	0.02331819
137	0xbd706d82	-0.058698185
138	0x3c6d18aa	0.014471212
139	0xbe1f9130	-0.15582728
140	0xbd9c259d	-0.07624362
141	0xbd8e12ac	-0.06937155
142	0x3d7fedb7	0.062482562
143	0x3e122a57	0.14273964
144	0xbde6751f	-0.11252808
145	0x3b90132d	0.004396817
146	0xbcbfe9ce	-0.023426916
147	0x3ca9221b	0.020646146
148	0x3d414e66	0.047193907
149	0xbbcfd4f0	-0.006342523
150	0xbdd4ac29	-0.103843994
151	0xbe040e46	-0.1289607
152	0x3e23b95c	0.15988678
153	0xbc3fb088	-0.011699803
154	0x3dec02c0	0.11523962
155	0xbe130e9f	-0.14361046
156	0x3c95d675	0.018290738
157	0xbddd568c	-0.10807523
158	0x3def1d0c	0.11675462
159	0xbdd49767	-0.1038044
160	0x3e0f0622	0.13967183
161	0x3d81b45d	0.0633323
162	0xbe21058e	-0.15724775
163	0x3e073b2f	0.1320617
164	0xbc5e18d1	-0.013555721
165	0x3e0fc5c1	0.14040281
166	0xbd2ccd30	-0.04218787
167	0x3c57f2d8	0.013180457
168	0x3b38f586	0.0028222515
169	0x3e2e3e68	0.17015994
170	0xbdaa93c5	-0.08328966
171	0x3d949aef	0.07256114
172	0xbd26fb44	-0.04076697
173	0xbe109291	-0.1411841
174	0x3ddbe9ab	0.10737928
175	0xbe128edb	-0.14312308
176	0xbddace59	-0.10683889
177	0xbdf10f09	-0.11770446
178	0x3e2c2d96	0.16814265
179	0x3deca6cb	0.11555251
180	0xbd252b23	-0.04032434
181	0xbdc7ef93	-0.09762492
182	0x3dac2ff8	0.08407587
183	0x3e02865a	0.12746564
184	0x3c59ddb9	0.013297492
185	0xbe1a45c4	-0.15065676
186	0xbb915ff3	-0.004436487
187	0xbcd18c44	-0.02557958
188	0x3dc86f87	0.09786897
189	0x3e080835	0.1328438
190	0x3d9f50dd	0.07779095
191	0xbd0c7f2c	-0.034300968
192	0x3d486087	0.04892018
193	0x3baa3bdf	0.0051951255
194	0xbda63e2f	-0.08117329
195	0x3e33e097	0.17566143
196	0x3dae48e8	0.085099995
197	0x3dc05e99	0.09393043
198	0x3d1e5297	0.038652983
199	0xbdf52244	-0.11969426
200	0xbe22b721	-0.1589017
201	0x3df2da18	0.11858004
202	0xbde59bea	-0.11211379
203	0x3cb660d3	0.022262966
204	0x3e16bd77	0.14720713
205	0xbe1e0255	-0.15430577
206	0x3d8db8bf	0.06920003
207	0x3db59997	0.088671856
208	0x3ded84ef	0.11597621
209	0xbdf6d2c6	-0.120519206
210	0xbe2b0912	-0.16702679
211	0xbd96331b	-0.07333966
212	0xbd97fccd	-0.07421265
213	0xbe2567b7	-0.16152845
214	0xbd41dbd7	-0.047328796
215	0xbd740bed	-0.059581686
216	0xbcc3adf8	-0.023886666
217	0x3dd93f1a	0.10607739
218	0xbddd1c41	-0.10796405
219	0xbd9220d8	-0.07135171
220	0xbe1ebeb0	-0.15502429
221	0x3cb5be33	0.02218542
222	0xbe377253	-0.17914705
223	0xbe1e7379	-0.15473737
224	0x3c8f3ffa	0.017486561
225	0xbe28a17d	-0.16467853
226	0x3d5df6db	0.054190498
227	0xbdc31578	-0.09525579
228	0x3d6eb216	0.058275305
229	0x3e08694b	0.13321416
230	0x3db76e3e	0.08956574
231	0x3d906310	0.07050145
232	0xbde78fbe	-0.113067135
233	0xbdd969fc	-0.10615918
234	0x3e2c0334	0.16798097
235	0xb9189d2d	-0.00014554402
236	0x3dea41b4	0.11438313
237	0xbe10abe4	-0.14128071
238	0x3d719661	0.058981303
239	0xbd066836	-0.032814227
240	0x3dbb79b7	0.09154075
241	0xbdfd4857	-0.12367313
242	0x3d1d9b46	0.03847816
243	0xbdf54ab5	-0.1197714
244	0x3d4c0e25	0.049818177
245	0xbe1cfb61	-0.15330268
246	0x3d5b6a47	0.05356815
247	0x3e335934	0.17514497
248	0x3daf8ba0	0.08571553
249	0xbdb782c1	-0.08960486
250	0xbd56a728	-0.052405506
251	0xbe007427	-0.12544309
252	0x3e012eb0	0.12615466
253	0xbcddedf9	-0.027091013
254	0x3d0fd26f	0.035112794
255	0xbe2382d3	-0.15967874

backbone.0.shortcut.0.weight f4 [32, 1, 1]
0	0x3eebf558	0.4608562
1	0x3e55dc1a	0.20884743
2	0x3e65591d	0.22397275
3	0xbf0623ee	-0.52398574
4	0x3e7e4d53	0.24834184
5	0xbe1dc810	-0.15408349
6	0xbf6e96b5	-0.9319871
7	0xbf5fc4a6	-0.87409437
8	0x3f7ec568	0.9951997
9	0x3f007b13	0.50187796
10	0x3f30d35f	0.69072527
11	0x3f2d1286	0.6760639
12	0x3f11a5b3	0.5689346
13	0x3ed84900	0.42243195
14	0xbf3b3224	-0.73123384
15	0xbf62522e	-0.88406646
16	0x3e82cbcb	0.25546107
17	0x3f07da35	0.5306733
18	0xbcd19988	-0.025585905
19	0x3f001a42	0.50040066
20	0x3e7c719c	0.24652714
21	0xbec54843	-0.38531694
22	0x3cb8e5d3	0.022570526
23	0x3b346588	0.0027526338
24	0xbdbf4583	-0.0933943
25	0x3f705ad4	0.9388859
26	0xbf4d1377	-0.80107826
27	0xbf7aedeb	-0.98019284
28	0x3cccf183	0.025017506
29	0x3db1ae6d	0.08675847
30	0xbf223dd3	-0.63375586
31	0x3ed099a6	0.40742224

backbone.0.shortcut.0.bias f4 [32]
0	0x3ef0cebf	0.47032735
1	0x3f19b70b	0.60044926
2	0x3f24bab2	0.64347374
3	0x3e112c9d	0.14177175
4	0x3f4d49c4	0.8019068
5	0x3f24c161	0.6435757
6	0x3eb6d5aa	0.35709888
7	0x3ebce1f7	0.36891147
8	0x3da6593e	0.0812249
9	0x3d8f9546	0.070108935
10	0x3e3f373d	0.18673415
11	0xbf5fe620	-0.8746052
12	0x3f4fe94b	0.8121535
13	0xbed98ae6	-0.42488784
14	0x3f5a836d	0.8535679
15	0xbcebd613	-0.028788602
16	0x3f72fadc	0.9491403
17	0x3d1ac7a6	0.037788056
18	0x3f1c6727	0.610949
19	0xbeb02afb	-0.34407791
20	0xbe51d054	-0.20489627
21	0x3f61e29b	0.882364
22	0xbe407530	-0.18794703
23	0xbdb4e73d	-0.08833168
24	0xbf63dd24	-0.8900931
25	0x3f69762a	0.9119593
26	0x3e1a1efd	0.15050884
27	0x3f5b79ac	0.8573253
28	0xbf747b30	-0.9550047
29	0xbf381e65	-0.7192138
30	0x3ef9cfe0	0.4879141
31	0x3d47ddae	0.048795395

fc.0.weight f4 [1, 32]
0	0xbdd62414	-0.104561
1	0xbd682497	-0.05667552
2	0x3cc86c5e	0.024465736
3	0xbcef2991	-0.029194625
4	0x3d1a09e9	0.037607107
5	0xbd306c66	-0.043072127
6	0x3d27cf73	0.040969323
7	0x3e3d085c	0.1846022
8	0x3e1c58e3	0.15268283
9	0xbdc7f99e	-0.097644076
10	0xbd9ac8a0	-0.075577974
11	0x3d3a4a18	0.045480818
12	0xbe0eeb2f	-0.13956903
13	0xbdc3290a	-0.09529312
14	0xbda86262	-0.0822189
15	0xbe085d2e	-0.13316795
16	0x3ddd1ad7	0.10796135
17	0x3e16d99c	0.14731449
18	0x3da5251e	0.0806372
19	0x3d17b5a4	0.03703846
20	0xbe1433d4	-0.14472896
21	0x3c3d1d58	0.011542641
22	0xbe0f2eb0	-0.13982654
23	0x3deaefc1	0.11471511
24	0x3c8e6144	0.017380364
25	0xbc7326a0	-0.014840752
26	0xbd1c46eb	-0.03815357
27	0xbb8fcd5a	-0.0043884935
28	0xbd793ed7	-0.060850944
29	0x3d284bf2	0.041088052
30	0x3cbfc3bb	0.023408761
31	0x3bb61187	0.0055562886

onnx::Conv_139 f4 [32, 1, 1]
0	0x3f441a22	0.76602376
1	0x3f54470f	0.82920927
2	0xbe70995b	-0.23496
3	0x3f6b3119	0.9187179
4	0xbe60b52c	-0.21944112
5	0x3e4e1499	0.20125045
6	0xbef9f83d	-0.48822203
7	0x3f1691ed	0.58816415
8	0x3f61ab5d	0.88152105
9	0xbf3be2e9	-0.7339311
10	0x3f5e823e	0.86917484
11	0x3e3f0eb3	0.18657951
12	0x3f3cf22f	0.7380704
13	0x3e0b811c	0.1362347
14	0x3ef7838b	0.48342547
15	0xbe103e7e	-0.14086339
16	0x3f453237	0.77029747
17	0x3e178ad4	0.14799052
18	0xbeee5aad	-0.46553555
19	0x3e8252fa	0.2545393
20	0xbeecba7a	-0.4623602
21	0xbdf1251a	-0.11774655
22	0xbecfb991	-0.40571263
23	0x3f2a17f6	0.6644281
24	0xbf49ea07	-0.7887272
25	0xbeebc31c	-0.46047294
26	0xbe910de5	-0.28330913
27	0xbf19b125	-0.60035926
28	0x3dc38007	0.09545904
29	0xbf7cd8fb	-0.98768586
30	0x3f6737b8	0.90319395
31	0xbf59ad98	-0.8503051

onnx::Conv_142 f4 [32, 32, 1]
0	0x3d60b9ec	0.05486481
1	0xbd1219f0	-0.035669267
2	0x3e14ef11	0.14544322
3	0xbdd39eb2	-0.10333003
4	0xbddea655	-0.10871569
5	0xbddf0f12	-0.10891546
6	0x3e2011b6	0.15631756
7	0x3d6f26fa	0.05838678
8	0x3e309ec8	0.1724807
9	0xbe19573a	-0.1497468
10	0xbe343623	-0.17598777
11	0xbe0e5984	-0.13901335
12	0xbe02750d	-0.12739964
13	0x3d94110c	0.07229814
14	0x3d76dc86	0.0602689
15	0x3e148e6d	0.14507456
16	0xbdbc9dc7	-0.09209781
17	0xbdf9354a	-0.12168367
18	0x3dbb2154	0.09137216
19	0xbd8894e5	-0.066690244
20	0x3de07511	0.10959829
21	0xbd1d8292	-0.0384546
22	0x3dcbb27e	0.09946154
23	0xbe14f71f	-0.14547394
24	0xbdbef2c8	-0.093236506
25	0x3d660712	0.056159087
26	0x3d2192a6	0.039446495
27	0xbd3ef682	-0.046621807
28	0x3dd1a431	0.10236395
29	0x3df41341	0.11917735
30	0xbe06cae2	-0.13163331
31	0xbdcaa9b3	-0.09895649
32	0x3e2533aa	0.1613299
33	0xbd74e8e1	-0.059792403
34	0xbd7267d7	-0.05918106
35	0xbe32d943	-0.17465691
36	0xbdd398a1	-0.10331846
37	0x3d4b8496	0.04968699
38	0xbcc8efd3	-0.02452842
39	0xbe0229df	-0.12711285
40	0x3bd397d1	0.006457307
41	0xbdf1f607	-0.11814504
42	0xbe18200d	-0.14855976
43	0xbdbebde9	-0.09313566
44	0xbe1a99ef	-0.15097784
45	0xbde0776b	-0.10960277
46	0x3e32ec25	0.17472894
47	0x3d17a766	0.037024878
48	0x3d6061d2	0.05478079
49	0xbe2565e3	-0.16152148
50	0xbde98384	-0.11402038
51	0xbd778759	-0.060431812
52	0x3ccf1fc3	0.0252837
53	0xbe1e6e7b	-0.15471832
54	0xbd9e7c2e	-0.07738529
55	0xbdd8deba	-0.10589357
56	0x3a3d3987	0.000721835
57	0xbd868879	-0.06568999
58	0xbc5d9e75	-0.013526549
59	0xbdf2ec94	-0.1186153
60	0xbdfc4d35	-0.123194136
61	0xbdd1372e	-0.10215603
62	0xbd7ace76	-0.061232053
63	0xbe0ec2ca	-0.13941494
64	0x3e124e5f	0.14287709
65	0xbd0c81e8	-0.034303576
66	0x3e15d0b5	0.14630397
67	0x3d58d01b	0.05293284
68	0xbe20b8d7	-0.15695511
69	0x3decde80	0.11565876
70	0xbd377650	-0.044790566
71	0xbd88ba29	-0.06676132
72	0xbe176397	-0.14784084
73	0xbe376b4c	-0.17912024
74	0x3d3f6f0e	0.04673677
75	0xbd25623a	-0.04037688
76	0x3d83fd8a	0.06444843
77	0xbe17f8c0	-0.14840984
78	0x3e0c001b	0.13671915
79	0xbe073c37	-0.13206564
80	0xbcf7e71a	-0.030261565
81	0x3d09ebbc	0.03367208
82	0x3dbe2b73	0.09285631
83	0x3e1715ce	0.14754412
84	0x3e24d393	0.16096334
85	0xbe0f3a66	-0.13987121
86	0x3d37a811	0.044838015
87	0xbd98987d	-0.0745096
88	0xbca877f3	-0.020565009
89	0xbe0a3616	-0.13497195
90	0x3e28cc05	0.16484077
91	0xbe027080	-0.12738228
92	0x3dbce5ba	0.09223504
93	0x3d853cb4	0.06505719
94	0x3d6c64b5	0.05771323
95	0xbdbcdc54	-0.09221712
96	0x3e23b34e	0.15986368
97	0x3d163769	0.036673937
98	0x3ca69687	0.020335449
99	0xbe237c94	-0.15965492
100	0x3d99ab33	0.07503357
101	0xbc9fc2f0	-0.019502133
102	0xbda95ee3	-0.08270051
103	0x3e184b93	0.1487258
104	0x3d1f13c6	0.038837217
105	0xbdcaf65b	-0.0991027
106	0xbdb71465	-0.08939437
107	0xbbc3a62d	-0.0059707374
108	0x3dce4796	0.10072248
109	0xbd3ddcf4	-0.046353295
110	0xbdd5d45c	-0.10440895
111	0xbd6d2580	-0.05789709
112	0xbe0873c3	-0.1332541
113	0x3d840cf4	0.06447783
114	0x3e0dd2d2	0.13849953
115	0xbe2a20a5	-0.16614015
116	0x3d1d2047	0.03836086
117	0x3dbbd6c7	0.09171825
118	0x3d004d14	0.031323507
119	0xbd85c3db	-0.06531497
120	0x3dbb6891	0.09150804
121	0x3dba9001	0.09109498
122	0x3d918551	0.07105506
123	0xbd03e43a	-0.032200076
124	0xbd37c674	-0.044866994
125	0x3ca9383d	0.0206567
126	0xbd02d94e	-0.03194552
127	0xbd535e9e	-0.051603906
128	0x3de37047	0.111053996
129	0x3e1cccf2	0.15312555
130	0xbca9cf0b	-0.020728609
131	0xbd2640f5	-0.04058929
132	0x3bc1afb0	0.005910836
133	0xbc3d5445	-0.011555736
134	0x3d3fd6fe	0.046835892
135	0x3d4a783b	0.049431067
136	0xbe258c8e	-0.16166899
137	0xbd88af2c	-0.066740364
138	0x3e1480de	0.14502284
139	0x3d8cb271	0.068699725
140	0xbc5da33b	-0.013527687
141	0xbdd6a16b	-0.10480007
142	0xbdd6ba4a	-0.104847506
143	0xbe273b7b	-0.16331284
144	0xbd7e5f50	-0.062102616
145	0x3d755c36	0.059902392
146	0x3de0b14d	0.109713174
147	0x3da83a81	0.08214284
148	0xbe1c45d0	-0.15261006
149	0xbde3d187	-0.111239485
150	0xbcb3bfe4	-0.021942087
151	0x3e2d25d3	0.1690896
152	0x3cbf51c9	0.023354428
153	0xbd3bd0b0	-0.045853317
154	0x3d931257	0.071812324
155	0xbd81145f	-0.063027136
156	0xbdec29d3	-0.11531415
157	0x3e095442	0.13411048
158	0xbd9e62ec	-0.077337116
159	0xbd14325c	-0.03618084
160	0xbe32eb16	-0.1747249
161	0x3df39dd5	0.118953384
162	0x3e03b2ce	0.12861177
163	0x3d77f71b	0.060538393
164	0xbe027634	-0.12740403
165	0xbe378c57	-0.17924629
166	0xbe132ab4	-0.14371759
167	0x3e0b5494	0.13606483
168	0x3daa606f	0.083191745
169	0x3e1aa917	0.15103565
170	0x3db90416	0.090339825
171	0x3d2560cc	0.040375516
172	0x3a6b51ba	0.0008976717
173	0xbe0b5783	-0.13607602
174	0xbe1aedc7	-0.15129767
175	0xbe278915	-0.16360886
176	0x3d91e0df	0.07122969
177	0xbdb27251	-0.087132104
178	0xbd01e0b1	-0.031708423
179	0xbdbe8157	-0.09302013
180	0xbd183173	-0.037156533
181	0xbdf8c69e	-0.12147258
182	0xbdf47a6e	-0.11937414
183	0x3d629bec	0.05532448
184	0xbd4fde48	-0.050749093
185	0x3de653ea	0.11246474
186	0xbd54a582	-0.051915653
187	0xbe0ae692	-0.13564518
188	0xbcd9b819	-0.026577042
189	0xbdb86ef8	-0.090055406
190	0xbd56e083	-0.052460205
191	0xbe293283	-0.16523175
192	0x3dcac8ca	0.09901579
193	0xbdf61386	-0.120154426
194	0x3db8f713	0.09031501
195	0x3da3ac08	0.07991797
196	0x3dffd8fb	0.124925576
197	0xbe08e17f	-0.1336727
198	0x3e02e0a5	0.12781008
199	0xbdb09d3d	-0.08623741
200	0x3d7e7fd8	0.06213364
201	0x3e2a355c	0.16621917
202	0xbcc97414	-0.024591483
203	0x3a69e5d8	0.0008922494
204	0xbd143078	-0.036179036
205	0xbe16624f	-0.14685939
206	0x3dab81d2	0.08374371
207	0xbe306305	-0.17225273
208	0x3ddc44df	0.107553236
209	0x3e0ca3a6	0.13734302
210	0x3e28a7f2	0.16470316
211	0xbd39a054	-0.045318916
212	0xbe1353c9	-0.1438743
213	0x3d297011	0.04136664
214	0x3dcb8b2c	0.09938654
215	0xbe368642	-0.17824653
216	0xbd261cb1	-0.040554706
217	0xbdce4b51	-0.10072959
218	0xbc67c97f	-0.0141471615
219	0xbdafcdc7	-0.08584171
220	0xbd907f7a	-0.07055564
221	0xbd7080cc	-0.05871658
222	0xbe284550	-0.1643269
223	0x3e1372d0	0.14399266
224	0x3e1b5f9c	0.15173191
225	0xbcf962e6	-0.030442666
226	0xbc89d2bd	-0.01682412
227	0xbd94b3dd	-0.07260869
228	0xbe269cb6	-0.16270718
229	0xbe2d6967	-0.16934739
230	0x3d81b4bd	0.06333301
231	0xbdcf5142	-0.101229206
232	0xbde17d12	-0.110101834
233	0xbc2ed95c	-0.01067194
234	0xbd7a3c2f	-0.06109255
235	0xbd5c5434	-0.05379124
236	0x3c36b64c	0.011151861
237	0xbd1ff026	-0.039047383
238	0xbd807ea0	-0.06274152
239	0xbdaa8da6	-0.083277985
240	0xbe0e0690	-0.13869691
241	0x3e1557c3	0.1458426
242	0xbd94ede0	-0.072719336
243	0x3d2b716f	0.041856226
244	0xbd6e110f	-0.058121737
245	0x3c75c86c	0.015001398
246	0x3e2aed73	0.16692142
247	0x3dae335b	0.08505889
248	0xbe1a4a9a	-0.1506752
249	0x3d8ce5e2	0.06879784
250	0x3e25371b	0.16134302
251	0x3d43360f	0.047658976
252	0x3deb44dc	0.11487743
253	0x3e31b40b	0.17353837
254	0xbcd1c3b1	-0.025606008
255	0x3d1d93c8	0.038471013

onnx::Conv_145 f4 [32, 32, 1]
0	0xbdd6bfa0	-0.10485768
1	0xbe014676	-0.12624535
2	0x3c0d0f94	0.008609671
3	0xbdcaf70d	-0.099104024
4	0x3e26dcf2	0.16295221
5	0xbe212873	-0.15738086
6	0x3da3b075	0.07992641
7	0x3e427033	0.18988113
8	0x3dc7284d	0.09724484
9	0x3d9863ec	0.074409336
10	0xbe1f1a20	-0.1553731
11	0x3e376790	0.179106
12	0xbd1a01d0	-0.037599385
13	0xbe125c67	-0.14293061
14	0x3e1c26fb	0.15249245
15	0xbd8f2da6	-0.069911286
16	0x3bfd800e	0.0077362126
17	0x3e370609	0.17873396
18	0xbe09866a	-0.13430181
19	0xbddc7aea	-0.107656315
20	0x3d059708	0.032614738
21	0xbcf09dcf	-0.029372124
22	0x3cd0b105	0.025475034
23	0xbe27b29d	-0.1637673
24	0xbbf6dce3	-0.007533656
25	0xbd709751	-0.058738057
26	0xbdb7373a	-0.089460805
27	0xbe106208	-0.14099896
28	0x3da97ecb	0.08276137
29	0x3cd7a5fb	0.026324263
30	0xbe097d04	-0.13426596
31	0x3e0017ca	0.12509075
32	0x3d102499	0.035191152
33	0x3d4e2e49	0.05033711
34	0xbdcd04ef	-0.10010707
35	0x3d0373c1	0.032092813
36	0x3e3fbf17	0.18725239
37	0x3e0a76cb	0.13521878
38	0xbe001207	-0.12506877
39	0x3e3134ed	0.17305346
40	0x3cd72b92	0.026265893
41	0x3dd7c765	0.10536078
42	0x3e207106	0.15668115
43	0x3e26326d	0.16230173
44	0xbe1bb415	-0.15205415
45	0x3e35e17f	0.17761801
46	0xbe0fa5c7	-0.14028083
47	0x3c73d4eb	0.014882307
48	0xbdd1ca53	-0.102436684
49	0xbc9ec122	-0.019379202
50	0xbcddd54c	-0.027079247
51	0xbb0d4ea6	-0.002156177
52	0xbc9c71d5	-0.019097248
53	0x3c216ef3	0.0098531125
54	0x3e2233ba	0.15840045
55	0x3dacd4a5	0.08438996
56	0x3db191b7	0.08670371
57	0x3db832b2	0.08994044
58	0x3dfd0a6f	0.12355506
59	0x3c546dd5	0.012965639
60	0xbb625595	-0.0034535874
61	0x3cbbcfb3	0.022926187
62	0xbe0cddfe	-0.13756558
63	0xbe2645ff	-0.16237639
64	0x3c59282c	0.013254207
65	0xbd72db02	-0.059290893
66	0xbbd820c8	-0.0065957047
67	0xbcfe47ea	-0.03104015
68	0x3d275d02	0.040860184
69	0x3df2bf6e	0.118529186
70	0xbd87b59f	-0.06626438
71	0x3e1c914c	0.15289801
72	0x3e101861	0.140718
73	0xbe019c09	-0.12657179
74	0xbe0542dc	-0.13013786
75	0xbe1027f2	-0.14077738
76	0xbdc5e333	-0.096624754
77	0xbd5aba7b	-0.053400498
78	0xbcd5d4b2	-0.026102398
79	0xbd3e137c	-0.0464053
80	0xbd96080f	-0.07325756
81	0xbd2f3fde	-0.042785518
82	0xbd8d819d	-0.069094874
83	0x3e38d1e1	0.18048812
84	0xbd8ba023	-0.06817653
85	0xbe019338	-0.12653816
86	0x3d81bc1d	0.06334708
87	0xbca784d7	-0.020449085
88	0x3e013ff6	0.12622055
89	0x3df7600b	0.120788656
90	0x3e25cf56	0.16192374
91	0xbdec633c	-0.11542365
92	0x3de402f1	0.111333735
93	0x3e1727a6	0.14761218
94	0xbda6e955	-0.08149973
95	0x3e1d3edc	0.1535601
96	0x3e1097a5	0.14120348
97	0xbc29eb5d	-0.010371056
98	0x3daf308b	0.08554181
99	0xbd8d0e06	-0.068874404
100	0xbe24b234	-0.16083604
101	0x3d279a0d	0.0409184
102	0x3d544c6f	0.051830705
103	0xbdf41d64	-0.11919668
104	0x3da8a38e	0.082343206
105	0xbe2349ea	-0.15946165
106	0x3e131f1d	0.14367338
107	0x3e2a04ae	0.16603348
108	0x3d427383	0.04747344
109	0xbe018a6d	-0.12650461
110	0x3dccd813	0.100021504
111	0x3d0d2274	0.034456685
112	0x3d0c3842	0.03423334
113	0x3d40c7c3	0.047065508
114	0x3e0dbff7	0.1384276
115	0xbdac3ceb	-0.08410057
116	0xbd112101	-0.035431866
117	0x3d26e3f7	0.040744748
118	0x3cef752c	0.029230677
119	0x3e19602e	0.14978096
120	0xbda64ea0	-0.08120465
121	0xbc6830d5	-0.014171799
122	0x3d028eb2	0.031874366
123	0xbd6e5dd7	-0.05819496
124	0x3df5f8a3	0.12010314
125	0x3ca586f3	0.02020595
126	0xbe271580	-0.16316795
127	0xbc3bd57e	-0.011464475
128	0xbdac4d86	-0.08413224
129	0x3c983948	0.018582001
130	0xbce63e06	-0.028105747
131	0xbe28cea8	-0.16485083
132	0xbcf8f716	-0.030391257
133	0xbc857802	-0.016292576
134	0xbd5468a6	-0.051857613
135	0x3e2a2192	0.16614369
136	0xbd22400e	-0.03961187
137	0x3df27fdf	0.11840796
138	0x3d465a05	0.048425693
139	0xbe13ba9e	-0.14426658
140	0x3d25406d	0.040344644
141	0x3e207484	0.15669447
142	0xbdf1c2a4	-0.11804703
143	0xbdf7c2a9	-0.12097675
144	0x3e376704	0.17910391
145	0x3e1224f0	0.14271903
146	0xbdd402b4	-0.10352078
147	0x3de2bca0	0.110711336
148	0xbcbee636	-0.023303133
149	0xbe29561d	-0.16536756
150	0x3c1e0947	0.009645767
151	0x3d609943	0.05483366
152	0xbd625c82	-0.055264004
153	0x3d84d8f3	0.06486692
154	0xbe1950b1	-0.14972188
155	0x3e03faaa	0.1288859
156	0x3e165f39	0.14684762
157	0x3dbec614	0.09315124
158	0x3d0c5642	0.03426195
159	0x3d654940	0.05597806
160	0xbe073144	-0.13202387
161	0xbd41b1e3	-0.047288787
162	0xbc1994be	-0.009373842
163	0xbddfd88d	-0.10929976
164	0xbe0c48f1	-0.136997
165	0x3dff39db	0.12462207
166	0x3e06f421	0.13179065
167	0xbe2604ae	-0.16212723
168	0x3d854686	0.06507592
169	0x3d99ac39	0.07503552
170	0x3e2fbd2e	0.1716201
171	0x3ddd613b	0.10809561
172	0x3e1e5ff0	0.15466285
173	0xbd8689b4	-0.065692335
174	0x3e049a87	0.12949573
175	0x3e1e8ec0	0.15484142
176	0xbe357a10	-0.17722344
177	0xbe159da3	-0.14610915
178	0x3d00c18b	0.031434577
179	0x3dcf2c4e	0.10115872
180	0xbda1f504	-0.07908061
181	0x3c670052	0.014099197
182	0x3945a46d	0.00018848637
183	0x3d309798	0.04311332
184	0xbda44d15	-0.08022515
185	0x3dcdba52	0.100453034
186	0x3e015221	0.12628986
187	0xbdff07cd	-0.1245266
188	0xbba636c4	-0.0050724465
189	0xbbc87d8c	-0.006118482
190	0x3d7d7b26	0.06188502
191	0x3e2a61bb	0.16638844
192	0x3d5e10a9	0.054215107
193	0xbd3ec234	-0.046571925
194	0x3e29c7ae	0.16580078
195	0xbda4da78	-0.08049482
196	0xbd7c229c	-0.061556444
197	0x3c88c7cb	0.016696831
198	0xbdfcaddc	-0.123378485
199	0x3c1ff837	0.009763769
200	0xbde5ee07	-0.11227041
201	0x3c8f29ca	0.017475981
202	0x3c8e937b	0.017404309
203	0x3ce77ecc	0.028258704
204	0xbe25252a	-0.16127458
205	0xbe37dafb	-0.17954628
206	0x3dbba237	0.091617994
207	0x3e27167f	0.16317175
208	0xbe312af9	-0.17301549
209	0x3d6dfaf8	0.05810067
210	0xbe0a6782	-0.13516048
211	0x3c34fa71	0.011046038
212	0x3e2eef27	0.17083417
213	0x3e031140	0.12799549
214	0xbe029049	-0.12750353
215	0x3de4fa8d	0.11180601
216	0x3dd3070e	0.1030408
217	0xbb6b7c1c	-0.003593213
218	0x3e346d8d	0.17619915
219	0xbd9cf64a	-0.076641634
220	0xbd4151cf	-0.04719716
221	0xbdbd5fe7	-0.092468075
222	0x3ce96a72	0.02849314
223	0x3d475599	0.048665617
224	0x3c8591cd	0.016304875
225	0xbdd03a33	-0.101673506
226	0xbdb5fd64	-0.08886221
227	0x3d93976b	0.07206615
228	0xbe1ecd3f	-0.15507983
229	0xbd184b75	-0.037181336
230	0xbc46c6c2	-0.0121323485
231	0xbd90f9d5	-0.07078902
232	0x3d4f6798	0.050635904
233	0x3c1ae27c	0.009453412
234	0x3e00773e	0.12545487
235	0xbcaf379a	-0.021388818
236	0xbdd1ea72	-0.10249795
237	0x3e08215c	0.13293976
238	0x3ce68418	0.02813916
239	0xbd7a4665	-0.06110229
240	0xbdebce43	-0.11513951
241	0x3d1cadbb	0.03825162
242	0xbe267f65	-0.16259535
243	0x3d2db898	0.04241237
244	0x3da837e7	0.082137875
245	0xbe179642	-0.14803413
246	0xbdf43d03	-0.119256996
247	0xbdf70457	-0.12061375
248	0x3e19820b	0.14991014
249	0x3e109bc9	0.14121927
250	0x3b5a1720	0.0033277944
251	0x3e2bb890	0.16769624
252	0xbd55ac65	-0.05216636
253	0xbe32180c	-0.17391986
254	0x3d5fee5c	0.054670677
255	0x3d8426ea	0.06452735

onnx::Mul_150 f4 [32, 1]
0	0x3f8053e7	1.0025605
1	0x3f7eda7d	0.99552137
2	0x3f7ffc6c	0.9999454
3	0x3f8064f2	1.0030806
4	0x3f7d9b36	0.9906496
5	0x3f827105	1.0190741
6	0x3f82ae26	1.0209396
7	0x3f7c67e5	0.9859603
8	0x3f80741e	1.0035436
9	0x3f7f934a	0.9983412
10	0x3f7e64c6	0.9937252
11	0x3f7ffd89	0.9999624
12	0x3f805ad3	1.0027717
13	0x3f802a6a	1.0012944
14	0x3f7ddc8a	0.9916464
15	0x3f7f0234	0.99612737
16	0x3f809fdd	1.0048786
17	0x3f7eec79	0.9957958
18	0x3f7f7e0e	0.9980172
19	0x3f7f35f8	0.99691725
20	0x3f7f854e	0.9981278
21	0x3f7fb1b6	0.9988054
22	0x3f805f95	1.0029169
23	0x3f7fbd81	0.99898535
24	0x3f8051a8	1.002492
25	0x3f7f696a	0.99770224
26	0x3f80640f	1.0030535
27	0x3f802590	1.0011463
28	0x3f815842	1.0105059
29	0x3f7dcb2e	0.9913815
30	0x3f81d042	1.014168
31	0x3f7f8853	0.9981739

onnx::Add_151 f4 [32, 1]
0	0x3b3ff51f	0.002929039
1	0xbb550e41	-0.0032509717
2	0xbb51cf57	-0.0032014453
3	0xbbecfc24	-0.007232206
4	0xbc5943d0	-0.013260797
5	0x3a1f14e8	0.0006068484
6	0x3909d44a	0.00013144422
7	0xbc3f636d	-0.01168142
8	0xbb285399	-0.0025684594
9	0xbbbdbc62	-0.0057902792
10	0xbb747489	-0.0037300906
11	0xbaba9b21	-0.0014236906
12	0x3b74c56b	0.0037349116
13	0xba95c58e	-0.0011426674
14	0xbc2df495	-0.010617395
15	0xbbdaf19b	-0.0066816336
16	0xbbe6bdb9	-0.0070416597
17	0xbc26ff89	-0.01019276
18	0xbb1440bc	-0.0022621593
19	0xbb94b100	-0.0045377016
20	0xba8a1162	-0.0010533745
21	0x393355b0	0.00017102691
22	0xbbe913bf	-0.0071129496
23	0xbc0f5f80	-0.008750796
24	0x3b43e541	0.0029891285
25	0xbaf85860	-0.0018947236
26	0x3b7b00de	0.0038300077
27	0xbbcc5772	-0.00623601
28	0xbb8b4ab1	-0.0042508473
29	0xbc1e1766	-0.009649133
30	0xba9b05fc	-0.0011827345
31	0xbb895858	-0.0041914396

onnx::Conv_154 f4 [32, 1, 1]
0	0x3ef500f5	0.47852293
1	0x3e8bd6d4	0.27312338
2	0xbec47ea3	-0.38377866
3	0x3f1bf556	0.6092123
4	0xbea49385	-0.32143798
5	0xbd09b50c	-0.033619925
6	0xbec2e001	-0.38061526
7	0xbf72d4ac	-0.9485576
8	0x3e25667e	0.16152379
9	0x3e942059	0.2893093
10	0xbf00d42d	-0.50323755
11	0x3f1ce820	0.61291695
12	0xbf6595dd	-0.896818
13	0xbf76dfa5	-0.96435004
14	0xbf1e1ed6	-0.617658
15	0xbeb10637	-0.34575054
16	0xbde4be8a	-0.11169155
17	0xbe45b712	-0.19308117
18	0x3ee97004	0.45593274
19	0xbf608e3d	-0.8771704
20	0x3e1700ca	0.14746395
21	0x3c8af772	0.016963694
22	0x3e871a0f	0.2638707
23	0x3f7e6959	0.993795
24	0x3f1d9468	0.61554575
25	0xbf0dd769	-0.55406815
26	0xbf51c7a7	-0.8194527
27	0xbe7824b1	-0.24232747
28	0xbf005728	-0.5013299
29	0x3eb31af1	0.34981492
30	0x3c200c25	0.0097685205
31	0x3f4ddb6e	0.8041295

onnx::Conv_157 f4 [32, 32, 1]
0	0x3bf12316	0.007358919
1	0xbd4becfb	-0.04978655
2	0x3d52ac67	0.051433947
3	0xbdf6140b	-0.12015542
4	0x3d952c76	0.07283871
5	0xbe1be4b9	-0.1522397
6	0xbdc00d88	-0.09377581
7	0xbdbf5111	-0.09341634
8	0x3db02ceb	0.086023174
9	0xbb8840ef	-0.0041581313
10	0xbe2d814b	-0.16943853
11	0xbdcfc685	-0.101452865
12	0xbda887c4	-0.0822902
13	0xbe277e71	-0.16356827
14	0x3cb5a188	0.02217175
15	0x3d81fc13	0.063469075
16	0xbd06cb95	-0.032908995
17	0xbd8f1fcb	-0.06988486
18	0xba1d7144	-0.00060059526
19	0xbe0f49fc	-0.13993067
20	0xbddd706c	-0.108124584
21	0xbb6ad89f	-0.0035834683
22	0x3e2150df	0.15753506
23	0xbd5cc282	-0.053896435
24	0x3db274a1	0.087136514
25	0xbd8d881e	-0.06910728
26	0xbd42b5dc	-0.047536716
27	0xbe2cd385	-0.16877563
28	0x3e1679c1	0.14694883
29	0x3e30bb73	0.17259006
30	0xbb54662e	-0.0032409537
31	0x3de51827	0.11186247
32	0x3e13474b	0.14382665
33	0x3db4c3b0	0.08826387
34	0x3dbb6637	0.09150355
35	0xbe2b83ba	-0.16749468
36	0xbe2a7c14	-0.16648895
37	0xbe0b5cca	-0.13609615
38	0x3d648e02	0.05579949
39	0xbe1bcd44	-0.15215021
40	0xbe0a9a64	-0.13535458
41	0xbdb072ee	-0.08615671
42	0xbe273b60	-0.16331244
43	0x3a57a258	0.000822579
44	0x3cd57302	0.026055817
45	0xbdd4ca35	-0.103901304
46	0x3dedf18b	0.11618336
47	0xbd8a75b7	-0.067607336
48	0xbd494270	-0.049135625
49	0x3e092a4b	0.1339504
50	0x3e1aa396	0.15101466
51	0xbca0f7b4	-0.019649364
52	0xbe01340d	-0.12617512
53	0xbdb69489	-0.089150496
54	0x3cb37acc	0.02190914
55	0x3dd2cd49	0.10293061
56	0x3db309c1	0.08742095
57	0xbda0d7b3	-0.07853641
58	0xbe2a545e	-0.16633746
59	0xbe1da420	-0.1539464
60	0xbd687368	-0.056750685
61	0x3ad4b0ac	0.0016226969
62	0xbda39a20	-0.079883814
63	0xbe0e5edf	-0.13903378
64	0x3c9b16fe	0.018931862
65	0xbe0f6b0a	-0.14005676
66	0xbe0b602e	-0.13610908
67	0xbe138a7a	-0.14408293
68	0xbd42f1ae	-0.047593765
69	0x3e2046eb	0.15652053
70	0x3d8ceb79	0.0688085
71	0xbcae6d88	-0.021292463
72	0x3d1665b0	0.03671807
73	0x3d90ded1	0.07073749
74	0x3ab1ae85	0.0013556039
75	0xbe126578	-0.1429652
76	0xbddfca76	-0.10927288
77	0xbdf55e5f	-0.119808905
78	0xbb9dbf8c	-0.004814094
79	0xbe256e59	-0.16155376
80	0xbd0506eb	-0.0324773
81	0xbd83c445	-0.0643392
82	0x3e320acc	0.17386931
83	0x3e12d318	0.14338338
84	0x3dd1b456	0.102394745
85	0x3c270d68	0.010196067
86	0xbd692e8f	-0.056929167
87	0x3d3a1e1a	0.045438863
88	0xbdf98cb7	-0.12185042
89	0xbd99ccb1	-0.07509745
90	0xbd12d1d3	-0.035844635
91	0xbd2b847f	-0.041874405
92	0xbe2b327f	-0.16718481
93	0x3d909ac7	0.070607714
94	0x3e15769c	0.14596027
95	0xbdc86b67	-0.0978611
96	0x3d3fa82b	0.046791237
97	0xbca09215	-0.019600907
98	0xbbb769aa	-0.005597313
99	0x3c36ae95	0.011150022
100	0x3e1bfc59	0.15232982
101	0x3cbb0ebc	0.022834174
102	0xbde35552	-0.11100258
103	0xbd807b2a	-0.06273492
104	0x3daf1de2	0.085506216
105	0x3d5e75eb	0.054311674
106	0x3b2954c8	0.0025837887
107	0xbcb8176e	-0.02247211
108	0xbd8b1a23	-0.067920946
109	0xbd82391b	-0.06358548
110	0xbdbd3c16	-0.09239976
111	0x3ce65425	0.028116295
112	0x3d4ed06a	0.050491728
113	0x3e09bd22	0.13451055
114	0xbd270e13	-0.040784907
115	0x3c5d389d	0.013502267
116	0x3debb5e3	0.115093015
117	0x3d9df278	0.07712263
118	0x3cb31d57	0.021864576
119	0x3d5b03bc	0.05347036
120	0x3c015dcd	0.007895899
121	0xbe1c2253	-0.15247469
122	0x3bfb2511	0.007664331
123	0xbd1ac6de	-0.03778731
124	0x3e2278fd	0.15866466
125	0x3e2433a3	0.16035323
126	0x3d0c2723	0.03421701
127	0x3e22a7fa	0.1588439
128	0xbdb957b8	-0.09049934
129	0x3e1caaea	0.15299574
130	0x3e1b324b	0.15155904
131	0xbbeaa07d	-0.007160245
132	0xbe10a094	-0.14123756
133	0xbd67994e	-0.056542687
134	0xbd4306c6	-0.04761388
135	0x3b23b770	0.0024981163
136	0xbe23733e	-0.1596193
137	0x3d07b1e5	0.033128638
138	0xbd957cc6	-0.07299189
139	0xbd3adb42	-0.045619257
140	0xbdbb90c6	-0.09158473
141	0xbd16f192	-0.036851473
142	0xbe284976	-0.16434273
143	0xbdbecebc	-0.09316775
144	0x3c81cbec	0.015844308
145	0x3dedbe9e	0.11608623
146	0x3e24af0d	0.16082402
147	0xbe091dec	-0.1339032
148	0x3d96f420	0.07370782
149	0xbdcafbb4	-0.0991129
150	0xbe0b51f7	-0.13605486
151	0xbbf0f3b8	-0.0073532723
152	0xbdce1e01	-0.100643165
153	0xbe1b3dc7	-0.15160285
154	0xbe2957b4	-0.16537362
155	0xbdf2d347	-0.11856704
156	0x3e14f4f9	0.14546575
157	0x3dca7580	0.098856926
158	0xbd8e3cfb	-0.06945225
159	0xbdf2cf23	-0.118559144
160	0xbe0b8194	-0.13623649
161	0xbdd5dbbd	-0.104423024
162	0xbd942e92	-0.07235445
163	0x3dd9fedf	0.10644316
164	0x3d6b66b0	0.057470977
165	0xbd8c1de4	-0.06841639
166	0x3df9c1db	0.12195178
167	0xbde01240	-0.10940981
168	0xbe13b850	-0.14425778
169	0x3d1c8c18	0.03821954
170	0xbdc82f41	-0.09774638
171	0x3d4f3d6c	0.050595686
172	0x3e199d56	0.15001425
173	0xbdabc8d7	-0.083879165
174	0xbdfbc7d6	-0.12293975
175	0x3d877da3	0.0661576
176	0xbe2308fe	-0.15921399
177	0x3e210d50	0.15727735
178	0xbdab8d0f	-0.08376514
179	0x3daf9cb2	0.08574809
180	0xbe0f7ff1	-0.1401365
181	0xbdf58eab	-0.119901024
182	0x3c9cab89	0.019124763
183	0x3d7fcc12	0.062450476
184	0x3e0ca130	0.13733363
185	0x3e16f2b7	0.14741026
186	0xbc20e757	-0.009820781
187	0xbcb74ea3	-0.022376364
188	0x3cec71b1	0.028862806
189	0xbd297bf8	-0.04137799
190	0x3bb9feba	0.0056761177
191	0xbe2af97c	-0.16696733
192	0xbe14602d	-0.14489813
193	0x3df7bb42	0.120962635
194	0xbdd44335	-0.10364381
195	0x3e0e5282	0.13898662
196	0x3ca15a4d	0.01969638
197	0x3d31a7af	0.043372806
198	0x3e244d85	0.16045196
199	0xbdca0fbe	-0.09866284
200	0xbce2537a	-0.027627695
201	0x3d018bed	0.031627584
202	0x3d78b195	0.06071623
203	0xbe3090f4	-0.17242795
204	0x3d8023f1	0.06256855
205	0xbdd50296	-0.10400884
206	0x3cbbed73	0.022940373
207	0x3df5a8df	0.119951
208	0xbc92b8c2	-0.017910365
209	0xbbad98d5	-0.00529776
210	0xbc53ba10	-0.012922779
211	0x3e16d3e3	0.14729266
212	0x3dcd436b	0.100226246
213	0x3cf65d7b	0.030073872
214	0xbdd96237	-0.10614436
215	0xbdc41a2d	-0.09575305
216	0x3e10c656	0.14138159
217	0x3e02974e	0.1275303
218	0x3dd12074	0.10211268
219	0xbe0d8368	-0.13819659
220	0x3e0d57ff	0.13803099
221	0xbc880a54	-0.016606487
222	0x3e05bb65	0.13059767
223	0x3e1d008c	0.1533224
224	0x3c9e2ad0	0.019307524
225	0xbd967d7a	-0.073481515
226	0x3e2a44e1	0.16627838
227	0xbdbc7224	-0.09201458
228	0x3dec50b3	0.1153883
229	0xbe2d96c5	-0.16952045
230	0xbd635bde	-0.055507533
231	0xbe1dae58	-0.15398538
232	0xbda27fb2	-0.07934512
233	0x3d99821a	0.07495518
234	0xbe01bbe2	-0.12669328
235	0xbe1c6b0b	-0.15275209
236	0x3e01731f	0.12641571
237	0x3dc107fe	0.094253525
238	0xbaf33b37	-0.0018557076
239	0xbdff471a	-0.124647334
240	0xbd3f7061	-0.046738032
241	0xbd6aa5e0	-0.057287097
242	0x3ddf5861	0.10905529
243	0xbd6c81b7	-0.057740893
244	0xbd502427	-0.050815728
245	0xbe00560b	-0.12532823
246	0xbdaa989e	-0.08329891
247	0x3dc3cb5e	0.095602736
248	0x3de942f1	0.11389721
249	0x3cd1a9d3	0.025593674
250	0xbd87a01e	-0.06622337
251	0x3e2de132	0.16980436
252	0x3d0e8d38	0.034802645
253	0xbd8bd009	-0.06826789
254	0xbd7b2819	-0.061317537
255	0xbcc9fa42	-0.024655465

onnx::Conv_160 f4 [1024, 32, 1]
0	0xbdd88a75	-0.105732836
1	0x3dc9e10e	0.09857379
2	0xbca75864	-0.02042789
3	0xbdfaff9f	-0.12255787
4	0xbdaf2414	-0.08551803
5	0xbe0a8206	-0.13526163
6	0x3d0fa416	0.035068594
7	0xbdd46416	-0.103706524
8	0xbd578ff4	-0.05262752
9	0xbc3ca19d	-0.011513141
10	0xbdd7cafc	-0.10536763
11	0x3bb4adc2	0.0055138776
12	0xbcb88302	-0.022523407
13	0x3d6a7c60	0.05724752
14	0x3e03be3c	0.12865537
15	0xbdd8b3ee	-0.10581194
16	0x3dc90c8c	0.09816846
17	0xbb1353ac	-0.0022480292
18	0xbdcab6ef	-0.09898173
19	0xbda0f700	-0.078596115
20	0x3d372208	0.04471019
21	0x3d0fca01	0.035104755
22	0xbb9973b0	-0.0046829805
23	0xbdb0319a	-0.08603211
24	0x3db3b6a0	0.08775067
25	0x3cc1a564	0.023638435
26	0xbe2fdebc	-0.1717481
27	0xbcf3402e	-0.02969369
28	0xbd4374e8	-0.047718912
29	0xbd976bcd	-0.07393608
30	0xbdc297a9	-0.09501583
31	0xbe0f65ad	-0.1400363
32	0x3e307c4e	0.17234918
33	0xbe245932	-0.1604965
34	0x3e288758	0.1645788
35	0xbe0edebf	-0.13952158
36	0xbd3092f4	-0.043108895
37	0xbd9489e5	-0.07252864
38	0xbdc2c6bf	-0.09510564
39	0x3d80e5aa	0.06293805
40	0x3dcfde4f	0.10149824
41	0xbded1ae6	-0.11577396
42	0xbda63b23	-0.08116748
43	0x3db93179	0.09042639
44	0xbcaf3c3f	-0.021391032
45	0x3d35545b	0.0442699
46	0x3dc00eae	0.093778
47	0xbd85f05c	-0.065399855
48	0xbdc5c3d4	-0.09656492
49	0x3d87dde7	0.066341214
50	0xbd833880	-0.06407261
51	0xbdefb547	-0.11704498
52	0xbdb69f7a	-0.089171365
53	0xbdaa51ca	-0.08316381
54	0x3e34f631	0.1767204
55	0x3d0ff847	0.035148885
56	0x3d9b167f	0.0757265
57	0x3cad2417	0.021135373
58	0xbdf5372c	-0.11973414
59	0x3e0347dc	0.12820381
60	0xbce0e1a0	-0.027451336
61	0xbd37d5d6	-0.044881664
62	0x3e13a80b	0.14419572
63	0xbdb51065	-0.08841018
64	0x3d0feb32	0.03513641
65	0xbe186bf6	-0.14884934
66	0x3dbc744d	0.0920187
67	0x3d8a3670	0.067486644
68	0xbe139bf4	-0.1441496
69	0x3dc8dd4f	0.09807836
70	0x3c96f282	0.018426184
71	0xbdb80672	-0.08985604
72	0x3e185051	0.14874388
73	0x3d9b41e9	0.07580931
74	0x3d82417f	0.06360149
75	0xbd822c4c	-0.06356105
76	0xbdc185de	-0.09449361
77	0xbdbe1c6b	-0.09282764
78	0x3d8cb3fd	0.068702675
79	0x3d361607	0.0444546
80	0xbdd33ffb	-0.10314938
81	0x3e26bbc8	0.1628257
82	0x3dcf58f4	0.10124388
83	0xbd862716	-0.06550424
84	0x3db8633b	0.09003302
85	0xbd9d83fe	-0.07691191
86	0x3d6a0518	0.057133764
87	0x3e18008b	0.14843957
88	0xbe1e7dad	-0.15477629
89	0xbdb931bb	-0.090426885
90	0xbc2b42ac	-0.0104529075
91	0x3cd998c5	0.026562104
92	0xbe12e550	-0.14345288
93	0xbde99d05	-0.11406902
94	0xbc65f190	-0.014034644
95	0xbcceac6a	-0.025228698
96	0x3d1992dc	0.03749357
97	0x3cad29f8	0.021138176
98	0x3d171507	0.036885288
99	0x3c36390e	0.011122001
100	0x3ca63c3a	0.02029239
101	0xbc2f1b10	-0.010687605
102	0x3d7ec6ec	0.062201425
103	0x3df73d26	0.1207221
104	0xbdb62821	-0.08894373
105	0xbdba3f5e	-0.090941176
106	0x3da2a98f	0.07942497
107	0xbe025833	-0.12728958
108	0x3ded5009	0.11587531
109	0x3daaa48f	0.08332168
110	0x3cdfeecb	0.027335545
111	0xbd9e2d4a	-0.07723482
112	0x3bdf8e4f	0.0068223844
113	0xbe0dc6f5	-0.13845427
114	0xbe230879	-0.15921201
115	0x3e2c22ef	0.16810201
116	0xbe225180	-0.15851402
117	0xbe17e8a9	-0.14834847
118	0xbd89d62c	-0.06730303
119	0x3c39dbdd	0.011343923
120	0x3d1ece52	0.03877098
121	0xbdb617c6	-0.08891253
122	0xbc93fb7d	-0.018064255
123	0xbd1dde2b	-0.038541954
124	0x3e163776	0.14669594
125	0x3e1dbbe5	0.15403707
126	0x3d97745e	0.07395242
127	0xba55cfda	-0.00081562775
128	0x3df6662e	0.12031208
129	0xbe1bb844	-0.1520701
130	0x3dab2b96	0.08357923
131	0xbde6d5e2	-0.11271264
132	0x3e046d33	0.12932281
133	0xbe158797	-0.14602505
134	0x3d5f143a	0.05446265
135	0xbe0e345d	-0.13887163
136	0x3de0d7c4	0.10978654
137	0x3d26b866	0.0407032
138	0x3e24ea6f	0.16105054
139	0xbdfe37e0	-0.12413001
140	0x3df4da12	0.11955656
141	0xbdd807a3	-0.105483316
142	0xbda99112	-0.08279623
143	0x3d70cd53	0.058789562
144	0xbcabadc1	-0.020956876
145	0xbe01c806	-0.12673959
146	0xbe232cd1	-0.15935065
147	0xbd0cb5b1	-0.034352962
148	0x3d1bf48c	0.038075015
149	0x3e0ffc72	0.14061144
150	0x3e0e83cc	0.13917464
151	0x3c68cd2b	0.014209072
152	0xbdebe94c	-0.11519107
153	0xbe2c3112	-0.16815594
154	0x3e1f036a	0.15528646
155	0xbdc86f0b	-0.09786805
156	0xbccb862e	-0.024844255
157	0xbe04bfd6	-0.12963805
158	0xbde5802c	-0.112060875
159	0x3d09bd25	0.033627648
160	0xbd23e0bd	-0.04000925
161	0x3cad456e	0.02115127
162	0xbafe550e	-0.001940401
163	0x3c5510a5	0.013004457
164	0xbcfc869a	-0.030825902
165	0xbbb1c35f	-0.0054249014
166	0x3da2c861	0.079483755
167	0x3e015d98	0.1263336
168	0x3e1c54ee	0.15266773
169	0xbe135d3c	-0.14391035
170	0xbe1b4a0e	-0.15164968
171	0xbcfa0770	-0.030521125
172	0xbc1a7a7d	-0.009428618
173	0x3dc2510c	0.09488115
174	0x3e282cf2	0.16423395
175	0x3d4901d8	0.049074024
176	0xbe03aa9b	-0.1285805
177	0xbcba471f	-0.022738991
178	0x3ddd2942	0.10798885
179	0x3d7d9474	0.061909154
180	0xbdf9eed4	-0.12203756
181	0x3c56c3a9	0.013108172
182	0xbe31dd22	-0.17369512
183	0xbd97f106	-0.074190184
184	0x3dfb834b	0.122809015
185	0xbd968053	-0.07348695
186	0x3de2e0e3	0.1107805
187	0xbe18595f	-0.14877842
188	0x3e1bffa1	0.15234233
189	0x3da5ba4e	0.080921754
190	0x3de2f4f7	0.110818796
191	0x3d23ae6f	0.039961275
192	0x3c265711	0.010152594
193	0xbdb53c48	-0.08849388
194	0xbdc14378	-0.09436697
195	0xbdf7aa7e	-0.12093066
196	0x3e1a42d6	0.15064558
197	0xbd595026	-0.05305495
198	0x3b1dc787	0.0024075226
199	0xbe2a09fe	-0.16605374
200	0x3d6ae98d	0.057351638
201	0xbd545566	-0.051839255
202	0xbe08e0e7	-0.13367043
203	0x3ca4eea6	0.020133328
204	0xbe22c10c	-0.15893954
205	0xbc849018	-0.01618199
206	0xbe10bd26	-0.14134654
207	0x3deddf5f	0.1161487
208	0xbe16fe95	-0.14745553
209	0x3cf6e933	0.030140495
210	0x3d9adac4	0.075612575
211	0xbe0f99cf	-0.14023517
212	0x3dd4c016	0.103882
213	0x3e0f8c26	0.14018306
214	0xbdd98b96	-0.10622327
215	0x3c843357	0.016137762
216	0x3d3c814e	0.046021752
217	0x3e144b67	0.14481889
218	0x3e14a2f6	0.1451529
219	0xbe21efbc	-0.15814108
220	0xbe11ba55	-0.14231236
221	0xbe1ea561	-0.15492775
222	0xbdaaec65	-0.0834587
223	0xbd40d1e8	-0.047075182
224	0xbd8626ed	-0.06550393
225	0x3de54324	0.11194447
226	0xbdf29e5e	-0.118466124
227	0xbe1458f7	-0.14487062
228	0xbe0ea1ff	-0.13928984
229	0xbdd4875e	-0.10377382
230	0x3e2d5e48	0.16930497
231	0x3ccf66ad	0.025317514
232	0xbcfea4a8	-0.031084374
233	0xbd4e3d35	-0.05035134
234	0xbe059991	-0.13046862
235	0xbd67f144	-0.056626573
236	0x3dc55cd6	0.09636848
237	0x3dfee378	0.1244573
238	0x3e07cff4	0.13262922
239	0x3c12f2c2	0.008969011
240	0xbdbd5e89	-0.09246547
241	0xbdcbdb5f	-0.09953951
242	0x3e2cbbde	0.1686854
243	0xbe1e696f	-0.15469907
244	0x3d206111	0.03915507
245	0xbcb030d7	-0.021507664
246	0x3e2d3de9	0.16918148
247	0x3dddcbe6	0.10829906
248	0xbd4af867	-0.0495533
249	0xbe1ba9b0	-0.1520145
250	0x3cab5478	0.020914301
251	0xbdf99038	-0.12185711
252	0xbc8c18f6	-0.017101746
253	0x3d432e0e	0.047651343
254	0x3db93565	0.09043387
255	0xbd3f88cf	-0.04676133

onnx::Mul_165 f4 [32, 1]
0	0x3f815aa6	1.0105789
1	0x3f80f81a	1.0075715
2	0x3f7dbb16	0.99113595
3	0x3f7fcc4e	0.9992112
4	0x3f7f5a5a	0.9974724
5	0x3f7e10d4	0.9924443
6	0x3f81a701	1.012909
7	0x3f81024b	1.0078825
8	0x3f7f52cf	0.9973573
9	0x3f80306a	1.0014775
10	0x3f80c110	1.0058918
11	0x3f7cb3cc	0.9871185
12	0x3f81140b	1.0084242
13	0x3f803624	1.0016522
14	0x3f811f11	1.0087606
15	0x3f7f8cd8	0.99824286
16	0x3f7f40d5	0.997083
17	0x3f7f1966	0.9964813
18	0x3f81dd20	1.0145607
19	0x3f7f200e	0.99658287
20	0x3f819e53	1.0126442
21	0x3f7e9252	0.9944202
22	0x3f80bde9	1.0057956
23	0x3f81a8aa	1.0129597
24	0x3f818dc8	1.0121393
25	0x3f7eb6ce	0.9949769
26	0x3f7fd712	0.99937546
27	0x3f7f03ae	0.9961499
28	0x3f80c63a	1.0060494
29	0x3f7f55ed	0.9974049
30	0x3f7f94a1	0.99836165
31	0x3f7e0c93	0.99237937

onnx::Add_166 f4 [32, 1]
0	0x3c1878b2	0.00930612
1	0x3bf10809	0.007355694
2	0xbbb2b1da	-0.0054533305
3	0xbb80ae58	-0.0039270334
4	0xbb0ee077	-0.0021801272
5	0xbbf0d967	-0.007350135
6	0x3c195516	0.009358665
7	0x3b9a6c50	0.004712619
8	0xbb57cd0a	-0.003292861
9	0x3b24a9b2	0.002512556
10	0x3bbe3226	0.005804318
11	0xbc1a2d6b	-0.009410243
12	0x3c14496e	0.00905071
13	0x3b50800f	0.003181461
14	0x3b0f00d1	0.0021820555
15	0xba910141	-0.0011062996
16	0xbba0d52f	-0.004908226
17	0xbb5fbe31	-0.0034140463
18	0x3c01ab3e	0.0079143625
19	0xbb36429e	-0.0027810703
20	0x3c26a3cc	0.010170888
21	0x39b57661	0.0003461121
22	0x3c076354	0.008263428
23	0x3bdc0c03	0.006715299
24	0x3c438710	0.011934057
25	0x3b6a3260	0.0035735592
26	0xbb38c848	-0.0028195549
27	0xbb33c9c8	-0.0027433503
28	0x3bef182c	0.0072965827
29	0xbb14499e	-0.0022626887
30	0xbb0aa211	-0.0021153728
31	0xbb1dbdd8	-0.0024069455
