Config/NeuralNets/WhistleDetector/whistlenet.onnx (onnx, 712100 bytes, 10 tensors)

conv.15.weight f4 [64, 128, 5]
00000000: ade6 80bd 4605 82bd 72e8 7bbd 3c8a 7ebd
00000010: 4527 75bd 76d9 f939 6a1e e439 1cf8 f339
00000020: 1650 e439 6787 e639 99ca 1fbd 920b 29bd
00000030: c25d 20bd a809 1bbd 92ea 13bd 341b 1ebc
00000040: 2c34 12bc 0f85 00bc 0c0a 04bc 90cd fdbb
00000050: 00b1 53b4 bdc0 b5b4 449f c3b4 0143 bab4
00000060: 7a52 b5b4 b93f 4ebc 7380 7fbc 1b42 4bbc
00000070: 7c6c eabb a21d ccbb b320 1fbd f685 24bd
00000080: 28e5 24bd 37af 23bd 021f 2dbd 3533 5cbd
00000090: f64a 65bd 0094 64bd cba9 67bd 32af 68bd
000000a0: 8f56 4d37 b9e0 2837 d3cd e636 3236 d436
000000b0: fcb6 af36 da2d 5736 a8d0 6336 0165 9836
000000c0: 8ce7 6136 c42c 8335 013d 0a39 c078 0c39
000000d0: 966e 0539 330b 1039 d1de 0a39 10a7 52bd
000000e0: a8ee 56bd 3397 57bd b479 50bd 900a 51bd
000000f0: 4edb c83a ef4f 7b3b cdc3 bf3b d075 c6b8
00000100: cf87 b2bb 80ca 49bc d0d8 4abc fc37 50bc
00000110: 8f3a 57bc 6c09 5fbc ff66 d938 9374 dd38
00000120: 2039 e238 afe0 de38 1849 da38 187e 02b5
00000130: e100 02b5 91cf e8b4 d939 afb4 5e96 8db4
00000140: 4d98 e1b6 44c9 02b7 47de ddb6 29e8 02b7
00000150: cae7 0cb7 1573 352e a339 702e 920e 622e
00000160: 149f 612e 6f85 722e 5f01 a43b d317 9b3b
00000170: 202e 7e3b b8b8 95ba f91a 8bbb 547b 8829
00000180: fa44 b42a 543a d82a 7130 b12a 24f7 462a
00000190: 0742 3abc e155 42bc f7f6 21bc e900 acbb
000001a0: 11c6 cbbb 154a b0bc dd3e b0bc 24d8 b6bc
000001b0: e31a c2bc 4e92 c9bc c0df a02d 2426 ab2d
000001c0: f43f 7e2e 16e0 952e e261 c62e 3bd7 d2bb
000001d0: f07c c83a 5a54 b73b 2f57 ac3b f049 e8ba
000001e0: 5b3c f234 9473 0b35 0039 0d35 2e4b 0f35
000001f0: 43fb 1435 a465 eb39 607c e239 7187 ca39
00000200: ec25 ad39 89f5 8239 b1fb 6abb c00f 033a
00000210: 5285 2bba 6dad 99ba ac68 05bb 1bef 98bb
00000220: f74e 4bbb 3810 09ba 2d3d 0b3b b844 c53a
00000230: e578 04bd 41d2 09bd 5b8c 0cbd 25e0 10bd
00000240: 92eb 01bd a465 9ebc 6b4f 83bc e8e9 4abc
00000250: 9ebd 02bc a0bc 0abc 8a8c 8ab2 f03d 89b1
00000260: 2053 aab1 e869 f5b1 a65d 06b2 909e a4b8
00000270: 4b6e a8b8 34b1 95b8 9405 6ab8 eff2 0db8
00000280: 8c7b 1238 88d1 0e38 60bd c338 184d 2a38
00000290: 988c 01b8 a45a 81a5 209d 1624 00d6 3125
000002a0: 9c72 83a5 1882 33a5 662d a8af 2eb8 7faf
000002b0: 2fa3 adaf 8fe6 b4af d62b a1af 37f5 343a
000002c0: f00f 2a3a 6355 243a aee6 103a 18b2 fc39
000002d0: 7717 51bd 9dd5 4fbd 0f35 4cbd 963f 50bd
000002e0: 2309 50bd 0ef8 8239 446b d83a bcb4 303b
000002f0: f4d4 473b d786 f53a 8118 68bd a687 6abd
00000300: 1526 73bd 6c25 72bd c44d 6bbd c44b 8537
00000310: 7446 a237 0571 b137 7fa0 ba37 666a b437
00000320: 47b2 9a39 9598 8039 ac84 1d39 f41a 1a39
00000330: 3155 7939 c3d3 7fbc 41f0 33bc 326d 62bb
00000340: dfa3 64bb 9997 a0bb a336 e2bc c355 cbbc
00000350: cf6b bebc 73b7 afbc 395c 97bc 5c7c 69bc
00000360: 171a 31bc 12f7 f5bb 1e71 cbbb 5daa babb
00000370: 8e82 94b8 9c21 fcb8 07f6 37b9 f431 c5b9
00000380: ca81 19ba 9763 39bd 8007 41bd 0926 47bd
00000390: eb9a 41bd 7c52 41bd 84e2 4ebd 9ea8 4fbd
000003a0: 9008 5ebd 7e41 5dbd d51e 6abd d379 a237
000003b0: 614c d337 5ba7 dc37 fc21 e037 5709 ec37
000003c0: 45f2 18bc aef1 bfbb 221b 92bb b93a 5abb
000003d0: 48c7 16bb 8815 653a a20c 913a cd21 993a
000003e0: c1c2 bc3a a0d0 c23a f86c 0bbd 2ab6 14bd
000003f0: 459c 1ebd 0045 22bd a637 24bd 89b3 07bc
-0.06293998 -0.06348662 -0.061500974 -0.06214355 -0.059851903 0.00047655002 0.0004351021 0.00046533428
0.00043547218 0.000439699 -0.03901157 -0.0412708 -0.039151914 -0.037851006 -0.036112376 -0.00965004
-0.008923572 -0.007844224 -0.008059036 -0.007745452 -1.9715299e-07 -3.3854113e-07 -3.643746e-07 -3.4693952e-07
-3.3773887e-07 -0.012588435 -0.0155945895 -0.0124058975 -0.0071540456 -0.0062291184 -0.038849544 -0.040166818
-0.040257603 -0.03996202 -0.0422659 -0.053759772 -0.05597969 -0.055805206 -0.05655841 -0.056807704
1.2239106e-05 1.0065903e-05 6.8784952e-06 6.3244015e-06 5.2367086e-06 3.2064186e-06 3.394709e-06 4.5417114e-06
3.366239e-06 9.773289e-07 0.00013183431 0.00013396423 0.00012725065 0.00013737082 0.00013243711 -0.051428854
-0.052473694 -0.05263443 -0.050897315 -0.051035464 0.0015324147 0.0038347205 0.0058521987 -9.46332e-05
-0.0054483186 -0.012316346 -0.012380794 -0.01270866 -0.01313652 -0.013613086 0.00010366551 0.00010559815
0.0001078716 0.000106276355 0.00010408665 -4.8612264e-07 -4.8430053e-07 -4.3364392e-07 -3.263838e-07 -2.6372703e-07
-6.7232527e-06 -7.795465e-06 -6.6121897e-06 -7.802658e-06 -8.398618e-06 4.125685e-11 5.4620874e-11 5.139939e-11
5.1300367e-11 5.5142942e-11 0.0050050463 0.0047330647 0.0038784817 -0.0011422848 -0.0042451588 6.061007e-14
3.2022285e-13 3.840978e-13 3.147513e-13 1.7671677e-13 -0.011368281 -0.011861295 -0.009885541 -0.005249132
-0.0062186797 -0.0215197 -0.02151435 -0.02231986 -0.023694461 -0.024605896 1.8289259e-11 1.9457387e-11
5.7809715e-11 6.815541e-11 9.021385e-11 -0.006434349 0.0015296023 0.0055947723 0.0052594165 -0.001772223
4.5119927e-07 5.1949723e-07 5.260954e-07 5.338105e-07 5.549993e-07 0.0004489842 0.00043198746 0.00038629354
0.00033025385 0.0002497847 -0.0035855586 0.00049996004 -0.00065429986 -0.0011724659 -0.0020356579 -0.0046671755
-0.0031022409 -0.0005228552 0.002124618 0.0015050387 -0.032341857 -0.03364778 -0.03431354 -0.03537001
-0.031718798 -0.019335575 -0.01602908 -0.012384869 -0.007979779 -0.008467823 -1.6129224e-08 -3.9942663e-09
-4.9571014e-09 -7.1424786e-09 -7.82112e-09 -7.849664e-05 -8.031408e-05 -7.13788e-05 -5.5795143e-05 -3.384327e-05
3.4924175e-05 3.405058e-05 9.3335984e-05 4.0602958e-05 -3.0886935e-05 -2.2439353e-16 3.2659155e-17 1.5424809e-16
-2.280254e-16 -1.5569853e-16 -3.059128e-10 -2.3257549e-10 -3.1584466e-10 -3.290563e-10 -2.9316877e-10 0.0006902995
0.000648736 0.0006268827 0.0005527538 0.00048197876 -0.05104777 -0.050740827 -0.049855288 -0.05084189
-0.050789963 0.00024980347 0.001651146 0.0026963195 0.003049192 0.0018732202 -0.056663994 -0.05725827
-0.05936249 -0.05911772 -0.05744721 1.5890117e-05 1.9344712e-05 2.1152673e-05 2.2247665e-05 2.1507218e-05
0.00029505996 0.00024527745 0.00015022111 0.00014696625 0.00023778227 -0.015614453 -0.010982574 -0.0034549949
-0.0034887714 -0.0049008843 -0.027613943 -0.024821168 -0.023244767 -0.02144978 -0.018476592 -0.014250841
-0.010809443 -0.0075062597 -0.006208553 -0.0056965784 -7.081508e-05 -0.000120225566 -0.00017543892 -0.00037611986
-0.0005855827 -0.045260992 -0.047126293 -0.048620258 -0.047266882 -0.047197804 -0.05050899 -0.050697915
-0.054207385 -0.054017536 -0.05715831 1.9368634e-05 2.5188727e-05 2.6303975e-05 2.6718706e-05 2.8137742e-05
-0.009335105 -0.005857668 -0.004458801 -0.0033299162 -0.0023006964 0.0008738865 0.0011066387 0.0011683047
0.0014401303 0.00148632 -0.034039468 -0.036306538 -0.03872325 -0.039616585 -0.040092133 -0.008282551

conv.15.bias f4 [64]
00000000: 5ca6 99bd eb56 87bd 9de5 c0bb 2532 dfbd
00000010: bb02 99bd 31bb 99bd 08ee 87bd f19c 99bd
00000020: bfc0 99bd 9616 eabd 0e8e 7dbd d1a1 8ebd
00000030: 8182 dfbd 1ab5 99bd c3bb 99bd f0bb 99bd
00000040: b63e 09bd 698d e1bd 759d e6bd b6b3 99bd
00000050: e912 85bd fe6d 99bd 7549 e3bd 363d b1bd
00000060: 8694 98bd 01e4 d3bd f590 8bbd ead3 88bd
00000070: d10f 95bd dcbd 99bd e7f8 99bd 63a8 99bd
00000080: 9d27 94bd f6b5 99bd dc84 99bd 23ba 99bd
00000090: ef8b eabd 5186 ebbd f5b0 99bd 7edc e6bd
000000a0: a2a7 99bd 772d 96bd 9693 84bd ddfb dfbd
000000b0: fd48 8ebd e9b3 99bd fc73 99bd 5c86 193b
000000c0: 9ab6 99bd 4b68 f6bd 96b7 07bd ebb7 99bd
000000d0: b37f 92bd 86a7 99bd a6b2 99bd 55b8 99bd
000000e0: b770 99bd 75ba 99bd 1eba 99bd bcb5 99bd
000000f0: 824d 9abd ee0a 90bd 8dbd 99bd b393 99bd
-0.07502434 -0.06608375 -0.005886747 -0.10898236 -0.07471224 -0.07506407 -0.06637198 -0.07500637
-0.075074665 -0.11430089 -0.061903052 -0.06964458 -0.109135635 -0.075052455 -0.07506516 -0.07506549
-0.03350707 -0.110133 -0.11260501 -0.0750498 -0.064977475 -0.074916825 -0.11097995 -0.08654253
-0.074502036 -0.10346223 -0.06814758 -0.066810444 -0.07278407 -0.07506916 -0.075181775 -0.0750282
-0.07234118 -0.075054094 -0.07496044 -0.07506206 -0.114524715 -0.11500228 -0.07504455 -0.11272524
-0.075026765 -0.073328905 -0.06473462 -0.10936711 -0.06947515 -0.07505018 -0.074928254 0.0023426032
-0.075055316 -0.12031611 -0.033134066 -0.07505783 -0.07153263 -0.07502656 -0.075047776 -0.07505862
-0.07492202 -0.07506267 -0.07506202 -0.07505366 -0.07534315 -0.07033335 -0.07506857 -0.074988745

fc.0.weight f4 [2, 3520]
00000000: d04d aebb 5fe5 3d3c e035 9d3c 53c0 a33c
00000010: 6fe3 d83c 33f3 c53c 81ce 933c 0532 1e3c
00000020: 837b 463c 948a b53b 81d7 263c 849c 3f3c
00000030: 4662 6c3c b77f 3b3c 41b6 893c f51c 873c
00000040: 42fd 813c 67b2 243c d749 803b 92a0 c2bb
00000050: d6ff 28bc b12e 48bc 1cfe 7ebc a9fa 4dbc
00000060: 88aa 8cbb 9325 20ba a545 9a39 bc17 003c
00000070: 30d9 0b3c f4fa 893b 7877 c03a 179f eabb
00000080: 37ee 1bbc 3533 42bc e531 5ebc f31e 70bc
00000090: a9f5 8fbb b79d 35bb ba53 15bb bca2 2fba
000000a0: 1c32 fe3b f894 c43b 5b66 883b c70d 223c
000000b0: cb79 823b 8b76 c8b9 5b64 3cbb fd7a 01bc
000000c0: 4be5 42bc 2d8a 26bc 7805 45bc 5cf8 64bc
000000d0: 9a9b 04bc 7a4b 4ebc 9247 03bc 6273 943d
000000e0: 1f7f 6b3d 7674 a23d c211 313d 107b dc3c
000000f0: c55c 00bc ee40 31bd a8c7 cabd eecc 6bbd
00000100: 8cb9 053c 6530 a13c f9be 743c 0523 ce3c
00000110: 1618 9d3c 2dab 203c 2655 373a c227 0fbb
00000120: cf50 df3b ccba c53c 9a31 9e3c 1265 25ba
00000130: 18bc 623c d476 583c b8f6 da3b 48e4 e53b
00000140: 8f25 cabc 12a2 0dbd 391e 28bc 2740 903b
00000150: eae7 d33b a4f5 443b e5d1 d63b 35a5 f03b
00000160: 8fc8 133b b767 9d3b ba71 40bc f481 a4bc
00000170: 92a4 77bc f294 43bc e8c6 2d3a b729 733c
00000180: 31ef 6d3c fc25 853b a825 ea3a 1e2a 81bb
00000190: f5b4 c2bb a387 b0bb ca9a a2bb 6aa0 81bc
000001a0: d361 5ebc 5d65 22bc ef16 adbb 9a30 08b9
000001b0: 1e7f 35bc 2c9d 1bbc d05c c53e b427 833e
000001c0: 2935 103e 3d4c 9a3d 7221 8fbd 1be3 64bd
000001d0: ba74 e3bb d4a7 273e 4311 0f3e 1426 8c3d
000001e0: 3bd1 72bc 3896 abbd ed95 91bd 9ec7 1cbd
000001f0: f16e acbc 57fa 55b9 e6bf 063d 3f12 b73d
00000200: ec23 ba3d 5349 483d f8aa d63c 9560 9e3d
00000210: e577 8d3d fe93 c63c 9889 ddbb 8c8d 98ba
00000220: 8bf3 783c 5585 a13c 01f0 043d 3c8a 203d
00000230: 7d5f 033d 4e8c 733d e032 9b3d 782a 4f3d
00000240: 4b9f 333d 204f e3b6 afee 9dbc ac0a 1dbc
00000250: effe 47bc f1ea 723c b2f7 303d 94c6 403d
00000260: d812 043d 6718 0e3b 954b c7bc 5e83 04bb
00000270: cbe4 523b 288f d63c 50e5 253d 6662 363d
00000280: 34b9 533d 27d4 783d 603a 4c3d 5e74 233d
00000290: 8ae4 4d3d a128 5abe 3dbe 19be ac82 1abe
000002a0: 4b5b 0bbe 32c5 72be 31b5 b2bd 3bae 0fbe
000002b0: cf90 fe3b 4aca 323d 7630 ea3b dcc8 743c
000002c0: 6db0 01bc 1934 98bc de90 cab9 79c7 da3c
000002d0: 68bc 813d a48f 6a3c b216 4bbc 8cb0 333b
000002e0: c572 963b 5436 b33c fafa 44bc b527 86bd
000002f0: e40f e9bc 0bad 593d 2a00 243d 422b da3c
00000300: 511d f93c 10f7 333d ee44 373d 44ae 283d
00000310: f506 bf3c f83e 663b 5040 963a 3613 833c
00000320: 3e30 153d caad 343d 4693 6c3d 4ab8 383d
00000330: 0bb4 103d f3f2 433d 4a82 1e3d ad89 1b3d
00000340: 56f1 6d3d ceb4 fe3c 1e07 e53c d542 1a3d
00000350: 6ac4 103d abe9 163d 05ee 3b3d e2c3 0b3d
00000360: 100e d83c 1aee fc3c cb98 c23c f715 ec3c
00000370: b9a8 f03d 1015 b03d 45f7 0f3e a008 1d3d
00000380: 933b 0c3d b8f2 adbd 572b dfbd 0baf 10be
00000390: b343 fdbd d7af 85bb a2dd 013d 91fc b03c
000003a0: 8b35 ce3c 8acb 283d 3ebc 05bb d383 b2bc
000003b0: 086b 2ebd a6d7 8abc 2cb2 3c3d 7112 7b3d
000003c0: d07f 4e3c ccae fc3c 9d48 243d e7d5 e43c
000003d0: aed8 f73b 6105 56bd 6b94 80bd 48ee f9bc
000003e0: 8e9e 743c bc7d 7f3c 2cf4 babb 330f 6d3b
000003f0: fcad e43c 6c15 ee3c aca0 043d f152 e23a
-0.0053193346 0.011590331 0.019190729 0.019989168 0.026475636 0.024163818 0.018042805 0.00965548
0.012114408 0.0055402014 0.010183216 0.011695031 0.014427727 0.011444024 0.016810538 0.0164933
0.015867833 0.0100523 0.0039150524 -0.0059395516 -0.010314902 -0.012218163 -0.015563514 -0.012571969
-0.00429279 -0.00061091146 0.00029425058 0.007818159 0.008535668 0.004210824 0.0014684042 -0.0071600783
-0.009517244 -0.011853029 -0.0135617005 -0.014655816 -0.0043932986 -0.0027712414 -0.00227855 -0.00066999695
0.0077574383 0.005999204 0.0041625923 0.00989098 0.003981804 -0.00038235294 -0.002874634 -0.007902858
-0.011895488 -0.01016478 -0.01202523 -0.013975229 -0.008093739 -0.012591237 -0.008012669 0.0724857
0.05749428 0.079323694 0.043229826 0.02691415 -0.007834618 -0.043274812 -0.09901363 -0.057568483
0.008161914 0.019676397 0.01493811 0.025163183 0.019176524 0.0098064365 0.0006993584 -0.0021843766
0.006815053 0.024136923 0.019310761 -0.0006309311 0.01383879 0.013211925 0.006682243 0.0070157386
-0.024676112 -0.03457839 -0.010261112 0.004402179 0.0064668553 0.003005364 0.006555783 0.007343913
0.0022549962 0.0048036235 -0.0117458645 -0.020081498 -0.01511492 -0.011937367 0.00066290656 0.014841489
0.01452236 0.004063366 0.0017864006 -0.0039417883 -0.005941982 -0.005387263 -0.0049623 -0.015823562
-0.013573128 -0.009911862 -0.005282275 -0.00012988076 -0.01107767 -0.009497922 0.38547373 0.2561623
0.14082779 0.075340725 -0.06988801 -0.055880647 -0.006941405 0.16372615 0.13971429 0.068432
-0.014820392 -0.08378261 -0.07108674 -0.038276307 -0.021048995 -0.00020406522 0.032897852 0.08939027
0.09088883 0.048898052 0.026204571 0.07733265 0.06907634 0.02424049 -0.006760787 -0.0011638864
0.015194784 0.019716898 0.032455448 0.03919433 0.032073487 0.059459977 0.07578063 0.05057761
0.043853085 -6.7743385e-06 -0.019278852 -0.009585064 -0.012206777 0.014826522 0.04320497 0.04706438
0.032244533 0.0021682025 -0.024328033 -0.0020219903 0.0032179828 0.02619131 0.040501893 0.044527434
0.051690295 0.0607492 0.04986036 0.0399059 0.05026678 -0.21304561 -0.15013976 -0.1508891
-0.13609044 -0.23708037 -0.08725966 -0.14031307 0.0077687274 0.04364995 0.0071468903 0.014940467
-0.007915598 -0.01857953 -0.00038636377 0.026706444 0.06334764 0.014316473 -0.012395548 0.0027418463
0.0045913183 0.021876492 -0.012022728 -0.06550542 -0.02844996 0.053143542 0.04003922 0.026631955
0.030409487 0.04393679 0.04474347 0.041181818 0.023318747 0.0035132747 0.0011463258 0.016000371
0.03642296 0.04411105 0.05775764 0.045097627 0.035327952 0.047839116 0.038698472 0.037973095
0.058091484 0.031092074 0.027957495 0.037661392 0.035343565 0.036843937 0.04588129 0.034122355
0.026373893 0.030875254 0.023754498 0.028819067 0.11750931 0.08597767 0.1405917 0.038338304
0.034236502 -0.084935606 -0.10896938 -0.14129274 -0.12366428 -0.0040797996 0.031705506 0.021604808
0.025172016 0.041209735 -0.002040639 -0.021791374 -0.04258254 -0.016948532 0.046068355 0.061296884
0.012603715 0.030845068 0.040108312 0.027934028 0.007563672 -0.052251223 -0.062783085 -0.03050913
0.0149303805 0.015593942 -0.005705377 0.003617239 0.027914993 0.02906295 0.03237979 0.001726715

fc.0.bias f4 [2]
00000000: e6da 183e 6df1 d4bd
0.14927253 -0.10397611

onnx::Conv_115 f4 [32, 1, 5]
00000000: 9b93 e2bb 2567 b53b a180 0abb 5ccc 99bb
00000010: 298d da3a b621 fdbb 9fda 46bb 2659 f4bb
00000020: 7baa 1bbb 3e00 413c 35bf 4abc 0fa7 41bc
00000030: 9bd1 463b 2d84 773b 2ad4 c53b 41c1 3239
00000040: d6d8 7c38 30ea 3139 fe62 8738 dbf2 8ab8
00000050: 005a 0d39 8839 b2b7 c87d b239 d61f 3939
00000060: 7cdf 1639 3664 203a 8660 3a3a a871 333a
00000070: 1170 133a 2523 013a 4976 ed3b 8847 083c
00000080: 2b7c 1ebc c231 653c 9915 acba d19a 9db5
00000090: ab34 7eb5 b46c e732 4154 a136 acb5 df36
000000a0: 6fca 0c3b 9556 2c3b 5a24 3e3b 5e1f 303a
000000b0: c73b 793a 63c9 91bb 47de 8d3a ef44 9f3b
000000c0: edf9 133a 7d70 6c3c c134 b03b 7ef3 c63a
000000d0: 8f78 1c3b d9ad 113a f763 59bb 4ec2 8fb8
000000e0: 0ad8 0f3b b4ea e83a e83a 2d3b 37d5 343b
000000f0: bed8 fb3b a612 a83b c224 983b 2012 0f3a
00000100: 8e76 28bb 2f95 abba 46b4 b33a 326e 6a3b
00000110: cd40 6f3b 8df5 ae3b b02c 513b 2877 983c
00000120: 7d07 eebb 38e3 8037 9246 113a 5ef9 683a
00000130: 2148 cb3a 4d2e b63b 45d0 6c3a fa67 c23b
00000140: 6e46 2dbc 1269 b2bb 4031 dcb9 15a7 c43b
00000150: b7df 9b3b 908d 2a3d 5394 a0ba 34d7 95bc
00000160: 9734 8bbc d823 82bc 1a04 b13b b451 1d3b
00000170: ddad 853b fee6 ae3b 5ad7 f5ba 60c9 c83a
00000180: 7f23 863a 0763 653b 95dd 323a 5bf5 653a
00000190: 2559 073c c4c2 7c3b b0b7 7f3b 5cb9 7b39
000001a0: 9446 60bc 4ef3 80ba 2d32 f43a 673b b9ba
000001b0: 6b8c a3bb 703a 93bb 0a12 523a c93c 043a
000001c0: 8827 013a 59bc 2bba 2b9c 23b9 5430 9abb
000001d0: 2bce ac3b 62b7 bc3a 745a 16bc eff4 f8bb
000001e0: 6046 babb cee0 30bb 5458 213c 2725 90bb
000001f0: bdaf 9e3c 4415 97ba 057c 733b db0b 973b
00000200: c0c7 d737 fa79 e23b e054 523b b772 c53a
00000210: 1bc3 113a 540c 09bc 70d8 7fbb 2204 33bb
00000220: db6d be3b e919 373a 2fc8 ee3b 9d45 b23b
00000230: 0251 26bb d2d2 613c 3424 ccbb c6d1 063c
00000240: ac78 793b ceb8 2dbc f95d 72bb 4e86 11ba
00000250: 2f49 f13a 98d1 60ba 6879 193d dd6f 4a3a
00000260: 99d0 57bc e192 ccba b15a 16bc b113 a33c
00000270: afd6 f03c 6af7 9bbb c598 04bc 509f 96bc
-0.0069145686 0.0055359774 -0.0021133798 -0.004693551 0.0016674149 -0.007724966 -0.003034271 -0.0074569164
-0.0023752737 0.011779843 -0.012374689 -0.011819615 0.0030337337 0.0037767992 0.006037255 0.00017047396
6.0283426e-05 0.00016967277 6.4557404e-05 -6.625588e-05 0.00013480335 -2.1246044e-05 0.0003404452 0.00017654835
0.00014388369 0.0006118448 0.000710972 0.0006845244 0.0005624304 0.00049261964 0.0072467667 0.008317836
-0.009673159 0.013988914 -0.0013128995 -1.1742469e-06 -9.4699016e-07 2.6941372e-08 4.8079824e-06 6.6670673e-06
0.0021482965 0.0026296724 0.0029013366 0.0006718541 0.0009507504 -0.004449056 0.001082369 0.0048605124
0.0005644847 0.014431116 0.0053773825 0.0015178767 0.002387557 0.00055572164 -0.0033171156 -6.8549634e-05
0.0021948838 0.0017770142 0.0026432816 0.0027592906 0.00768575 0.005129176 0.0046430537 0.0005457718
-0.002570543 -0.0013090725 0.0013710342 0.0035771248 0.003650713 0.0053393305 0.0031917505 0.018611506
-0.0072640763 1.5364596e-05 0.0005541827 0.0008887256 0.0015509167 0.0055597187 0.000903372 0.005932805
-0.010575874 -0.0054446543 -0.00041998364 0.006001363 0.0047568935 0.04163891 -0.0012251235 -0.018291093
-0.01699285 -0.015886232 0.0054021003 0.0024004998 0.004079564 0.005337595 -0.0018756196 0.0015318803
0.0010233967 0.0035001652 0.00068231794 0.00087722176 0.008261 0.0038568238 0.0039019398 0.00024006277
-0.013688702 -0.0009838135 0.0018630676 -0.0014132083 -0.0049911044 -0.0044930503 0.0008013552 0.0005044458
0.000492685 -0.00065511983 -0.00015603068 -0.004705468 0.0052736006 0.0014397914 -0.009176839 -0.0075975577
-0.005684659 -0.0026989463 0.009847719 -0.00439896 0.019370908 -0.0011526723 0.0037152779 0.0046095676
2.5723013e-05 0.0069115134 0.0032094046 0.0015064095 0.0005560384 -0.008364756 -0.003903892 -0.0027315696
0.0058114356 0.0006984757 0.0072870473 0.0054404275 -0.0025377874 0.013783174 -0.0062299017 0.008228725
0.003806631 -0.010603143 -0.0036982282 -0.0005551324 0.0018408651 -0.0008576154 0.037469298 0.00077223574
-0.013172292 -0.0015607738 -0.009176896 0.01990685 0.029399244 -0.0047597187 -0.008093064 -0.018386513

onnx::Conv_116 f4 [32]
00000000: 32a0 b0be 6c3a 9ebe c461 a6be d475 f4bd
00000010: 6606 183c 9038 563d 3253 bd3e 89cd 37bc
00000020: d102 813e 30df 523d 4d09 413e 187a 433e
00000030: 9087 303d e03b 70bd 84ff 793e bcf7 a63e
00000040: b212 1ebe 5c42 42bf 56f9 5f3e 07ac 823e
00000050: fcaa a63d 7bc3 8dbe a03c 143b 35bd febe
00000060: 17e0 ac3e aefa 663e ad48 b8be 082c a43d
00000070: 18d2 443e 84cd b5be 52b7 4f3e 9687 5e3e
-0.3449722 -0.30903947 -0.32496464 -0.119365364 0.009278869 0.052300036 0.36977535 -0.011218437
0.2519746 0.05148238 0.18851204 0.19089544 0.043098032 -0.05865085 0.24413878 0.3261088
-0.15436819 -0.75882506 0.21872458 0.2552187 0.081380814 -0.27688202 0.0022619143 -0.49753729
0.33764717 0.22556564 -0.35992947 0.08016211 0.1922077 -0.35508358 0.20284775 0.2173141

onnx::Conv_118 f4 [64, 32, 5]
00000000: 70fa 823c 1653 b73b 09f9 9e3b 24a0 c53b
00000010: 8f94 a5bb 4cc9 2d3c 43ed febc e923 59bd
00000020: 2d6f 69bd 70f9 91bd 3294 5b3a cd98 8b3b
00000030: 3e73 c5bc 0f27 d23a 2ede 81bc 8818 1a3b
00000040: ca03 b2bb d72f b83a 9b39 273b 3d1d 2cbb
00000050: e33f ff3b 059d c1bc 09d6 b0bb 0d76 d9bc
00000060: 30e0 23bc 7273 19bc 35c2 2dbb 02ea 21bc
00000070: dbb7 903b 73c9 e4bb f04a 733d 80ba a53d
00000080: 3f0d 08bd 2959 f9bc 8ec1 d3bd 079b 9b3a
00000090: 5ad3 c23a 1d92 4bb8 6dce 3f3a 620f 1ab9
000000a0: e7f3 8d3d d337 933d 7973 1a3d a758 63bc
000000b0: e16f 03bd e489 8d3d 3b04 653d c246 023d
000000c0: b87e 033a 2054 4dbc e5bb d7bb a8e4 fe3c
000000d0: 4d59 893d 1dde 9a3c 5834 2a3c 1764 543b
000000e0: 71fe 7d3d 15b8 3abc 9564 2bbc c10a c2bc
000000f0: 3e85 6f3d d1a4 aa3d 886a cd3d 490f 8c3c
00000100: 1c30 33bb 54a4 383d 0d2e 953d 847f b43c
00000110: 0d79 643d 4691 a6bc f1c2 893d af7a 853d
00000120: f9f2 a6bc 26e1 05bd 73c5 29bd 7642 283d
00000130: ee3d f53c 03d8 32bd 8194 92bd 0ce2 c3bd
00000140: cc50 0bbd 77df 79bd 2516 9dbd 25fb 83bd
00000150: 9eae 16bd 2721 47bd 0131 b43c aaa8 9b3d
00000160: e154 733d 9ea2 89bd 4c33 8c3d ed66 903d
00000170: d0d6 7d3d d80d 02bc 521b 2fbd c47c c7bb
00000180: 9c2f 2e3d d676 903c 2529 e13b ceb3 34bd
00000190: e215 c63b 3bc2 a83b ff88 9a3d 38e9 f6bc
000001a0: b0c3 1abc 9f25 0cbc 0646 723b 0de7 a5bb
000001b0: 2f97 85bc 5280 cd3c 110c e5bb 48a4 753b
000001c0: cce7 23bc f0ab 883c 1b3d 37bc 62c7 00bc
000001d0: 04f2 5f3c 5d5b 103d bf11 153c 9e4c cd3c
000001e0: 198c c53b c7a3 c6bc 231b 3fbc c159 a7bc
000001f0: 9105 93bd 3c11 933d 7998 a13d d54d 263c
00000200: dfe7 a43b adf4 79bd 86da 03ba 4127 c13a
00000210: a4f1 393c 4aa2 513b 409d 2f3a 0519 a33d
00000220: a7f7 4a3d 90b2 bf3c d588 9e3c 1c40 2a3c
00000230: a894 dc3d 775b 8b3d 9a14 963b ef39 fb3c
00000240: 01f0 473c 61c3 eb3b d4ed 9d3b dc89 d7bb
00000250: 1dec acbc 0736 013d f638 3f3d 002a 11bd
00000260: 2047 d1bc 6b34 12bd ffd9 253d b4c4 9c3d
00000270: 56c7 3dbd 3280 a5bd 4a0a 633d d31d 8b3d
00000280: 3478 f220 2c4b 619f 387b c820 ef41 0da0
00000290: 34f2 7f20 aee2 d822 9097 c121 c78f 3521
000002a0: 3293 1b22 121f 0221 b85c ea21 da7e 53a1
000002b0: 62f8 6f22 db7a 6922 69ed df1f 12ad 30a0
000002c0: b0c8 151f 5a3e a51e 9dc1 2ea1 f72d 401e
000002d0: 2c13 8420 2b7b bda0 e39e 5c20 bea5 d620
000002e0: 3085 931e 1477 d421 c81c f520 ce67 de21
000002f0: 2767 2321 d1e5 c01f b65c 11a3 c7eb 5ea2
00000300: 5201 80a2 8469 4ca2 3f5c 37a2 7d1b 6d1e
00000310: 1db6 809e 5750 e89d 456d 4a9e 9e7a 4b1e
00000320: a5b9 07a2 3201 34a3 a839 a7a1 3b81 dda2
00000330: 3e33 3821 55b2 baa1 672a b220 2124 47a1
00000340: b230 50a1 0cb8 4aa1 f3e9 1ca2 932e fda2
00000350: 09a2 11a2 2789 9ba1 192b 57a2 db38 76a0
00000360: b63b 5da2 6259 9721 d281 1aa2 6150 13a1
00000370: 8614 b8a1 7d30 b8a1 bfac e020 dea3 e0a0
00000380: fe49 21a2 8729 0421 0f27 1d20 0c5a d720
00000390: 5f8b 8121 6599 a5a1 4271 46a2 3889 49a2
000003a0: 55a9 b7a1 9241 9fa2 54b4 bca1 bad1 5ba2
000003b0: d822 96a2 873f 8ba2 37f0 b2a2 066c eba0
000003c0: 4d11 f522 585e 0922 60eb c421 c33d 8fa1
000003d0: 0351 a9a0 4627 b8a1 519c c721 5da0 5c22
000003e0: 1b72 2c22 4ce6 9722 e2e2 c0a2 7908 95a2
000003f0: cd82 77a1 824d 3fa2 e80f 5fa2 6013 fca3
0.015988559 0.0055946214 0.0048514646 0.006031053 -0.00505311 0.010607075 -0.031118995 -0.053012762
-0.05699079 -0.071276546 0.000837627 0.0042601586 -0.024102803 0.0016033369 -0.015853014 0.0023513157
-0.0054325806 0.0014052343 0.0025516513 -0.0026262545 0.0077895983 -0.023634443 -0.0053966087 -0.026545549
-0.010002181 -0.009365903 -0.0026513461 -0.009882452 0.0044164485 -0.0069820224 0.059397638 0.08092213
-0.033215757 -0.030438023 -0.10339652 0.0011871763 0.0014864013 -4.853505e-05 0.00073168316 -0.00014692315
0.06931286 0.07188382 0.03770778 -0.013876117 -0.032089118 0.06911066 0.055912238 0.03180576
0.0005016136 -0.012532264 -0.006583678 0.031114891 0.06706486 0.01890474 0.010388456 0.003240829
0.062010232 -0.011396428 -0.010460992 -0.023686768 0.05847668 0.083322175 0.10030085 0.017097132
-0.0027341908 0.04507859 0.07284174 0.02203346 0.055779506 -0.020332944 0.06726635 0.06517541
-0.02037953 -0.03268542 -0.041448068 0.041079007 0.029936757 -0.043663036 -0.07157231 -0.095645994
-0.0340126 -0.06100413 -0.07670239 -0.064443864 -0.03678762 -0.0486156 0.021996023 0.076005295
0.05940712 -0.0672047 0.068457216 0.070508815 0.06197244 -0.007937871 -0.042750664 -0.0060878713
0.042525873 0.01763479 0.00687136 -0.044116788 0.006045089 0.005150107 0.07545661 -0.030140504
-0.00944607 -0.008553891 0.0036968007 -0.005062944 -0.016307442 0.025085602 -0.006989964 0.0037481952
-0.010003995 0.016683549 -0.011184002 -0.007860037 0.013668541 0.03524338 0.009098469 0.025060948
0.006028664 -0.024248017 -0.011664185 -0.02042854 -0.07178796 0.071810216 0.0789041 0.010150393
0.005032524 -0.061024357 -0.0005029816 0.001473643 0.0113491155 0.00319876 0.0006699152 0.079637565
0.049552586 0.023400575 0.019352356 0.010391261 0.107705414 0.06804555 0.0045800926 0.030667273
0.0122032175 0.007194922 0.004819611 -0.0065777134 -0.021108681 0.031545665 0.04668518 -0.035440445
-0.02554661 -0.03569452 0.0404911 0.07654706 -0.04633268 -0.08081092 0.055429734 0.06792798
4.1075938e-19 -4.7707784e-20 3.3962857e-19 -1.196498e-19 2.1679478e-19 5.8786924e-18 1.3118307e-18 6.1515473e-19
2.1084342e-18 4.4086834e-19 1.5880999e-18 -7.1657467e-19 3.2522033e-18 3.1642427e-18 9.4836936e-20 -1.4965044e-19
3.1717982e-20 1.7495843e-20 -5.920974e-19 1.0173901e-20 2.2374357e-19 -3.209935e-19 1.8687296e-19 3.636269e-19
1.5619315e-20 1.4397199e-18 4.152366e-19 1.5070782e-18 5.536307e-19 8.169536e-20 -7.880098e-18 -3.021143e-18
-3.4695867e-18 -2.7703015e-18 -2.484996e-18 1.255236e-20 -1.3627847e-20 -6.149296e-21 -1.0716387e-20 1.0772087e-20
-1.8394191e-18 -9.758073e-18 -1.1331622e-18 -6.0039e-18 6.2409443e-19 -1.2651054e-18 3.0182432e-19 -6.747164e-19
-7.053759e-19 -6.8683846e-19 -2.1265794e-18 -6.86251e-18 -1.9736945e-18 -1.0539512e-18 -2.916075e-18 -2.0855822e-19
-2.9982696e-18 1.0255817e-18 -2.0939618e-18 -4.991192e-19 -1.2473757e-18 -1.248116e-18 3.806139e-19 -3.8055514e-19
-2.185874e-18 4.47783e-19 1.3311341e-19 3.6482005e-19 8.778271e-19 -1.1221438e-18 -2.6893962e-18 -2.7313223e-18
-1.2445384e-18 -4.316646e-18 -1.2787108e-18 -2.9791063e-18 -4.0694474e-18 -3.7743288e-18 -4.8501334e-18 -3.9882032e-19
6.64257e-18 1.8616907e-18 1.334378e-18 -9.706405e-19 -2.8683323e-19 -1.2478721e-18 1.3526141e-18 2.9900455e-18
2.3370754e-18 4.117247e-18 -5.2281926e-18 -4.03955e-18 -8.385997e-19 -2.592636e-18 -3.0230556e-18 -2.73301e-17

onnx::Conv_119 f4 [64]
00000000: b695 95bd 7132 1fb3 faac 8dbb 829e ab3e
00000010: 7a33 efb9 4ac9 3fbb 2b96 e43c 607d fcba
00000020: b43b fbba ec65 66bc b81b 113e 0e5d 493d
00000030: 0541 f7bc 3418 16ba 3e37 23bc 1a6f 81b7
00000040: 07ea 823d 1d60 30bb 6067 84bc f393 a6bb
00000050: 551e 12ad 365d 083c 2cc7 18bc fc3b 82b5
00000060: 4b76 5bbd 8dc1 07bc 3095 4b3c 7998 cbb8
00000070: 1d79 96bc ae83 acb2 5f39 25b7 e645 0b3d
00000080: 980d a93d 2a94 173d c61a 0a3d 5e65 9cbc
00000090: 6829 21bc f53d 09bd 3ddc 63ba 17b3 03bc
000000a0: ab9a ebbc 9085 bfbc 2330 37bb 73b4 23b0
000000b0: ec09 cdb5 913e fe3d 3a7b 29bd 4e38 bd3d
000000c0: 60f0 6abc fd2d 803c a246 633e 6326 59b3
000000d0: 7178 debb 0b38 d3bd 33ef 0bbd dd7c f6bd
000000e0: 319c 96bd c604 e1bd 48a1 223f 4a52 fabc
000000f0: 8859 54bd 7f7c f5bc 9cbb 9b3d 7a37 2bbd
-0.07303946 -3.706595e-08 -0.004323599 0.3351937 -0.00045623985 -0.0029264265 0.027903637 -0.0019263439
-0.0019167573 -0.014062386 0.1417073 0.04916101 -0.03018237 -0.00057256524 -0.009961901 -1.5429734e-05
0.063922934 -0.0026912757 -0.016162574 -0.005083555 -8.305874e-12 0.0083230045 -0.00932483 -9.703213e-07
-0.05357961 -0.008285892 0.012425706 -9.7081946e-05 -0.018368298 -2.0083316e-08 -9.848124e-06 0.034002207
0.08254546 0.037006535 0.03371694 -0.019091304 -0.009836532 -0.033506352 -0.0008692181 -0.008038304
-0.028760275 -0.023379117 -0.0027952276 -5.955549e-10 -1.5276578e-06 0.12414277 -0.041377284 0.09239255
-0.014339536 0.015646929 0.22194913 -5.0559162e-08 -0.00678926 -0.10313424 -0.034163665 -0.120355345
-0.0735401 -0.109872386 0.63527346 -0.030556817 -0.051843196 -0.02996659 0.07604143 -0.041800953

onnx::Conv_121 f4 [128, 64, 5]
00000000: 95b0 23bd 4217 c9bb 2ff4 a03b 8e36 d7bc
00000010: 830f 523c 5ac9 c6b2 6865 83b1 0eae d1b2
00000020: 0123 3732 26ea 52b2 981d 6ab9 4293 a939
00000030: 702e 3238 fa5a 2d39 555d 263a 64f2 e3bd
00000040: 0d8c 6abe d582 67bd c624 28bc 807c 8bbd
00000050: f0da 63b9 542e e838 5fa2 9639 0e82 6139
00000060: 8115 17b9 eb67 ef38 4d28 a3b8 f461 08b9
00000070: c912 a939 3d96 f636 5a9d 423c d719 96bc
00000080: 5d4d 663c 4686 bdbb 5929 1e3b 889e 5cbc
00000090: 0aee 0c3a 864f b6bc f4b7 8bba 42c1 853c
000000a0: ac76 02b9 0f20 7138 74fe f2b8 b095 c038
000000b0: ddb0 4ab9 ee2e 65bd 61fb f3bd d8f2 bebc
000000c0: 1536 f63c c5fe 193d 0903 94bd e9e4 89bd
000000d0: a866 443b 9e40 dfbd 730a 503d bf85 7ebd
000000e0: 772b 0fbd 4cd0 a1bb 4bb4 13bd 922b 143d
000000f0: 1c68 e83a 4c51 aeb9 0c5e 6b3a 7a55 d23b
00000100: bd38 f339 b354 abb8 9841 db38 74e9 49b9
00000110: 6596 4937 c9dd 9738 2479 f63a 6f0d 593a
00000120: 772a 0b3a 917d 203a 2a75 0f38 8546 4f36
00000130: 8953 8f36 52ef 8f35 92c8 d436 836a 2137
00000140: cdb9 d73c 8165 423d 7b1a b3bc ed65 e9bb
00000150: d309 c63c bcf3 c6b9 c795 453a 4e48 ddba
00000160: 3804 0439 076d f8b9 679d 03b9 c1eb 39ba
00000170: 17ca 0aba 0a81 2539 4f70 a739 6d20 963a
00000180: fb54 1139 aad0 f83a bbca 1839 afd4 ce3a
00000190: 8ced 70ad 1de6 582c 4199 07ad c24a ed2c
000001a0: 38cc 562d d2f2 14bd 2c70 00bd 3e06 31bd
000001b0: ee51 033d 8687 33bd d200 a9bc e13b 3bbc
000001c0: 4778 85bc d658 c7bc e635 343d 43b6 9d34
000001d0: 7a51 1735 788e ab33 3b6b f434 d234 0835
000001e0: fba2 53bd 9c7f 74bc 315b 24bd 1c09 4bbd
000001f0: 386d 7d3c c8ee a63a 621a 7937 18ec 5fb7
00000200: 390a a239 1c06 a73a 66dc 4dbb 40ef 1139
00000210: 5c95 273c d547 913c 351c 25bb a4ce 9bb7
00000220: c602 f5b7 7ae5 11b8 9e5a a6b8 785f 5eb7
00000230: a1fd e43a 2148 4d3b 1cf9 b43a f84b 8a39
00000240: 1983 fd3a e97a 84b1 2963 efb0 af57 da31
00000250: 9315 2931 7f94 9e31 9000 e3b5 6e3b 6636
00000260: c61b 4d35 7cc9 8d34 56be 72b5 d115 c93c
00000270: f49e 17bd 181a 733c 4320 22bb 46c9 6dba
00000280: 0b94 e3bc 1df9 4abd 3a18 383d acc2 53bd
00000290: 8b51 fa3b 017b 923d 7804 10bd 6c55 9f3d
000002a0: 3e20 8d3d 67c6 6d3c 543e 26bc 4c65 353b
000002b0: d311 fcbb f13a c5bd 0379 943c 8a73 06bd
000002c0: 2fef bbbb 0c3a 073c 2baf 4cbb fefe 12bd
000002d0: 72cc e7bc 6569 8abd b7a1 ed3c 66cf de3d
000002e0: a3d3 6e3d cba1 0e3a 59bf 2e3b e116 863c
000002f0: 976b 143b 78ad 9a3c fc02 0b3a d246 4d39
00000300: ad34 e037 71b6 f838 f0df b339 12fc 8aba
00000310: dde9 b93a 8b11 17bb e980 a9b9 4a39 e6ba
00000320: 050d bdbb 203d beb9 5b4c 2dbb 33a0 d03a
00000330: 394f bbbb b2bd 21bc 020a 1ebd 1160 2dbd
00000340: 3b4b 0abd 154b ebbc e956 b6b9 8730 6cb9
00000350: 51c4 d738 5c69 2ab9 24d8 c9b9 b3f3 a22f
00000360: e566 85af 3f76 452d 449f 0930 b438 a62f
00000370: 1088 9cb4 5c9d 9334 9b28 3f35 7f8b edb4
00000380: 31fe 29b4 3979 f83b f8bc 09bd ec04 103c
00000390: 1b9e e1bd e18d 373d 2ede 633d 1275 c0bc
000003a0: 9ca5 06be ad19 853c f532 343c f2a2 2dbd
000003b0: 9f76 58bd ea6f 84bd 2f65 74bd 97ff 81bd
000003c0: 2fae 3c3a 7731 23bb 633c 49bb 37c8 08ba
000003d0: 1ff9 a7ba fae9 1c3c 6df0 213c caed 623c
000003e0: ab98 35bd 45ed 9f3d 89ae 7fbc 40e8 a2bd
000003f0: e973 c8bd 0faa 2cbe ab9e a4bd d8c2 2732
-0.039963324 -0.0061368058 0.0049119215 -0.02627113 0.012821081 -2.3141798e-08 -3.8241303e-09 -2.4409953e-08
1.0659961e-08 -1.2276848e-08 -0.00022327004 0.00032343908 4.2481755e-05 0.00016532457 0.0006346305 -0.11130217
-0.22904988 -0.056521256 -0.010262674 -0.06810856 -0.00021729968 0.00011071251 0.00028731205 0.00021506121
-0.00014408493 0.00011415764 -7.779952e-05 -0.00013006461 0.00032248188 7.3488613e-06 0.011878336 -0.018322868
0.014056531 -0.005783829 0.0024133532 -0.013465531 0.0005376047 -0.022254717 -0.0010659681 0.016327504
-0.00012441975 5.7488734e-05 -0.00011586855 9.183155e-05 -0.00019330108 -0.05595296 -0.11913181 -0.023309156
0.030055085 0.037596483 -0.072271414 -0.06733114 0.0029968414 -0.109009966 0.050791215 -0.06213927
-0.03495356 -0.004938161 -0.036060613 0.036174364 0.0017731222 -0.00033248437 0.00089785527 0.006418881
0.00046390845 -8.169692e-05 0.000104549516 -0.00019255822 1.201555e-05 7.241552e-05 0.0018804413 0.0008279895
0.0005308757 0.00061222265 3.4202974e-05 3.0886451e-06 4.271457e-06 1.0723982e-06 6.341442e-06 9.621147e-06
0.026333714 0.047460083 -0.021863213 -0.007122746 0.024174606 -0.000379471 0.0007537272 -0.001688251
0.00012590073 -0.00047383478 -0.0001255177 -0.000709232 -0.0005294396 0.00015783697 0.000319364 0.0011453755
0.00013859935 0.0018983085 0.00014571373 0.0015779937 -1.36951665e-11 3.0823185e-12 -7.707891e-12 6.744245e-12
1.2209837e-11 -0.036364384 -0.031356975 -0.043218844 0.032060556 -0.043830417 -0.020630274 -0.01142785
-0.016292704 -0.024334352 0.043996714 2.9376142e-07 5.637045e-07 7.988723e-08 4.5526562e-07 5.074081e-07
-0.051669102 -0.014923003 -0.04012603 -0.049569234 0.015467934 0.0012735957 1.4847699e-05 -1.3346806e-05
0.00030906664 0.001274291 -0.0031411885 0.00013917405 0.010228481 0.017734447 -0.0025193815 -1.8573664e-05
-2.9207567e-05 -3.478441e-05 -7.9323756e-05 -1.3254459e-05 0.0017470607 0.003132351 0.001380715 0.00026378012
0.0019341438 -3.855679e-09 -1.7417722e-09 6.3546035e-09 2.4605e-09 4.6152873e-09 -1.6912982e-06 3.4307263e-06
7.6408867e-07 2.6409896e-07 -9.0429e-07 0.024546536 -0.037016824 0.014837764 -0.0024738468 -0.00090708246
-0.027780553 -0.04955398 0.04494498 -0.051699325 0.007639115 0.071523674 -0.03516051 0.07779965
0.06890915 0.014512635 -0.010146696 0.0027678786 -0.0076925545 -0.09630383 0.01812411 -0.03282503
-0.0057353 0.008253586 -0.0031232338 -0.03588771 -0.02829573 -0.06758384 0.029007776 0.10879402
0.0583073 0.0005440979 0.0026664345 0.016368331 0.0022647136 0.018881544 0.0005302874 0.00019576706
2.672741e-05 0.00011859544 0.00034308387 -0.0010603687 0.0014184077 -0.0023051228 -0.00032330237 -0.0017564681
-0.0057693743 -0.00036285166 -0.0026443216 0.0015916884 -0.005716231 -0.009871887 -0.038583763 -0.042327944
-0.03376315 -0.028722325 -0.00034778498 -0.00022524792 0.00010288566 -0.00016251713 -0.00038498745 2.9640787e-10
-2.426567e-10 1.1224409e-11 5.006664e-10 3.0235514e-10 -2.9156263e-07 2.7495378e-07 7.1212133e-07 -4.4246187e-07
-1.5831826e-07 0.0075828102 -0.03362748 0.008790236 -0.11016484 0.04481304 0.05563181 -0.023493323
-0.13149112 0.016247595 0.010998477 -0.042391725 -0.0528475 -0.064666584 -0.05966681 -0.06347578
0.0007197586 -0.002490131 -0.003070616 -0.00052178226 -0.0012815333 0.009577269 0.009883982 0.013850639
-0.04433505 0.078089274 -0.015605577 -0.079544544 -0.09787733 -0.16861747 -0.08038076 9.764982e-09

onnx::Conv_122 f4 [128]
00000000: 49bb 943f 3acf 5ebc a0cf fc3e 3678 86bd
00000010: 1be5 97b6 4632 9abd 6a0e 0e3f 75c2 3a3f
00000020: 1ae1 2039 d0ab c8b9 4196 6cbb da73 723f
00000030: 4a55 d4bd 6a3e 7e3c e06c 31bb f30b 68b6
00000040: 3659 75b9 a8b8 9db0 4b8a dbbd 1dca 97ad
00000050: f8c1 49bd b03e bc3e e8f2 f5ae 8b2c 12be
00000060: 9ed5 53b7 252c f1bb a677 27be e020 a5bd
00000070: 80f5 ea3e d400 2bbd aaa9 06b5 86e6 1fbb
00000080: 82a7 14bc aa5f 5ba8 0141 99b1 90d5 85bc
00000090: 0f59 373f 86b5 bebd 7b90 543f 265c 57ba
000000a0: 689b 25bc b585 1ebe 9a93 a5bd c04b 17bb
000000b0: 1caf 10bc 135d 0c3f 5cd8 683f 1c9c 75b9
000000c0: 16f0 1fbd 34c2 26bd 04ae ed3e 33a8 9ebd
000000d0: a867 0ebc e04c 89b0 def2 bdbd 49e7 f7b6
000000e0: d894 d3bc 9cd7 7bb1 245d 9bb6 7eaf 0fbb
000000f0: 73b9 9ca9 edaa 0fba 6670 ffb8 bc68 6d3f
00000100: 00ba 573b 471d 64bc 9ebd 83b6 73f2 a7b7
00000110: e2cd 633e 62e8 833d 139f 4bbc 9860 9fbc
00000120: 3da1 69bc 46b2 91b4 05a5 c53e fe97 fbba
00000130: e46f e33c 589a bdaf 0832 69bb 36ba 0bbd
00000140: 1d02 84bc a0bd 49bd fd82 abbd 23aa 4a3e
00000150: 26c6 443f 853d a1bc b8d4 c8bd 5e4a bbb4
00000160: cec0 adbd 19d3 dab9 bb63 acb4 2ca4 b5bc
00000170: 3dd7 bcb8 b486 573f 847e 02bc cd9f d6b4
00000180: 7ce8 90b6 e942 253f d674 12be 78eb 3bbd
00000190: b712 023c ad35 0bba 708f 3dbd 57a0 91b3
000001a0: 104b 12bc 67b7 1b3d 815f b0bc 6403 35bd
000001b0: 57a7 3dbc 4ee9 063f 0d9a 98bb aa87 93bd
000001c0: a47a b03e 68a3 723b b292 2ea5 8c81 b1b4
000001d0: b444 233f 4088 12bd 90b0 44bb 66d2 603f
000001e0: f877 2e3c a235 44bd 8cd8 053e 6433 c93e
000001f0: 971e 4f3f 9a0f 82bd 3ad5 913c aca1 acbc
1.1619655 -0.013599211 0.49377155 -0.06565897 -4.526822e-06 -0.0752912 0.55490744 0.7295297
0.00015342646 -0.00038274983 -0.00361003 0.94708025 -0.1036783 0.01551781 -0.0027072951 -3.457765e-06
-0.00023398254 -1.1475736e-09 -0.10719737 -1.7256469e-11 -0.04925725 0.36766577 -1.1184459e-10 -0.14274804
-1.2626317e-05 -0.0073599988 -0.16354236 -0.08062911 0.45890427 -0.041748837 -5.0165784e-07 -0.0024398877
-0.00907314 -1.2177686e-14 -4.460276e-09 -0.016337186 0.7162027 -0.093119666 0.8303296 -0.00082153303
-0.0101078525 -0.15480693 -0.080847934 -0.0023085922 -0.008830812 0.5482952 0.9095514 -0.00023423176
-0.039047323 -0.04071255 0.46421826 -0.07746925 -0.008691706 -9.989911e-10 -0.09274839 -7.3880988e-06
-0.02582781 -3.6647867e-09 -4.630203e-06 -0.002192467 -6.959962e-14 -0.0005480487 -0.000121802834 0.92737937
0.003291726 -0.013922996 -3.9261786e-06 -2.002085e-05 0.22246507 0.06440808 -0.012428063 -0.01945524
-0.014259634 -2.7138066e-07 0.38602462 -0.0019195077 0.027763315 -3.4488568e-10 -0.00355828 -0.03411313
-0.016114289 -0.049253106 -0.083745934 0.19791465 0.7686485 -0.019682655 -0.09806198 -3.4885574e-07
-0.0848404 -0.0004173748 -3.211006e-07 -0.02217301 -9.00463e-05 0.84189916 -0.007964734 -3.9976877e-07
-4.318599e-06 0.6455522 -0.14302382 -0.045878857 0.007939032 -0.00053104275 -0.04627937 -6.781254e-08
-0.008929029 0.038016703 -0.021529915 -0.044192687 -0.011575541 0.52699745 -0.004657036 -0.0720361
0.34468567 0.0037023667 -1.5141797e-16 -3.3063077e-07 0.6377671 -0.03577447 -0.0030012466 0.8782104
0.01064872 -0.04790271 0.13070887 0.3929702 0.8090605 -0.06350632 0.01780187 -0.021073185
