Config/NeuralNets/BallPerceptor/classification_spqr.onnx (onnx, 280943 bytes, 5 tensors)

classifier.0.weight f4 [128, 512]
00000000: 8a42 3b3d 5183 223d 2c02 dcbb 293b 753d
00000010: 2f63 47bc 94e1 cdbc 24ea 663c 07ca 863c
00000020: 60df e7bc 18b1 cf3c a486 833c d644 61bc
00000030: 4e0b 80bc 42da 0d3c 0d3f 2b3d 3feb 8a3c
00000040: 05c0 683c 84b1 bcbc 8d75 cdbc dbc5 233d
00000050: ee87 753c 990f 5d3d 18f0 c0bc 4a5e 363d
00000060: ada7 5e3c 38a1 333c f434 b8bb c7a4 46bc
00000070: 9813 f93c d8e4 3a3d 4eb7 3c3d 5224 d33c
00000080: 2203 88bc 8d76 603d d3cd 5f3c ad4c 94bc
00000090: 9576 98bc 008b d13b 574c 06bd 8736 893c
000000a0: cb32 d3b9 c55b 983c ba2a 613c b8d0 f0bc
000000b0: ab32 d0bc facf 8fbc c106 ca3c cf90 f2bc
000000c0: 5f58 b73c d176 1c3d 2143 febc 1b85 913a
000000d0: fb5a 043d df77 b2bb 9af9 c4bc d9db b83b
000000e0: 2599 e63c 8409 c23c 9aeb 6fbc b4ba 8dbc
000000f0: 6e4f 5f3c 03d7 b4bc 0b4d 223b c3b9 f5bc
00000100: ee4b 27bd 2f4d 233d ca8f f43b a74a ddbb
00000110: 9020 353d f1ea f33c 42a7 853c 4121 62bc
00000120: 7152 f83c 0025 98bc b656 e63c 4fbc 9b3c
00000130: c33d 27bc 2f42 3c3c 4c1b 273d 495f 3fbb
00000140: 238e 283c 54f4 f93b 2745 d4bc 9556 113d
00000150: be66 e0bb 4242 083d a0b3 71bc 926c ff3c
00000160: baa4 143d da2e 1fbc 2322 2bbb 4eac 8fbb
00000170: 4959 7f3c 4e7b a4bc 4866 183d 3a49 fbbc
00000180: ff1a 963a acc5 cdbc 8091 c3bb 5c90 1fbc
00000190: e3be 1cbd bb33 a63c 0576 663a babc 693c
000001a0: e9bc 0c3c 739b 1f3d 0de1 10bc 1832 283d
000001b0: f4c6 4f3c cf52 093b 36ec 34bd e6de 09bd
000001c0: f204 7e3c bf3f cdbc ebc1 52bb b189 0e3d
000001d0: 0ec0 bf3c 1f1f b03b af50 2fbd 68f9 d43c
000001e0: a86e 943b 3611 47bb cd70 17bd 31de 37bd
000001f0: 0473 f73c 70f6 153c d99a 9abb 1969 383c
00000200: fdd0 b1bc e479 803c 7898 2c3d 61f7 afbc
00000210: b4a9 7ebc 7f5b 0a3d b1c5 6fba 2801 14bd
00000220: d761 f53c e936 8bbb 7cf8 ab3c 51d8 91bb
00000230: 72a2 3c3b 4a35 26bd a59e ba3b d9cf 6b3c
00000240: a615 ed3c 8b3b b9bb 6305 803c 3e25 1fbd
00000250: 0ff4 00bd d72d af3b 34c5 2bbd 4b93 8fbc
00000260: cd70 6c3c cbc2 233d 8d8b 1ebd 1f07 1dbd
00000270: 50c7 0fbc 0b57 cbbc c5b1 41bd 20ee c3bc
00000280: 1867 443d 1436 6338 2fee b7bc b7bd cfbc
00000290: d0fd 593d 512b 1e3d 38d2 f43c 78db 0e3c
000002a0: 632e ef3c f921 6cba 686c 93bb 64d3 a2bb
000002b0: bb5a 6d3c b406 62bc 720b 00bd e9c3 19bd
000002c0: f04d 51bc 614a d3bc b8ce adbb b6a9 5f3a
000002d0: c2ee c93c abe7 123d ea9e d8bc 8d2c b73b
000002e0: 3609 42bc 024f 40bd 2f05 bc3c 011d fcbb
000002f0: 8f7a 81bc f3ed 863c c5c2 28bd 5de1 38bd
00000300: 1d12 af3b aaa9 473d 9576 93bc 3361 dd3c
00000310: dbd5 0e3d 49ea d1bc 98bd faba b91c 693d
00000320: fcb5 b3bc ec39 573c fcfe 23bc 6410 903c
00000330: c337 633c db4f 16bc 9cfa 0a3d 7c1f febb
00000340: 9c15 823c 5dd2 a0bc b84f 60bc d49b 063d
00000350: 8849 db3b b1d7 9fbb 00f5 4dbd 94b6 cabc
00000360: 8456 353d 34c2 12bc 24b8 273d 4a5d 133d
00000370: 525a e33c 38bf 6e3b 5e56 d23c e907 8f3b
00000380: dd24 47bc 92a5 013d 8c4d 1d3d 8625 f7bc
00000390: 4479 b33c 10ca 16bd ff95 f93b c132 803b
000003a0: 2017 e83b b600 b8bc d465 e33b 8e48 0bbc
000003b0: 6ace 813b ab8e 5ebc d6d3 9f3c e45d be3c
000003c0: b3f2 e33a 829a 20bd f55a c0ba 2b2f 463b
000003d0: b858 df3c 9c1d 893b 06ff dabc eb14 a93c
000003e0: 1987 0bbd 2658 233d d670 6dbc 1c47 263d
000003f0: 8b09 0f3d 6a66 cabc 1da5 5abb 3055 043d
0.045717753 0.039676014 -0.006714126 0.059870873 -0.012169643 -0.025131978 0.014093909 0.016453756
-0.028304756 0.025353 0.016055413 -0.013749322 -0.01563039 0.008657994 0.041808177 0.016957877
0.014205937 -0.023033865 -0.025080467 0.03998361 0.014986021 0.053969953 -0.023551986 0.044523515
0.013589782 0.0109637305 -0.005621547 -0.012124247 0.03040485 0.0456284 0.04607325 0.025774155
-0.016603056 0.05480056 0.013659912 -0.018102968 -0.018611232 0.006394744 -0.032787647 0.016749633
-0.000402829 0.018598447 0.013743097 -0.0293964 -0.025414785 -0.017555226 0.024661424 -0.029610066
0.022381006 0.03819925 -0.031037869 0.0011102291 0.03231333 -0.0054464187 -0.0240448 0.0056414423
0.028149197 0.023686178 -0.014643574 -0.017300941 0.013629777 -0.022075182 0.002476516 -0.029995805
-0.040843897 0.03986853 0.00746343 -0.006753284 0.044220507 0.029775115 0.016315106 -0.013801874
0.030312749 -0.01857233 0.028117519 0.019010691 -0.010207596 0.011490389 0.040797517 -0.0029201081
0.010287794 0.007628003 -0.02591188 0.03548296 -0.0068481853 0.033266313 -0.014752299 0.0311797
0.036289908 -0.00971576 -0.0026112876 -0.004384554 0.015585252 -0.020078328 0.037206918 -0.030674566
0.0011452137 -0.025118671 -0.0059682727 -0.009739008 -0.03826798 0.020288339 0.000879139 0.014266187
0.008589962 0.038966607 -0.008842719 0.041063398 0.012681711 0.0020953899 -0.04417058 -0.03365984
0.015504109 -0.02505481 -0.003215904 0.03479928 0.023407008 0.0053748037 -0.042801555 0.025997832
0.004529793 -0.0030375249 -0.03697281 -0.044889633 0.03020621 0.009152994 -0.0047181663 0.011255526
-0.021706099 0.015683122 0.042137593 -0.021480264 -0.01554339 0.033778664 -0.0009146585 -0.036133915
0.02995388 -0.004248489 0.02099251 -0.0044508358 0.0028783348 -0.040578164 0.0056951814 0.014392816
0.028940987 -0.00565285 0.015627569 -0.038853876 -0.031482752 0.0053460407 -0.041936114 -0.01752629
0.014431191 0.03998069 -0.038707305 -0.03833687 -0.008775547 -0.024821779 -0.047288675 -0.023917258
0.04794988 5.417138e-05 -0.022452442 -0.025359018 0.05322057 0.03861553 0.029885396 0.008719318
0.029196924 -0.0009007748 -0.004499007 -0.0049690474 0.014486964 -0.013795543 -0.031260915 -0.03754035
-0.012774929 -0.025792303 -0.005304184 0.0008532064 0.024649981 0.035865467 -0.026442964 0.0055900277
-0.011843016 -0.046950348 0.02295169 -0.007693887 -0.01580551 0.016470885 -0.04120137 -0.0451368
0.0053427354 0.04874579 -0.01800088 0.027023887 0.034871917 -0.025624411 -0.001912999 0.056912158
-0.021937363 0.013136368 -0.0100095235 0.01758594 0.013868275 -0.009174312 0.033930406 -0.007755218
0.015879445 -0.019631559 -0.013690881 0.032863453 0.006692115 -0.0048780073 -0.05028248 -0.024745263
0.04427196 -0.008957434 0.040947095 0.03597764 0.027753029 0.0036429893 0.025675949 0.0043649566
-0.012154785 0.03165204 0.038404033 -0.03016926 0.02190841 -0.036813796 0.007616758 0.0039123003
0.007082835 -0.022461277 0.006939629 -0.008501185 0.003961374 -0.013583819 0.019510191 0.02323813
0.0017391056 -0.03920985 -0.0014675545 0.0030240517 0.027263984 0.004184438 -0.026732933 0.020639857
-0.034064386 0.039878987 -0.014492234 0.04059516 0.03492121 -0.024707038 -0.0033362575 0.032307804

classifier.0.bias f4 [128]
00000000: 30c2 083d bdee c83c 8413 e5bc 45bc 48bb
00000010: 579a 33bd 0041 983c cab3 11bd f712 293d
00000020: 57ce d13a a566 623c 80f4 373c 77f1 1c3d
00000030: e323 80bc a065 3ebc a791 eb3c a8c3 d5bc
00000040: f47e 753b 9b6a 743c 562e 0fbd 0a6e df3b
00000050: 08b5 11bd 1630 57bc e2e5 823b 70f2 d83c
00000060: c29a 8a3c 285d 3fbc 42c4 54bc f01d 883c
00000070: f01b 5cbb 1e15 253d 78bc 333d 8ea4 49ba
00000080: ae25 fe3b b691 f1ba 2211 523c e396 9c3c
00000090: 496e 0b3d 9fc8 863c bba8 f23b 2277 dfbc
000000a0: 092e 253d e5e0 5abc 786e f83c f63b 34bc
000000b0: 6244 073c 6885 29bc 47f5 3a3b 0ff9 073c
000000c0: 277d 15bd 4585 f5bc 4df3 2ebd 11ce a13c
000000d0: aa72 b63c e717 d2bc c907 133d 5929 20bd
000000e0: 85a5 c8bb 9da6 0dbd 63d9 24bd 7e06 0cbd
000000f0: 1ac5 d3bc 4d14 03bd 810d 283d 12a2 5a3c
00000100: abae 33bd f6fa adbc d27f 1c3c ff64 1ebd
00000110: a4e7 f33c 1a9f c23c f2e9 90bc 3e14 2b3c
00000120: 85a1 d43b 5706 72bb e04b 39bc 4ffa f5bc
00000130: c3f7 49ba a857 a8bb 0385 373a 9010 85bc
00000140: 4f5f 0ebd aba7 fabc 05d9 18bc f7bf 05bd
00000150: b1a9 7cbc 7420 ed3c ebab 07bd 99d4 b03c
00000160: 649b 02bd fd27 8a3c 4179 28bd 03f0 c1bc
00000170: a697 07bc c124 393d 9ef4 dcbb 639a eb3c
00000180: 3fa7 873c 1e9b e13c 9fd4 2cbd 6e96 cabc
00000190: 200d 12bc 5000 b93c 4fe2 7dbc 2e04 da3c
000001a0: 5e82 f0bc d6f6 51bc 020a d63c 09ea b3bb
000001b0: d27d 163d a8dc b63c 6342 4a3b ae60 003d
000001c0: 6340 1dbd fc86 3a3c 2fe7 1b3d aeb4 afba
000001d0: a235 8abc e161 15bc fbdb fa3c dc8c 9cba
000001e0: e264 a6bc 75b2 66bc 9a9d 75bb cd4b 013d
000001f0: 5bee ef3c 6c41 05bd a561 e93b 2820 4a3c
0.033388317 0.024527902 -0.027963407 -0.0030629796 -0.04384836 0.018585682 -0.03557185 0.041277852
0.0016006929 0.013818418 0.011227727 0.038316216 -0.015642112 -0.011620909 0.028755976 -0.026094273
0.0037459703 0.014917995 -0.0349563 0.0068185376 -0.035573035 -0.013134023 0.0039946893 0.02648279
0.016919497 -0.011679925 -0.012986245 0.016615838 -0.0033585988 0.040303342 0.04388091 -0.0007692062
0.0077559566 -0.0018430266 0.012821468 0.019114917 0.034040723 0.016453085 0.007405368 -0.027278487
0.040327106 -0.013359283 0.030326113 -0.011000624 0.00825605 -0.010346748 0.0028527544 0.008299126
-0.036496308 -0.029970774 -0.0427125 0.01975158 0.022271473 -0.025646163 0.035896096 -0.039101932
-0.006123247 -0.034582723 -0.04024638 -0.03418588 -0.025850821 -0.032001782 0.041028503 0.013344305
-0.04386775 -0.021237832 0.009551959 -0.038670536 0.02977354 0.023757506 -0.017689679 0.010441838
0.006488981 -0.0036930048 -0.011309594 -0.030026583 -0.0007704461 -0.0051374026 0.0007000716 -0.01624325
-0.034758862 -0.030597528 -0.009329085 -0.032653775 -0.015421317 0.028946139 -0.033122938 0.02158575
-0.031886473 0.016864771 -0.04113126 -0.023674017 -0.008275902 0.045201067 -0.006743028 0.02876014
0.016559241 0.027539786 -0.04219496 -0.024729934 -0.008914262 0.022583157 -0.015495851 0.026613321
-0.029359039 -0.012815198 0.026127819 -0.0054905456 0.036741085 0.022322014 0.0030862323 0.0313422
-0.038391482 0.011384722 0.03806227 -0.0013405287 -0.016871277 -0.009117574 0.030622473 -0.0011943835
-0.020311777 -0.014080633 -0.003747797 0.03156643 0.029288461 -0.032533094 0.007122236 0.012336768

classifier.2.weight f4 [32, 128]
00000000: ffa6 e43c 300c 743d 8a8d 87bd 0313 9c3d
00000010: 5551 00bd 4a5f 99bd 44cd dcbd 2f32 b93c
00000020: 011e b43a 672e 56bd 42cd 7abc 5149 263e
00000030: d35b 8e3c 6b5c 4abd c9fb c5bd 71ca 9bbd
00000040: 3f42 90bd 34a5 943c 2bc1 9ebd 8720 c3bc
00000050: 5afb a0bd 5c82 09be 6125 433d 2a98 9c3d
00000060: 1009 a3bd 0b34 e93a 140a 8e3d 70f3 dabc
00000070: a46b eebc 93ae 98bd 8e44 943d 0c97 073d
00000080: 742a 2abb a50f 9c3c 4052 18bd f0c3 47bd
00000090: 55ff a83d 49d4 83bd bb89 a3bd 459e d1bd
000000a0: da5b 893d 9859 0abd ef77 2b3d 237a 5b3c
000000b0: 58a4 e3bc 98f8 49bd 6d68 893d 0057 893d
000000c0: fb23 fa3a 10e2 a63d 838f a23d fe40 43bd
000000d0: 6010 42bd c3a5 323d d289 a1bd f885 233c
000000e0: 1ea6 0b3d 88c5 243d 6825 b63c d7c6 3e3d
000000f0: 4e05 cfbd e6fb 9abd d37b 563c 7bcd 4e3c
00000100: 15fd 00be ea1d c63c 850c fc3d 577c d83c
00000110: 2359 cbbc 6aef e0bc 615a 84bd 697d e6bd
00000120: f792 e2bc 3891 613c 5b53 15bd f141 7cbc
00000130: fd94 533d a0f7 483d de07 b13b 1318 3f3d
00000140: c04d f43c 561d d13d 7ca7 1abc 5677 edbd
00000150: c105 77bd b0db 923c 5e2c 90bd 7b39 67bc
00000160: 1564 573d d948 133d fd07 8b3c 04a4 ae3c
00000170: 574f 3eba 95ae 103b f03a dd3d 3cb5 af3d
00000180: 48fb 08ba 6740 9fbd 841c 483d f22c c63c
00000190: ad38 313d 1772 bdbd 38f0 2e3d 62a3 1bbe
000001a0: 7d71 adbd 579a a03c 2882 7c3d 7d96 44bd
000001b0: 692f c63d 127e 8c3d 013c 983d ef11 963d
000001c0: 9354 4abd a50b ca3c 7938 9fbb 99aa 003d
000001d0: 0c19 433c 8f36 323b 7bdb 24bd f31b 93bd
000001e0: a956 60bd a120 9dbd 66db b4bd 0455 043e
000001f0: 25a2 90bd 1776 2b3d 62f4 953d 1b34 95bd
00000200: 4c0c 9bbd 3b3e ad3d c214 8fbd e79f 703d
00000210: fccd 913c 99ae 4dbd 0d28 043e 9c7f 293d
00000220: 652f 31bb 8cc4 0b3d 413d 553d 46a8 c2bd
00000230: 0da5 493d c84f 083d cb20 bb3d b548 e83d
00000240: 4d40 ef3d a406 953d c034 853c f2d9 cd3c
00000250: c32a b9bc 3dd9 c8bc 5c38 8bbd 8929 edbc
00000260: acbf 22bd e58a 8abd 4123 ad3d 0e2c ebbc
00000270: 2270 773c 18f4 473d ad8f b33c 2d22 a03d
00000280: bf74 bf3c 41cd c0bc 9e4f 33bd ee85 17bd
00000290: ad81 fcbd ab5f 273d 3d08 8bbd e433 003d
000002a0: dfbd ddbd 2184 1d3c e8e4 bdbc 6419 aebc
000002b0: cd58 7c3c 27e2 10bd f347 0abd 39f5 5fbd
000002c0: 7bca 0dbc ffc1 073d a39d cb3d 6e87 e23c
000002d0: 2feb c13d 266a b43c 624d b0bd c33e 683d
000002e0: 040a f7bd 95db 343d 0c91 99bd cadc aebc
000002f0: 03ec 5fbd 6298 9b3c 5a54 32bd 70b7 a8bd
00000300: e952 473d d3e4 623c 1800 483d 0f99 e13b
00000310: 536e e53c 6242 d03d 20d5 863d d6c0 d5bd
00000320: 0c4d 0d3c 7a3c 6bbd 9ca8 a8bb c0ce 9d3d
00000330: 9d03 c53d 9800 8dbd 2d89 233d 1a06 a43d
00000340: 71f0 8abd 77e0 31bd f94b 20bc 8cf5 373c
00000350: 4f1e 863d c823 82bc b443 bbbd 229e cc3d
00000360: af96 113d 5a66 523c 9cb4 8ebd ffae 663c
00000370: 5834 b23c c41f 02bd 3cfd 203d a791 6fbc
00000380: 8832 f2bc 19d0 b2bd e227 1c3e 3bca 68bd
00000390: 7aa7 32bd 6f31 2a3c bad4 9fbd 6be9 0e3e
000003a0: 65fd 1fbd 001e d4bd 3a40 503d 28fb 2cbd
000003b0: 35a7 183d b241 16bd fb1c 2c3d 07bc 3b3c
000003c0: 0ea8 7c3d 64b6 34bd 4a4d d1bc 0359 3d3d
000003d0: 2c5f 4ebd 0561 063d 5189 0a3c 15d8 a4bc
000003e0: a2e8 a33d 03de aa3d 9ad2 633d e456 11bd
000003f0: 4054 77ba 4cbe 493c 76e8 a83d 5f98 e13c
0.027911661 0.059581935 -0.06618793 0.07620814 -0.031327564 -0.07488878 -0.10781339 0.022606937
0.0013741852 -0.052290346 -0.015307726 0.16238905 0.01737777 -0.049404543 -0.09667165 -0.07606972
-0.070438854 0.018145181 -0.077516876 -0.023819221 -0.078604415 -0.13428634 0.04764307 0.076462105
-0.07960713 0.0017791999 0.06935516 -0.026727408 -0.029104061 -0.074551724 0.07239638 0.033103034
-0.0025965245 0.019050429 -0.037187815 -0.048770845 0.08251826 -0.064369746 -0.079852544 -0.10235266
0.067069724 -0.03377685 0.041862424 0.013395819 -0.027788326 -0.049309343 0.06709371 0.06706047
0.0019084209 0.08148587 0.07937529 -0.047669403 -0.047378898 0.043615114 -0.07887615 0.009980671
0.03409397 0.040227443 0.022234634 0.046576347 -0.10108434 -0.07567577 0.013091045 0.012622233
-0.12596543 0.024184186 0.123070754 0.026426477 -0.024822777 -0.027457912 -0.06462551 -0.11254389
-0.027657969 0.013767533 -0.036456447 -0.015396581 0.05165576 0.04906428 0.005402549 0.04665382
0.02982223 0.102106735 -0.009439345 -0.11595027 -0.06030822 0.01792702 -0.07039712 -0.0141128255
0.05258568 0.035958145 0.016971583 0.021318443 -0.00072597474 0.0022076715 0.10802257 0.085794896
-0.0005225432 -0.07775956 0.04885532 0.024191353 0.04326694 -0.092502765 0.04270956 -0.15199044
-0.08468912 0.019604845 0.061647564 -0.04799508 0.096770115 0.068599835 0.0743332 0.07327639
-0.049397063 0.024663756 -0.004859027 0.031412695 0.011907827 0.0027193164 -0.040248375 -0.07183065
-0.054770146 -0.07672239 -0.088309094 0.12923056 -0.070621766 0.041860666 0.07322003 -0.07285329
-0.07570705 0.08459135 -0.06986381 0.058746245 0.017798416 -0.050215337 0.12905903 0.041381463
-0.0027036306 0.03412299 0.05206037 -0.09504752 0.04922967 0.03327921 0.09137114 0.11341993
0.11682186 0.07276657 0.016260505 0.025128338 -0.022603398 -0.02451765 -0.06797859 -0.02895047
-0.039733574 -0.06764773 0.0845399 -0.02870753 0.015102418 0.04881677 0.021919096 0.078190185
0.023371099 -0.023535373 -0.0437771 -0.03699296 -0.12329421 0.04086272 -0.06788681 0.031299487
-0.10827231 0.0096140215 -0.02318044 -0.021252342 0.015402031 -0.035371926 -0.033760022 -0.054677222
-0.008654232 0.033143993 0.09942176 0.027652469 0.09468686 0.022023272 -0.086085096 0.05670048
-0.12062457 0.044154722 -0.074983686 -0.021345515 -0.054668438 0.01899356 -0.043537475 -0.08238113
0.048663054 0.013848501 0.048828214 0.006884701 0.028006708 0.101689115 0.06583619 -0.10437171
0.008624326 -0.05743072 -0.005147053 0.0770545 0.0961983 -0.06884879 0.039925743 0.08008976
-0.06784142 -0.043426957 -0.009783738 0.0112279765 0.0654875 -0.015886202 -0.09143773 0.09991099
0.035544094 0.012841785 -0.06968042 0.014079808 0.021753475 -0.031768575 0.039304003 -0.014622129
-0.02956511 -0.08731098 0.15249589 -0.056833487 -0.04361675 0.010387762 -0.07804246 0.1395623
-0.039060015 -0.103572845 0.0508425 -0.04223171 0.037268836 -0.036683746 0.042019825 0.011458403
0.061683707 -0.044119254 -0.02554955 0.046227466 -0.05038373 0.03280737 0.00845559 -0.020122567
0.080033556 0.083431266 0.055620767 -0.035483256 -0.00094348565 0.012313437 0.082474634 0.027538477

classifier.2.bias f4 [32]
00000000: e9c6 2e3c 6050 0b3d 4f34 7d3d 9b47 6d3d
00000010: c20c 1b3d fa4d 983d 890a 4a3d 4ec4 473d
00000020: fe1b c13d b68c 22bd 5260 4a3d 171c 72bd
00000030: 530a 613d 91cb 04bd 8e62 91bc bf2e d8bc
00000040: f4f5 9bbd 155d a6bd 260e 5cbd 7733 be3d
00000050: 04d2 95bc 79d1 38bc 5dc8 d2ba 7faa 343d
00000060: add1 0a3d 1340 9ebd c4e0 753d 342e 4d3b
00000070: 2a7b 3fbd d0f0 473c 6142 8ebd 12b4 41bd
0.010667541 0.0340122 0.061817463 0.057929616 0.037853964 0.07436748 0.049326453 0.048771195
0.09429167 -0.039684974 0.049408264 -0.05910882 0.054941487 -0.0324207 -0.01774719 -0.026389478
-0.07615271 -0.08123223 -0.05372443 0.0928716 -0.01828862 -0.011280411 -0.0016081441 0.04410791
0.03389137 -0.07727065 0.060028806 0.0031308057 -0.046748318 0.01220341 -0.069462545 -0.04729087

classifier.4.weight f4 [1, 32]
00000000: 83c6 8bbe da88 2c3e 8fb8 5dbd 0eac 033e
00000010: bb04 25be 4e8f 4dbe 4891 26be 265b 003e
00000020: 4a09 d2bd 86ec 0f3e 5810 a2bd 236d a7bd
00000030: 6cda d8bd ddfa b6bd 240f 3c3e c233 c33d
00000040: 27ea cbbd efb7 efbd e173 723e e718 03be
00000050: 9f20 c83d 2fa9 04be 81fa c0bd 1bce 773e
00000060: 48db 55be 1025 213e 0a6e c0bd 27ac ff3d
00000070: faa4 013e ba83 8f3d 7db6 233e 4f9c 9abd
-0.2729989 0.1684908 -0.054131087 0.12858602 -0.16115086 -0.20074198 -0.16266358 0.1253477
-0.10255678 0.1405507 -0.079132736 -0.08175113 -0.10588536 -0.08934567 0.1836515 0.095313564
-0.099567704 -0.117050044 0.23677017 -0.12802468 0.09771847 -0.12955163 -0.0942278 0.24199717
-0.2088443 0.15736794 -0.09395988 0.12484007 0.1266059 0.07007547 0.15987583 -0.07549345
