Config/NeuralNets/BallPerceptor/feature_extractor_spqr.onnx (onnx, 66440 bytes, 36 tensors)

conv1.depthwise.weight f4 [1, 1, 3, 3]
0.20499101 -0.32042176 -0.15029058 0.011511047 -0.24668263 0.08241568 0.08655798 0.09585776
0.22849862
00000000: 2ae9 513e 520e a4be c6e5 19be d598 3c3c
00000010: 5f9a 7cbe 8dc9 a83d 4f45 b13d 1351 c43d
00000020: 8bfb 693e

conv2.depthwise.weight f4 [8, 1, 3, 3]
0.04428402 0.28542015 0.18554613 0.11782152 0.31373766 -0.32110354 0.039716657 -0.06238036
0.06608503 -0.008128701 0.028975787 0.2132543 -0.23799857 -0.40944582 0.12005289 -0.24936384
-0.2518492 -0.04246907 0.10157876 -0.10825175 -0.2845346 0.14958222 -0.20542334 0.11338057
0.00034297592 0.12579231 0.26665235 0.17530905 -0.016219912 0.14908922 0.16958071 -0.042017546
0.027471043 -0.20483695 0.17754486 0.03761313 0.026800755 0.12507123 -0.116566345 -0.15856957
-0.17776401 -0.07548046 -0.007252788 -0.2672347 0.20631552 0.003794457 0.10111124 0.0916727
-0.009997525 -0.08044762 0.22444062 -0.18029974 -0.16991757 0.012354898 0.2144475 -0.23248786
-0.19015658 -0.11314292 -0.051900376 -0.3134572 -0.30228356 0.04049457 -0.29952678 -0.1852531
0.0004834511 0.15408002 -0.12554052 0.23087224 -0.19293721 0.02221837 -0.024264252 -0.24843569
00000000: 2963 353d 9722 923e ceff 3d3e 694c f13d
00000010: 39a2 a03e af67 a4be efad 223d 8c82 7fbd
00000020: 9757 873d 3e2e 05bc a15e ed3c 565f 5a3e
00000030: e6b5 73be e2a2 d1be 4ade f53d 3c59 7fbe
00000040: 61f2 80be 0cf4 2dbd 8608 d03d 18b3 ddbd
00000050: 85ae 91be 152c 193e 7f5a 52be 1334 e83d
00000060: 73d1 b339 b3cf 003e a886 883e 3784 333e
00000070: 9fdf 84bc d8aa 183e 91a6 2d3e 971a 2cbd
00000080: f40a e13c c7c0 51be 52ce 353e 3a10 1a3d
00000090: 428d db3c ac12 003e 56ba eebd 1060 22be
000000a0: c507 36be 8095 9abd cca8 edbb fdd2 88be
000000b0: 6044 533e 6dac 783b 6913 cf3d e6be bb3d
000000c0: a9cc 23bc b9c1 a4bd c3d3 653e 7fa0 38be
000000d0: dffe 2dbe 336c 4a3c 2098 5b3e 4c11 6ebe
000000e0: 68b8 42be 7ab7 e7bd 7d95 54bd 767d a0be
000000f0: e9c4 9abe a2dd 253d 935b 99be fdb2 3dbe
00000100: b577 fd39 27c7 1d3e b28d 00be c669 6c3e
00000110: 5591 45be 4d03 b63c d3c5 c6bc ed65 7ebe

conv3.depthwise.weight f4 [16, 1, 3, 3]
-0.15127732 -0.2927517 0.22451869 0.1752964 0.18524475 -0.015232079 -0.21660075 -0.28014892
0.14092107 0.2758654 0.21756184 0.30701646 0.28929502 0.28923327 0.24429104 -0.16669191
-0.12755337 0.10707755 0.22827174 -0.104510754 0.17796327 0.07757029 0.30536953 0.15103653
0.25711483 0.3442296 -0.094011806 -0.3281054 -0.32372472 -0.064453036 -0.19106445 0.1450543
-0.15887517 0.04983193 0.20406367 0.12226339 0.2807434 -0.04417513 -0.24850711 0.20783775
0.29338267 -0.080685705 0.13695478 -0.2534175 -0.26290777 -0.15244456 -0.33589402 -0.12705263
-0.27011567 -0.20099589 0.057164222 0.05805692 0.22201306 0.0024143283 0.103017434 0.014888241
-0.09936819 -0.22817425 0.1010511 -0.19149633 -0.26136032 -0.51867974 -0.08927644 0.19204324
-0.1695377 -0.060155336 -0.31940684 -0.33962417 0.10452307 0.2172446 -0.046188887 -0.20198779
-0.2000528 0.16838624 -0.20613779 0.23866603 0.35539147 0.061172623 -0.21777457 0.28410354
-0.09749941 -0.11461791 -0.07238 -0.122131296 -0.30721095 -0.19645235 -0.20122032 -0.2553287
-0.13854373 -0.19068572 0.07470201 -0.20378949 0.24652097 -0.019288752 0.18712337 -0.19870329
0.32584512 0.08620929 0.12236162 0.32435653 0.39387408 -0.043157913 0.298005 -0.19235925
0.29155895 0.023382084 -0.36419097 -0.12816064 0.20354338 0.21817821 -0.111526966 0.08301535
-0.23713699 0.22225569 -0.25892928 -0.33514228 -0.016823215 -0.22292593 -0.2512698 -0.15626286
-0.36872336 -0.45478126 0.10574362 -0.07564865 -0.25018838 -0.2036875 0.25506863 -0.017826559
-0.07098934 0.041671444 0.048885632 0.31674787 -0.26917657 0.11797648 0.33322555 0.13492523
-0.18191873 -0.22683537 -0.0398918 0.20249364 0.23811395 0.03180939 -0.14222069 -0.06059721
00000000: 71e8 1abe 8de3 95be 3ae8 653e e680 333e
00000010: cdb0 3d3e f88f 79bc 96cc 5dbe ae6f 8fbe
00000020: 9d4d 103e 3b3e 8d3e 88c8 5e3e 4331 9d3e
00000030: 7a1e 943e 6216 943e 6e27 7a3e 49b1 2abe
00000040: 5a9d 02be 794b db3d 11c0 693e bc09 d6bd
00000050: 013c 363e 2cdd 9e3d 6559 9c3e 52a9 1a3e
00000060: 8ea4 833e dd3e b03e 4389 c0bd 6efd a7be
00000070: 3fbf a5be f4ff 83bd 66a6 43be 1d89 143e
00000080: 2cb0 22be 911c 4c3d 11f6 503e 3a65 fa3d
00000090: 99bd 8f3e fbf0 34bd a678 7ebe 6bd3 543e
000000a0: 4136 963e 8c3e a5bd e03d 0c3e f0bf 81be
000000b0: d99b 86be 6d1a 1cbe 4dfa abbe 161a 02be
000000c0: 9a4c 8abe ded1 4dbe 0825 6a3d 18cd 6d3d
000000d0: 6457 633e b539 1e3b cefa d23d cfed 733c
000000e0: 8d81 cbbd 83a6 69be e1f3 ce3d 9d17 44be
000000f0: 05d1 85be 32c8 04bf 91d6 b6bd fca6 443e
00000100: 4a9b 2dbe 7165 76bd 4b89 a3be 38e3 adbe
00000110: 3110 d63d 5e75 5e3e 8f30 3dbd e3d5 4ebe
00000120: a4da 4cbe 716d 2c3e c915 53be de64 743e
00000130: dff5 b53e 2590 7a3d 4c00 5fbe 0576 913e
00000140: c5ad c7bd cbbc eabd f73b 94bd f91f fabd
00000150: c14a 9dbe ce2a 49be b30c 4ebe 72ba 82be
00000160: 68de 0dbe 1e43 43be 5efd 983d 31ae 50be
00000170: fe6f 7c3e 7203 9ebc 459d 3f3e e078 4bbe
00000180: 2cd5 a63e 7f8e b03d bb98 fa3d 0f12 a63e
00000190: dda9 c93e 5ac6 30bd 1d94 983e d3f9 44be
000001a0: 3747 953e c98b bf3c 3d77 babe 8b3c 03be
000001b0: ad6d 503e 1c6a 5f3e 4068 e4bd f403 aa3d
000001c0: 0ad4 72be ff96 633e 6192 84be c597 abbe
000001d0: d7d0 89bc b246 64be 6fa6 80be 5f03 20be
000001e0: 4fc9 bcbe 17d9 e8be 1c90 d83d aeed 9abd
000001f0: b118 80be 7593 50be 5b98 823e 0109 92bc
00000200: dc62 91bd adaf 2a3d 4d3c 483d c72c a23e
00000210: 83d1 89be a79d f13d 8a9c aa3e d729 0a3e
00000220: e748 3abe 8847 68be 9665 23bd 7e5a 4f3e
00000230: 25d4 733e 904a 023d 4da2 11be c834 78bd

backbone.0.depthwise.weight f4 [32, 1, 3, 3]
0.17902905 0.07365823 0.13163538 -0.2326201 0.26343852 -0.1999057 0.24075906 0.24272741
0.167647 0.0041982126 0.25645283 0.24314821 0.26823223 0.14816336 0.2432783 0.14358377
0.0708718 -0.01659019 -0.038888447 0.23226292 0.22447295 -0.026725778 0.2777247 0.40542892
-0.18413097 0.24879795 -0.25035584 0.015040805 -0.062441736 -0.18182102 0.13529 -0.28769138
-0.20100284 -0.01834071 0.21048519 0.31690648 -0.080744624 -0.0029053616 -0.26419684 0.31908113
0.14751688 0.12165962 -0.1829312 0.06286077 0.21024358 0.27922845 0.21072507 0.22589967
-0.18750897 -0.068089284 -0.22707409 -0.058822177 -0.028744442 0.209467 0.18850237 0.12553433
0.29964566 -0.034946024 0.14499915 0.1387696 0.037201915 0.23069906 -0.22500211 -0.085694954
0.039236594 -0.3018642 -0.30192563 0.16635075 0.3345398 0.04244633 -0.06579554 -0.081377834
0.075641476 0.09074434 0.028406959 0.053918086 -0.32609093 0.14558877 -0.045096617 0.124709256
0.24673568 -0.18175024 -0.2622147 0.17681368 0.3395943 0.37669203 0.18831632 -0.15922199
0.26271236 -0.04363734 -0.2077202 -0.0020262364 0.15334427 0.08948282 0.06913835 0.028470242
0.25678512 0.08297405 0.35742232 -0.2561602 0.123335175 -0.2960512 -0.03556664 -0.019371305
0.15714864 -0.113639526 -0.13540977 -0.21068756 0.2335698 0.013273785 -0.32760713 -0.037674
-0.19988582 0.33042052 -0.2239425 0.013032528 0.030749343 0.15703267 0.31371176 0.1604816
0.18616328 0.15280975 0.082540855 0.0012629479 -0.2440211 -0.14344057 0.1003963 0.35370812
-0.12386427 -0.023756405 -0.3509252 -0.08686384 0.023126539 0.17778963 -0.07496664 0.017498044
-0.21254449 0.1443061 -0.27297002 -0.18491298 0.23008116 0.15605842 -0.10645146 -0.31595904
0.083834015 -0.2881012 0.20658106 0.04152065 0.041750744 -0.02329144 0.29245746 0.2186759
-0.27202442 -0.010570796 -0.15261413 0.01890235 -0.37103206 -0.28333902 -0.022608742 -0.2545043
0.19067083 -0.010835587 0.20760489 0.28609446 -0.05653331 0.27894557 0.15798397 -0.110019736
0.11499767 0.04676428 0.039816726 0.0489964 0.15466803 0.25929067 -0.21456793 0.2032264
-0.11962658 -0.043315493 -0.24139008 -0.14475228 0.05266168 -0.24533962 -0.17973599 0.11991955
-0.0104869325 -0.25434482 -0.0889955 -0.25793323 0.15602347 -0.24862537 -0.0761318 0.17123663
-0.09638914 0.10161852 0.32789218 0.22145195 0.3563008 -0.0031023559 0.3418876 -0.13812813
-0.0024077313 0.2434097 0.17684099 0.20512281 -0.012600586 -0.056501925 -0.13239454 0.0019071158
0.25253046 0.019089155 -0.17202926 -0.24019895 -0.2372284 -0.102456786 -0.2923835 -0.17663205
0.09240321 -0.27460286 -0.18694563 0.14044483 0.18558213 0.1877554 -0.37487367 -0.037510965
0.23941591 -0.028909948 -0.24574998 0.14448725 -0.010566016 -0.19784956 0.1154946 0.14907715
-0.11914749 -0.24203388 0.21499118 -0.05464186 -0.12935339 -0.09493114 0.06637417 0.009057993
-0.27466968 -0.034282465 -0.11991817 -0.2302725 0.2600242 -0.2660404 0.10767958 0.07376104
-0.04899069 0.13237293 -0.075939655 0.24214844 -0.24368669 -0.023333572 -0.31357002 0.30874175
00000000: 6453 373e 20da 963d 6dcb 063e f733 6ebe
00000010: 6ae1 863e 14b4 4cbe 8b89 763e 898d 783e
00000020: a8ab 2b3e 2991 893b c94d 833e d8fb 783e
00000030: bc55 893e 23b8 173e f21d 793e a007 133e
00000040: 3c25 913d 26e8 87bc 7e49 1fbd 55d6 6d3e
00000050: 3ddc 653e 05f0 dabc ef31 8e3e 6194 cf3e
00000060: d48c 3cbe e4c4 7e3e a42e 80be b56d 763c
00000070: e8c2 7fbd 4a2f 3abe 7689 0a3e 494c 93be
00000080: b0d3 4dbe 423f 96bc 6e89 573e 9141 a23e
00000090: 705d a5bd e167 3ebb cf44 87be 9a5e a33e
000000a0: aa0e 173e ae28 f93d 5152 3bbe 26bd 803d
000000b0: 184a 573e 08f7 8e3e 50c8 573e 3e52 673e
000000c0: 5a02 40be 6572 8bbd 1c86 68be 86ef 70bd
000000d0: 7779 ebbc 847e 563e c406 413e 128c 003e
000000e0: 286b 993e 9023 0fbd a87a 143e 9e19 0e3e
000000f0: 0961 183d 603c 6c3e f466 66be d680 afbd
00000100: 8db6 203d f28d 9abe ff95 9abe da57 2a3e
00000110: cd48 ab3e 34dc 2d3d d0bf 86bd 6ca9 a6bd
00000120: ebe9 9a3d 2bd8 b93d b6b5 e83c 36d9 5c3d
00000130: 64f5 a6be 3915 153e 3bb7 38bd 9167 ff3d
00000140: 47a8 7c3e bc1c 3abe 0141 86be a50e 353e
00000150: 4edf ad3e c7dd c03e fed5 403e 170b 23be
00000160: 3c82 863e 11bd 32bd 9bb4 54be 9bca 04bb
00000170: 4806 1d3e c542 b73d 6898 8d3d 6d3a e93c
00000180: 5779 833e 4cee a93d 0f00 b73e 6e27 83be
00000190: 2797 fc3d 0694 97be 53ae 11bd 92b0 9ebc
000001a0: 93eb 203e d7bb e8bd dca8 0abe 7bbe 57be
000001b0: ec2c 6f3e 4a7a 593c 1fbc a7be 0d50 1abd
000001c0: deae 4cbe e12c a93e 2f51 65be 6286 553c
000001d0: 0ce6 fb3c 2ccd 203e d49e a03e 4a55 243e
000001e0: 96a1 3e3e 297a 1c3e 2e0b a93d 8089 a53a
000001f0: abe0 79be 16e2 12be 939c cd3d 3b19 b53e
00000200: 8dac fdbd cb9c c2bc 78ac b3be abe5 b1bd
00000210: de73 bd3c 7c0e 363e 1c88 99bd 0f58 8f3c
00000220: 43a5 59be fac4 133e bac2 8bbe d459 3dbe
00000230: 659a 6b3e c7cd 1f3e 3903 dabd 62c5 a1be
00000240: 2bb1 ab3d 0082 93be fc89 533e 8f11 2a3d
00000250: d402 2b3d b1cd bebc fcbc 953e 93ec 5f3e
00000260: c946 8bbe 2231 2dbc e146 1cbe 1ad9 9a3c
00000270: eaf7 bdbe d011 91be f835 b9bc 634e 82be
00000280: 373f 433e bf87 31bc 6096 543e f97a 923e
00000290: 798f 67bd f4d1 8e3e 8dc6 213e 0752 e1bd
000002a0: e683 eb3d e78b 3f3d dd16 233d 73b0 483d
000002b0: 4c61 1e3e bfc1 843e b2b7 5bbe 951a 503e
000002c0: c8fe f4bd 966b 31bd f62e 77be f139 14be
000002d0: c6b3 573d 4f3a 7bbe b60c 38be 6298 f53d
000002e0: 62d1 2bbc 7c39 82be 4643 b6bd d30f 84be
000002f0: 9ec4 1f3e a697 7ebe fdea 9bbd a858 2f3e
00000300: ab67 c5bd 5f1d d03d 7ce1 a73e 4dc4 623e
00000310: 0f6d b63e e550 4bbb e40b af3e 7671 0dbe
00000320: 07cb 1dbb 6440 793e ce15 353e b70b 523e
00000330: b072 4ebc 906e 67bd 6f92 07be 30f8 f93a
00000340: ac4b 813e dc60 9c3c 7028 30be b7f6 75be
00000350: 00ec 72be ddd4 d1bd 4ab3 95be 08df 34be
00000360: e53d bd3d bf98 8cbe ad6e 3fbe c5d0 0f3e
00000370: 3e09 3e3e f442 403e 71ef bfbe 19a5 19bd
00000380: 7229 753e 8ed4 ecbc e2a5 7bbe 77f4 133e
00000390: 151d 2dbc 1399 4abe 6f88 ec3d aea7 183e
000003a0: 9903 f4bd bbd7 77be a626 5c3e 25d0 5fbd
000003b0: 3775 04be 426b c2bd 2eef 873d fa67 143c
000003c0: 81a1 8cbe c56b 0cbd a897 f5bd 8ecc 6bbe
000003d0: e421 853e 7336 88be 1d87 dc3d 0710 973d
000003e0: 76aa 48bd c58c 073e 4086 9bbd c3f5 773e
000003f0: 0189 79be 0c26 bfbc 408c a0be 6613 9e3e

backbone.1.depthwise.weight f4 [32, 1, 3, 3]
0.1340938 0.17201176 0.09063174 -0.059298426 0.003689592 0.14134069 -0.103836924 0.018287262
-0.22710821 -0.20766619 -0.10093368 -0.28834876 0.29692358 0.24285297 0.12321775 -0.19612136
-0.277862 -0.19212927 -0.18486816 0.23063894 0.106954455 -0.33072984 -0.3073506 -0.07881017
0.19111285 0.01122058 0.15287094 0.26687133 0.19971046 0.23684828 0.21847838 0.25712773
-0.30649507 0.13911566 0.14164092 0.06348552 -0.08267841 -0.10200595 0.25862038 -0.25771877
0.2754925 -0.04836098 0.06422012 -0.029499019 -0.13800874 0.1652373 -0.16181701 0.14460967
-0.037150867 -0.01976189 0.13633098 0.090274386 0.006069753 0.0052384194 -0.268653 -0.1764236
-0.14918548 -0.09180898 0.36536783 -0.026256746 -0.024387557 0.11186144 0.11449112 0.025567716
-0.16773453 0.11178341 0.045919985 0.10434967 -0.15386045 0.15728468 0.09043717 0.38434207
-0.012265401 0.28249305 0.015560185 0.3095678 0.29650927 -0.18042827 0.12369174 -0.2979266
0.24343824 -0.043984283 0.15070014 0.21086855 0.16087382 -0.33425024 0.06477201 0.0138597675
-0.2658924 0.2320555 -0.19876035 0.1603098 0.20520212 -0.26331326 -0.21561207 0.12541686
-0.21267374 0.13735175 0.23683381 0.29550704 0.29351714 -0.25522172 0.19235997 -0.15690275
0.17708273 -0.15018938 -0.3304335 0.038854163 -0.2112831 0.04783277 -0.018794144 -0.38725975
-0.05037929 0.058840644 0.2500384 -0.18356147 0.060364783 -0.12949562 -0.08584265 -0.09027295
-0.30364445 0.10491589 -0.19593373 0.14526837 0.32937843 0.32969445 -0.2332849 0.2988909
0.26693895 -0.26127678 0.21264489 -0.18273744 0.15424496 0.29387146 -0.3824026 -0.020034015
0.029753283 -0.24871996 0.055156894 0.41900802 0.17774658 0.01555493 0.2898643 -0.09069657
0.20930773 -0.086698 0.156041 -0.002046937 0.20970476 0.31594086 0.01951625 0.24615164
-0.061969943 0.04916881 -0.26310363 -0.28670183 0.0035257735 -0.3245625 -0.09812971 -0.25325826
-0.023375295 0.31607738 -0.11097469 -0.0314858 0.25124756 -0.15387261 -0.19395255 -0.19571523
0.2003255 0.038927466 -0.12389644 0.34376192 0.17888688 0.06597255 0.285578 0.10917378
-0.28201303 0.20416315 0.038855597 -0.09115783 -0.09265646 0.22117427 0.13068113 -0.008739056
0.25779882 0.20871302 -0.22531095 -0.19855072 -0.32306406 0.2078932 0.19323458 0.12119184
-0.31346577 0.08761637 0.1212957 0.18474498 -0.2313769 -0.2117868 -0.20903282 0.15536825
-0.2917029 -0.26041842 -0.15707968 0.18823498 0.03211424 -0.3251412 -0.2054285 -0.303207
0.22254688 -0.25248003 0.15853722 -0.30650723 0.03269068 -0.19991341 -0.08678054 -0.11142679
0.22156669 0.01218988 0.20762551 -0.056921724 0.043150056 0.16995643 0.26070648 -0.08196242
0.22377639 -0.051462702 -0.20030902 0.04698922 -0.11614151 0.23309031 0.17678495 -0.22783536
0.019768836 0.00039992435 0.28376037 -0.13416451 0.0426075 -0.18917534 -0.32213467 -0.013747626
-0.13155226 -0.21285428 0.15933445 0.041886657 0.14215094 0.16835536 -0.22111095 -0.29436636
0.106841415 -0.16487083 -0.0061461423 -0.08365889 0.1109302 -0.2648298 -0.2958157 -0.019751329
00000000: e34f 093e da23 303e 229d b93d e8e2 72bd
00000010: 15cd 713b 9dbb 103e 74a8 d4bd 2bcf 953c
00000020: 0e8f 68be 72a6 54be 51b6 cebd 73a2 93be
00000030: 5e06 983e 73ae 783e 9659 fc3d 0ad4 48be
00000040: ee43 8ebe 89bd 44be 144e 3dbe 9d2c 6c3e
00000050: f00a db3d 6c55 a9be 0f5d 9dbe 3a67 a1bd
00000060: 16b3 433e 86d6 373c 338a 1c3e 5ca3 883e
00000070: e680 4c3e 5b88 723e ccb8 5f3e 3fa6 833e
00000080: ecec 9cbe 5674 0e3e 510a 113e b204 823d
00000090: 4c53 a9bd 7fe8 d0bd e469 843e b7f3 83be
000000a0: 5a0d 8d3e 2a16 46bd d785 833d eda7 f1bc
000000b0: 2a52 0dbe f733 293e 5cb3 25be 8f14 143e
000000c0: 822b 18bd b0e3 a1bc 599a 0b3e c7e1 b83d
000000d0: c7e4 c63b 0ca7 ab3b e38c 89be 63a8 34be
000000e0: 14c4 18be 5906 bcbd 7e11 bb3e 6318 d7bc
000000f0: 6ac8 c7bc 9c17 e53d 527a ea3d 6373 d13c
00000100: 9ac2 2bbe b3ee e43d 9816 3c3d 48b5 d53d
00000110: 988d 1dbe 3c0f 213e 1f37 b93d 7cc8 c43e
00000120: d2f4 48bc eea2 903e 25f0 7e3c ac7f 9e3e
00000130: 10d0 973e 30c2 38be 1852 fd3d d689 98be
00000140: e047 793e dd28 34bd 2351 1a3e eded 573e
00000150: 1bbc 243e d922 abbe 30a7 843d 1414 633c
00000160: 0c23 88be f59f 6d3e d587 4bbe 4128 243e
00000170: 8120 523e ffd0 86be 69c9 5cbe 476d 003e
00000180: 25c7 59be f0a5 0c3e 9084 723e b34c 973e
00000190: e147 963e 6cac 82be 03fa 443e 1dab 20be
000001a0: 2d55 353e 3fcb 19be 942e a9be 8b25 1f3d
000001b0: 995a 58be 4bec 433d 2df6 99bc e946 c6be
000001c0: 845a 4ebd e302 713d 0805 803e 8af7 3bbe
000001d0: 1041 773d 809a 04be 45ce afbd 06e1 b8bd
000001e0: 4977 9bbe 24de d63d daa2 48be 3bc1 143e
000001f0: 4aa4 a83e b6cd a83e 3de2 6ebe 3a08 993e
00000200: 39ac 883e 12c6 85be 95bf 593e 861f 3bbe
00000210: 64f2 1d3e 5276 963e 46ca c3be 601e a4bc
00000220: 28bd f33c 72b0 7ebe 32ec 613d 3888 d63e
00000230: 3303 363e 1bda 7e3c 1869 943e 20bf b9bd
00000240: c454 563e b98e b1bd 36c9 1f3e e725 06bb
00000250: d8bc 563e 00c3 a13e 8be0 9f3c 2d0f 7c3e
00000260: 32d4 7dbd 3c65 493d 85b5 86be 95ca 92be
00000270: aa10 673b 0e2d a6be 3bf8 c8bd 11ab 81be
00000280: 8c7d bfbc e5d4 a13e b346 e3bd 41f7 00bd
00000290: 85a3 803e c890 1dbe 7f9b 46be 9369 48be
000002a0: 2122 4d3e 6872 1f3d 6bbd fdbd 9001 b03e
000002b0: 1f2e 373e 9e1c 873d 4837 923e 8196 df3d
000002c0: 0364 90be 2510 513e 0c27 1f3d f5b0 babd
000002d0: acc2 bdbd 827b 623e 46d1 053e 422e 0fbc
000002e0: 35fe 833e deb8 553e eab7 66be e150 4bbe
000002f0: a768 a5be f4e1 543e 49df 453e 6d33 f83d
00000300: 967e a0be 3670 b33d e169 f83d ca2d 3d3e
00000310: 11ee 6cbe a4de 58be b30c 56be db18 1f3e
00000320: 155a 95be 9055 85be 7fd9 20be acc0 403e
00000330: 398a 033d e878 a6be d95b 52be f33d 9bbe
00000340: 54e3 633e 1045 81be 9557 223e 84ee 9cbe
00000350: aae6 053d 1ab6 4cbe ffb9 b1bd bb33 e4bd
00000360: 61e2 623e 10b8 473c c89b 543e c126 69bd
00000370: 1dbe 303d 0f09 2e3e 527b 853e eadb a7bd
00000380: a325 653e 8eca 52bd cf1d 4dbe c577 403d
00000390: 9adb edbd 3aaf 6e3e 1d07 353e ac4d 69be
000003a0: 41f2 a13c f0ac d139 0a49 913e 6c62 09be
000003b0: 3485 2e3d 2eb7 41be d6ee a4be b93d 61bc
000003c0: a3b5 06be 79f6 59be 9228 233e 5891 2b3d
000003d0: 0490 113e 5965 2c3e e96a 62be 30b7 96be
000003e0: accf da3d e6d3 28be 9465 c9bb 5a55 abbd
000003f0: 5f2f e33d c697 87be 2875 97be 8acd a1bc

backbone.2.depthwise.weight f4 [32, 1, 3, 3]
-0.3148912 0.03132684 -0.20757422 -0.1994434 -0.34069422 0.14832756 -0.21767002 0.11809392
0.19766161 -0.05143242 -0.10276005 0.05526067 -0.096722886 0.031797644 0.23185179 0.191429
-0.19499622 -0.25341 -0.058496088 -0.12867661 -0.1967006 -0.23426537 0.044947002 0.09356109
-0.21138386 0.21823923 0.25674826 -0.04869144 -0.16209346 0.055090237 0.15972619 0.005078932
-0.3997459 -0.33101064 -0.28026408 0.25890544 0.21971714 -0.15812859 -0.073966905 0.16209012
-0.29687306 -0.031073112 -0.11405529 0.049022254 0.18414953 -0.115897 0.21477963 0.07815682
0.1042642 0.14978181 0.13060948 0.04283881 -0.030171445 0.05841911 0.008939849 -0.1505547
-0.11677484 0.0063370136 0.106804736 -0.30820125 -0.25874776 0.31719604 -0.117970064 -0.07997216
0.1399681 -0.049461186 0.03923655 -0.25776073 0.25545236 0.068600416 -0.18572143 -0.3050473
-0.33561742 0.27396786 0.20519935 0.37120408 0.2452215 -0.2175548 -0.020856844 -0.29213786
-0.3246978 0.25903052 -0.32952684 0.21591227 0.20369007 0.29635292 0.015229367 -0.29877362
-0.3051156 0.16685191 0.1980418 -0.25563675 0.14880931 0.28198916 -0.25014156 -0.03144799
0.185196 0.07303143 -0.10698153 0.017541802 0.084564604 -0.31801215 -0.019592322 -0.23802648
0.09714437 -0.14038177 -0.27582666 -0.078970045 0.18845975 0.024468249 0.026913825 0.11807192
-0.30393094 -0.3635459 0.122587465 -0.21791601 0.008141866 -0.04963144 -0.13308835 -0.19471638
-0.1757644 -0.18757549 -0.13897224 0.18430549 0.20285267 -0.15722838 0.1800095 -0.010208763
-0.1904409 0.109453395 -0.1934763 0.40090182 0.09525819 -0.3665915 -0.09213739 -0.29353198
0.11749232 -0.08020734 0.33555818 0.14726338 0.22818695 -0.2511633 -0.21279468 -0.056535922
-0.115222536 0.14053339 0.17897387 0.27967224 -0.15029266 -0.032438353 -0.05561696 -0.30675143
-0.18419147 0.0720681 -0.28471228 -0.22624873 -0.050938822 -0.28697932 -0.09112652 -0.26970512
0.20097043 -0.28961986 0.31645903 0.1638701 0.1134045 -0.19291054 -0.17551255 -0.20163631
-0.032564387 0.2691872 0.014929608 0.111450836 -0.15659992 -0.031530324 -0.16787587 -0.18510702
0.1512978 0.08452594 0.0587024 -0.27493593 -0.17811996 -0.25335312 -0.013569973 -0.2043248
0.15412883 -0.29523367 -0.07688314 -0.14053893 -0.16026694 0.245782 -0.25581667 0.18210223
-0.17194405 -0.050477162 0.2745397 0.3034251 0.28126377 0.21808076 0.24476542 0.2594487
0.04547737 -0.018070566 -0.22866964 -0.28482896 -0.103047036 0.26426333 -0.18021183 0.20026037
-0.056895357 -0.062371217 -0.12769106 0.21835032 -0.14640917 0.00741559 0.28316966 -0.053768765
0.253033 -0.22927023 0.13891414 -0.28815737 -0.0006102205 -0.365037 -0.2644149 -0.10891087
0.17746402 -0.1811144 -0.19118571 0.29263812 0.16400209 0.21555623 -0.044117674 0.14477701
0.25978246 -0.047627088 -0.11250028 0.19498952 -0.18806426 -0.27693295 0.015081391 0.37449804
-0.16456902 -0.10941217 -0.16666152 -0.106730334 0.17869829 0.0627425 0.10693985 -0.07806739
0.116411306 -0.25909695 0.28486624 -0.09259474 -0.11308745 0.21195734 0.07789199 -0.17695081
00000000: 6b39 a1be 9350 003d 568e 54be e43a 4cbe
00000010: 796f aebe 2ee3 173e e4e4 5ebe 3adb f13d
00000020: ce67 4a3e cdaa 52bd dc73 d2bd 0359 623d
00000030: a616 c6bd 3f3e 023d 8e6a 6d3e f705 443e
00000040: 17ad 47be f5be 81be 9899 6fbd cdc3 03be
00000050: e26b 49be 43e3 6fbe 591a 383d f59c bf3d
00000060: 0375 58be 1b7a 5f3e 8274 833e ad70 47bd
00000070: d4fb 25be 4da6 613d 438f 233e 2b6d a63b
00000080: 7fab ccbe 3a7a a9be c67e 8fbe 418f 843e
00000090: 88fd 603e 76ec 21be f67b 97bd f4fa 253e
000000a0: bfff 97be 0a8d febc d295 e9bd 8fcb 483d
000000b0: b291 3c3e 685b edbd 31ef 5b3e af10 a03d
000000c0: 7888 d53d 6760 193e 7ebe 053e bf77 2f3d
000000d0: 1b2a f7bc e048 6f3d 7278 123c 032b 1abe
000000e0: a627 efbd b9a6 cf3b 71bc da3d 8ecc 9dbe
000000f0: 967a 84be 8567 a23e 4a9a f1bd 72c8 a3bd
00000100: cc53 0f3e d097 4abd 81b6 203d 37f9 83be
00000110: a7ca 823e 607e 8c3d c22d 3ebe 292f 9cbe
00000120: 0cd6 abbe 8445 8c3e c71f 523e 760e be3e
00000130: 581b 7b3e afc6 5ebe f9db aabc 1893 95be
00000140: ca3e a6be a69f 843e beb7 a8be 1b18 5d3e
00000150: 2194 503e 92bb 973e 9884 793c dbf8 98be
00000160: 1d38 9cbe 3adb 2a3e 78cb 4a3e d2e2 82be
00000170: 7861 183e e260 903e 8e12 80be 9ccf 00bd
00000180: 05a4 3d3e 8191 953d 2219 dbbd d3b3 8f3c
00000190: 3530 ad3d 7dd2 a2be 1480 a0bc 37bd 73be
000001a0: a1f3 c63d 3dc0 0fbe 2739 8dbe 0cbb a1bd
000001b0: 98fb 403e a371 c83c 627a dc3c b1cf f13d
000001c0: d69c 9bbe b022 babe 230f fb3d 6025 5fbe
000001d0: 7665 053c 564a 4bbd 5048 08be bb63 47be
000001e0: 95fb 33be ca13 40be bd4e 0ebe 94ba 3c3e
000001f0: 9cb8 4f3e 7a00 21be 6954 383e a842 27bc
00000200: f002 43be 1a29 e03d a71e 46be 0143 cd3e
00000210: ba16 c33d e2b1 bbbe 87b2 bcbd d349 96be
00000220: d09f f03d bf43 a4bd 48ce ab3e 36cc 163e
00000230: d7a9 693e 7a98 80be d9e6 59be 3692 67bd
00000240: cbf9 ebbd fce7 0f3e ed44 373e 3331 8f3e
00000250: 52e6 19be 14de 04bd 9cce 63bd 860e 9dbe
00000260: b09c 3cbe 7198 933d cfc5 91be bfad 67be
00000270: 3aa5 50bd f4ee 92be 8aa0 babd ca16 8abe
00000280: 31cb 4d3e 0e49 94be eb06 a23e 90cd 273e
00000290: 9e40 e83d 578a 45be 90b9 33be c079 4ebe
000002a0: 3c62 05bd e8d2 893e 519b 743c 5640 e43d
000002b0: bb5b 20be f125 01bd a7e7 2bbe b28c 3dbe
000002c0: cfed 1a3e f01b ad3d ee71 703d 67c4 8cbe
000002d0: 1465 36be 80b7 81be 9854 5ebc 853a 51be
000002e0: f3d3 1d3e de28 97be e874 9dbd 70e9 0fbe
000002f0: 041d 24be 47ae 7b3e 67fa 82be 0279 3a3e
00000300: 1a12 30be 24c1 4ebd 7890 8c3e 895a 9b3e
00000310: ce01 903e 9050 5f3e c9a3 7a3e 76d6 843e
00000320: 7b46 3a3d b908 94bc 6028 6abe 1ad5 91be
00000330: 530a d3bd 864d 873e 7389 38be 0e11 4d3e
00000340: 1b0b 69bd f678 7fbd 72c1 02be 3a97 5f3e
00000350: 49ec 15be 7afe f23b 9dfb 903e a33c 5cbd
00000360: 8b8d 813e d1c5 6abe 823f 0e3e 5d89 93be
00000370: 34f7 1fba 21e6 babe 6461 87be aa0c dfbd
00000380: 21b9 353e 0e76 39be 30c6 43be aad4 953e
00000390: 2af0 273e c6ba 5c3e bcb4 34bd 6d40 143e
000003a0: 3502 853e 9f14 43bd 8c66 e6bd 55ab 473e
000003b0: eb93 40be 28ca 8dbe f017 773c 35be bf3e
000003c0: c884 28be 7d13 e0bd 51a9 2abe 6f95 dabd
000003d0: affc 363e 247f 803d 4803 db3d cce1 9fbd
000003e0: 0d69 ee3d 5ba8 84be fdd9 913e 50a2 bdbd
000003f0: 659a e7bd 580b 593e d685 9f3d 9832 35be

backbone.3.depthwise.weight f4 [32, 1, 3, 3]
-0.06796523 0.2732994 0.27998686 -0.1553863 0.013863393 0.14449593 0.007680909 -0.24434862
0.04251497 0.13732734 0.1761477 -0.21094333 0.20881747 0.13903117 -0.25735232 -0.25431114
0.15041584 0.08073244 -0.06702897 0.19686866 -0.075184435 -0.045303773 -0.03808704 -0.09419921
-0.29538867 -0.19668819 0.2143123 0.08203456 -0.31132936 -0.05131479 -0.054895546 0.24367204
0.3255057 0.037431255 -0.2650573 0.19259739 -0.113251485 0.2067042 0.212008 0.1595879
0.32054582 -0.031858925 -0.22143027 0.025533793 -0.14784202 0.23215844 0.23827483 0.10762662
0.17453904 0.2643642 -0.17033929 0.16036029 0.19159356 0.2686705 0.1130114 0.28667557
-0.07386278 -0.27572444 0.40834922 0.007453189 0.098867275 -0.19783832 -0.026187733 0.09992496
0.029227894 -0.03972749 0.22593142 0.31909665 0.14715429 0.13436541 0.32750532 -0.19136083
0.29509017 -0.09084834 -0.0037704858 0.07736308 0.3656511 -0.103171915 0.17718607 0.009904568
-0.013781605 0.36795586 0.012209446 0.11023944 0.12088057 0.09294667 0.11421748 -0.1928784
0.123999074 -0.13520628 0.030688291 0.27073964 0.07039605 0.29095298 0.19861439 -0.23711346
0.029206472 -0.117722 0.20916761 -0.24246663 -0.15140341 0.3114359 0.16962133 -0.17495771
0.22423062 0.29576504 0.27338707 -0.24102871 0.14264119 -0.22835943 0.035938192 -0.0022753857
0.38655216 0.37686086 0.11444134 0.09990842 -0.062440243 -0.15526912 0.047052264 0.16021909
0.24671035 0.21192129 0.16512164 -0.1496603 0.25627232 0.03620093 0.31513143 0.15606348
-0.124298505 0.18123485 0.28301838 -0.04816329 -0.19624215 0.15470843 0.012796914 0.101593524
-0.1165976 0.2496126 0.305425 0.33771175 0.24405381 -0.21367946 0.30405682 0.059269924
0.0006614436 0.055020045 0.07732662 0.165444 0.30543476 -0.10250482 0.1151891 -0.27589285
-0.31703067 -0.18389644 0.011543461 0.060446825 -0.33104348 -0.2666221 0.23034306 -0.24546608
0.22557558 0.2583444 0.101213716 -0.17080405 0.05804443 -0.16869146 0.26321432 -0.013697747
0.19226247 0.31853417 -0.20857294 0.010157955 -0.00164358 0.07281726 -0.032510117 0.013509183
-0.31711456 0.05770585 -0.12959191 -0.13430034 0.32689363 0.043728996 0.28452072 -0.012261526
0.15694623 0.22536406 0.11659512 0.28875425 0.051486608 0.2917533 0.18764454 -0.20723799
-0.19510482 0.26049668 -0.29442194 -0.030832784 0.23055652 -0.2949243 0.18321474 0.083140224
-0.21916246 -0.008080554 0.19811434 -0.093847975 -0.102799274 -0.10244358 -0.060268357 -0.07554868
0.16257423 -0.24651033 0.09681269 -0.16387732 0.25460994 -0.08536319 0.23136541 -0.3009232
0.017256917 -0.026987908 0.17730255 0.28731623 0.18836461 0.135429 -0.2707142 -0.055659708
-0.22959971 0.13499847 0.12440239 -0.14928517 -0.24546692 0.062440347 -0.13582873 0.14008667
-0.26638123 0.069064856 0.09186648 -0.23158129 0.17327012 -0.1889285 -0.28249714 0.27237532
-0.016017707 0.15708047 0.14620842 0.2242609 -0.2338128 -0.06365266 0.24763785 0.0431421
-0.0077437996 0.09374163 0.2973707 0.14912796 -0.05071041 0.090292074 -0.3083046 -0.16011946
00000000: 5b31 8bbd e6ed 8b3e 705a 8f3e 961d 1fbe
00000010: 4923 633c bef6 133e 22b0 fb3b 8636 7abe
00000020: 2d24 2e3d 8a9f 0c3e 1060 343e 8701 58be
00000030: 3fd4 553e 305e 0e3e afc3 83be 1235 82be
00000040: 9c06 1a3e 0d57 a53d 7c46 89bd f097 493e
00000050: 4cfa 99bd 7390 39bd 2801 1cbd 84eb c0bd
00000060: 2f3d 97be a168 49be af74 5b3e bc01 a83d
00000070: 9066 9fbe 752f 52bd 27da 60bd 2a85 793e
00000080: afa8 a63e 8451 193d 97b5 87be 4038 453e
00000090: 65f0 e7bd 44aa 533e a018 593e 036b 233e
000000a0: 951e a43e 817e 02bd 9ebe 62be 3f2c d13c
000000b0: e663 17be f1ba 6d3e 51fe 733e 586b dc3d
000000c0: 5dba 323e bf5a 873e 6c6d 2ebe 7d35 243e
000000d0: 1a31 443e 2e8f 893e 8572 e73d 24c7 923e
000000e0: 5f45 97bd c12b 8dbe 2613 d13e e239 f43b
000000f0: ed7a ca3d 2196 4abe a887 d6bc 75a5 cc3d
00000100: 566f ef3c 4bb9 22bd 915a 673e a360 a33e
00000110: 9daf 163e 1697 093e c7ae a73e 18f4 43be
00000120: 0f16 973e b20e babd 411a 77bb 8970 9e3d
00000130: 9f36 bb3e cc4b d3bd 4470 353e c546 223c
00000140: 3ecc 61bc b664 bc3e 210a 483c 37c5 e13d
00000150: 3b90 f73d d35a be3d dbea e93d ea81 45be
00000160: 3af3 fd3d 8473 0abe 0366 fb3c 639e 8a3e
00000170: ce2b 903d caf7 943e 9261 4b3e dfcd 72be
00000180: 6942 ef3c 3b18 f1bd 0930 563e 2c49 78be
00000190: 7f09 1bbe 8774 9f3e 37b1 2d3e 1d28 33be
000001a0: b69c 653e 846e 973e 64f9 8b3e 3bd0 76be
000001b0: 8810 123e 0ed7 69be ed33 133d a31e 15bb
000001c0: 2aea c53e e8f3 c03e 3960 ea3d c99c cc3d
000001d0: 57c1 7fbd defe 1ebe e0b9 403d 7910 243e
000001e0: a3a1 7c3e e501 593e a615 293e 8d40 19be
000001f0: 2036 833e 6d47 143d e858 a13e 1bcf 1f3e
00000200: 3790 febd a195 393e c9e7 903e df46 45bd
00000210: b4f3 48be e36b 1e3e 26aa 513c 4410 d03d
00000220: b9ca eebd 729a 7f3e aa60 9c3e 8ee8 ac3e
00000230: 3ee9 793e cace 5abe 56ad 9b3e 05c5 723d
00000240: bb64 2d3a b35c 613d 6b5d 9e3d 276a 293e
00000250: f261 9c3e 0cee d1bd 43e8 eb3d d441 8dbe
00000260: d851 a2be 594f 3cbe c920 3d3c 1797 773d
00000270: 887e a9be b182 88be 0ddf 6b3e 765b 7bbe
00000280: 49fd 663e b845 843e 2349 cf3d 42e7 2ebe
00000290: ffbf 6d3d 74bd 2cbe 07c4 863e 846c 60bc
000002a0: 74e0 443e e916 a33e 2594 55be 8d6d 263c
000002b0: 656d d7ba 3721 953d 5429 05bd 9f55 5d3c
000002c0: d75c a2be f85c 6c3d beb3 04be 0786 09be
000002d0: 9a5e a73e 2d1d 333d b3ac 913e 91e4 48bc
000002e0: 83b6 203e d6c5 663e 6cc9 ee3d 99d7 933e
000002f0: 9fe3 523d b060 953e e425 403e 3236 54be
00000300: 8fc9 47be d25f 853e 79be 96be 0995 fcbc
00000310: 0217 6c3e 5100 97be a59c 3b3e 6c45 aa3d
00000320: 206c 60be 4d64 04bc 7cde 4a3e 5e33 c0bd
00000330: 6d88 d2bd f1cd d1bd f4db 76bd 44b9 9abd
00000340: dc79 263e 346d 7cbe bb45 c63d 75cf 27be
00000350: 3c5c 823e e5d2 aebd 0eeb 6c3e 9b12 9abe
00000360: 615e 8d3c bf15 ddbc cd8e 353e 1d1b 933e
00000370: a7e2 403e e6ad 0a3e 0d9b 8abe 6ffb 63bd
00000380: 301c 6bbe 0a3d 0a3e aec6 fe3d 36de 18be
00000390: ae5b 7bbe 73c1 7f3d b016 0bbe e172 0f3e
000003a0: 1f63 88be e071 8d3d 7e24 bc3d a523 6dbe
000003b0: b96d 313e 7976 41be 77a3 90be c774 8b3e
000003c0: 9137 83bc b4d9 203e a9b7 153e a6a4 653e
000003d0: 9f6c 6fbe 535c 82bd c794 7d3e c5b5 303d
000003e0: b3bf fdbb 9dfb bf3d f940 983e 00b5 183e
000003f0: b8b5 4fbd 0deb b83d 1ada 9dbe 5bf6 23be

backbone.4.depthwise.weight f4 [32, 1, 3, 3]
-0.017676132 0.12012505 -0.2298349 -0.039489694 0.22445263 0.16333804 -0.1474403 0.23476349
-0.15135057 -0.011355058 -0.111335546 -0.09378979 -0.11896202 0.017556615 -0.30520847 -0.070124134
0.030082375 -0.034278166 0.2667408 -0.1529411 0.16875577 0.11557045 0.07984243 0.046130057
0.34954503 0.085992455 0.13477406 -0.18121809 0.08380709 0.2036544 -0.2875144 -0.08039771
-0.120019756 0.17863253 -0.26564246 0.045325816 -0.009825301 0.17434955 -0.14268109 -0.1758197
-0.13922451 -0.2729277 -0.2723283 -0.17896177 -0.01954124 -0.18300357 -0.21035908 0.0032777265
-0.19605729 -0.06637063 -0.16102315 -0.10639514 -0.16277155 -0.010983389 0.09606321 0.24704099
0.21959631 0.28065684 -0.10778146 0.16859125 0.19186349 0.10389441 0.25530422 -0.13613598
0.30138448 -0.15821436 0.09653659 -0.24723959 -0.065943345 0.24549286 -0.044269755 -0.20070231
-0.2859954 -0.1389668 -0.1765419 0.13804987 0.16262074 -0.016552282 -0.2162892 0.13024338
0.22171457 0.08889656 0.040241934 0.007655537 -0.19010255 -0.15222222 0.3269136 0.13130565
-0.3303776 0.3632079 -0.03837987 0.27893347 -0.28697765 0.012588741 0.093415625 -0.19678287
-0.22412021 0.18947577 -0.27370217 0.11437507 -0.23285802 -0.2603457 0.21976756 0.2764989
-0.11858428 0.22939944 -0.20490916 0.049908105 -0.08562873 -0.22124118 -0.21937479 -0.24743402
-0.064591214 -0.3968041 -0.020357067 -0.3025869 -0.22226179 -0.12249302 -0.3042111 0.27324298
-0.091868244 -0.18886337 0.24397138 -0.029405378 0.21800642 0.056379944 -0.1586559 0.098168924
-0.19770457 -0.1476794 -0.21720758 -0.12615623 0.19455756 0.18190269 0.25216126 -0.038426425
0.27147844 -0.06191122 0.013318624 0.26389316 -0.193667 -0.23142324 0.30124292 -0.18899848
0.25058413 0.06780417 0.079659246 -0.27374306 0.08260621 -0.21568824 0.2937687 -0.16930506
-0.16632754 0.092977546 -0.25556803 -0.24061868 -0.25213292 -0.2276329 0.19968668 -0.17129192
0.06921057 -0.0031056183 -0.29153883 -0.21523124 -0.12278079 -0.05374039 -0.08917813 -0.073254436
0.16801861 0.24146959 -0.19728157 -0.15910344 0.18326586 -0.014407364 -0.29647774 -0.085046954
-0.17627913 -0.36122409 -0.19007358 -0.040795922 0.0021091548 -0.15660723 -0.09175297 -0.27867246
0.03607348 0.13027313 0.010145516 0.23696001 0.0100176 -0.10113473 0.09184389 0.1539009
-0.20864752 0.053855617 -0.10160172 -0.3053547 0.13570516 0.0036516776 0.21298023 0.17638128
-0.027261542 -0.023560552 -0.2050752 -0.23581016 0.23045333 -0.3728844 0.021811906 -0.2979642
0.2569448 -0.1714709 -0.13766107 0.25077343 0.18485683 0.10241345 0.1666042 -0.065496445
-0.22122684 0.04757344 -0.26099938 -0.08529885 -0.27920946 0.06743922 -0.19174941 0.07917251
-0.004094551 -0.09512354 -0.23460996 -0.15154801 0.3312848 0.044751793 -0.18459696 0.25861123
0.26923445 0.0075274403 -0.0844251 -0.23789252 -0.0843127 -0.20304848 0.05398669 -0.08140517
0.1869668 0.04716117 0.21685734 -0.16548327 -0.28370836 -0.14185658 0.21248138 0.40504614
-0.33989802 0.11231072 0.016661212 -0.021351859 -0.16606703 0.3617045 0.31976467 -0.17408487
00000000: 89cd 90bc 1f04 f63d d759 6bbe f2bf 21bd
00000010: e9d6 653e 1642 273e 97fa 16be d765 703e
00000020: a5fb 1abe 910a 3abc e403 e4bd dd14 c0bd
00000030: 5ca2 f3bd e4d2 8f3c 4944 9cbe 3e9d 8fbd
00000040: 506f f63c 4367 0cbd 4092 883e 979c 1cbe
00000050: 50ce 2c3e 33b0 ec3d 6e84 a33d dff2 3c3d
00000060: 91f7 b23e d01c b03d 3602 0a3e 3c91 39be
00000070: 0da3 ab3d c78a 503e 1635 93be 8ea7 a4bd
00000080: ebcc f5bd 72eb 363e 4a02 88be 90a7 393d
00000090: 4dfa 20bc b088 323e fe1a 12be 140a 34be
000000a0: df90 0ebe 2ebd 8bbe 9d6e 8bbe c141 37be
000000b0: f314 a0bc 4a65 3bbe 5f68 57be 20cf 563b
000000c0: 3ec3 48be 53ed 87bd 41e3 24be b2e5 d9bd
000000d0: 96ad 26be acf3 33bc cabc c43d 50f8 7c3e
000000e0: dbdd 603e 41b2 8f3e 87bc dcbd 2fa3 2c3e
000000f0: dd77 443e 98c6 d43d 3cb7 823e 3b67 0bbe
00000100: 114f 9a3e f202 22be fab4 c53d 602c 7dbe
00000110: 4e0d 87bd 7b62 7b3e 3454 35bd e884 4dbe
00000120: fd6d 92be 504d 0ebe 66c7 34be f25c 0d3e
00000130: 0d86 263e a798 87bc eb7a 5dbe 855e 053e
00000140: 2509 633e 660f b63d bad4 243d 4ddb fa3b
00000150: 3eaa 42be 24e0 1bbe 3861 a73e fd74 063e
00000160: 4127 a9be 63f6 b93e 3634 1dbd 5ed0 8e3e
00000170: bcee 92be 0241 4e3c b150 bf3d 7381 49be
00000180: c57f 65be f005 423e b122 8cbe 7a3d ea3d
00000190: 5572 6ebe 084c 85be bf0a 613e 4491 8d3e
000001a0: 51dc f2bd b0e7 6a3e b5d3 51be 716c 4c3d
000001b0: 1e5e afbd 0c8d 62be c9a3 60be 585f 7dbe
000001c0: 6648 84bd e829 cbbe ddc3 a6bc acec 9abe
000001d0: 9898 63be 9fdd fabd 8fc1 9bbe 81e6 8b3e
000001e0: 6b25 bcbd 6665 41be a2d3 793e 8ce3 f0bc
000001f0: 133d 5f3e a8ee 663d b176 22be ca0c c93d
00000200: 1173 4abe 4539 17be aa6b 5ebe 192f 01be
00000210: 193a 473e b344 3a3e 481b 813e 0765 1dbd
00000220: 39ff 8a3e 9f96 7dbd 5c36 5a3c 011d 873e
00000230: a450 46be 37fa 6cbe 833c 9a3e d188 41be
00000240: 904c 803e eadc 8a3d 6324 a33d 0d28 8cbe
00000250: 722d a93d 61dd 5cbe da68 963e 4e5e 2dbe
00000260: c451 2abe 036b be3d d0d9 82be be64 76be
00000270: 9117 81be 9918 69be aa7a 4c3e 2667 2fbe
00000280: 45be 8d3d a187 4bbb 9444 95be 9465 5cbe
00000290: 7f74 fbbd e21e 5cbd 06a3 b6bd 6c06 96bd
000002a0: 120d 2c3e ce43 773e 2e04 4abe 03ec 22be
000002b0: 0caa 3b3e dd0c 6cbc eecb 97be 192d aebd
000002c0: 8482 34be 5df2 b8be a6a2 42be a019 27bd
000002d0: bf39 0a3b a55d 20be fbe8 bbbd 28ae 8ebe
000002e0: c9c1 133d 5266 053e 6139 263c a5a5 723e
000002f0: dc20 243c ba1f cfbd a618 bc3d 3398 1d3e
00000300: b2a7 55be b597 5c3d 9014 d0bd 7457 9cbe
00000310: 4bf6 0a3e fc50 6f3b 7d17 5a3e 4b9d 343e
00000320: 9953 dfbc 0f02 c1bc 3cff 51be 3878 71be
00000330: f5fb 6b3e b4ea bebe e2ae b23c c38e 98be
00000340: 458e 833e 1196 2fbe 06f7 0cbe 6065 803e
00000350: 1c4b 3d3e 25be d13d 4b9a 2a3e 0023 86bd
00000360: 4a89 62be 5edc 423d b6a1 85be 2ab1 aebd
00000370: 8bf4 8ebe 931d 8a3d f559 44be 3225 a23d
00000380: 952b 86bb 21d0 c2bd 983d 70be 672f 1bbe
00000390: 299e a93e a84d 373d fc06 3dbe b168 843e
000003a0: 19d9 893e bfa8 f63b 11e7 acbd 199a 73be
000003b0: 23ac acbd f1eb 4fbe 2621 5d3d c1b7 a6bd
000003c0: 3a74 3f3e 122c 413d da0f 5e3e 7274 29be
000003d0: 3942 91be da42 11be b894 593e 3562 cf3e
000003e0: 1d07 aebe 2a03 e63d 187d 883c 18ea aebc
000003f0: 7a0d 2abe 5531 b93e 32b8 a33e 4e43 32be

backbone.5.depthwise.weight f4 [32, 1, 3, 3]
0.029496426 -0.30243233 0.050078582 -0.20123315 0.08769293 0.32061931 0.15191872 -0.22338983
0.15282682 -0.19065581 0.015497574 0.106108464 -0.21179949 0.348205 0.19396758 0.00037769583
0.011654758 0.09679935 -0.031376984 -0.1487143 -0.016637921 -0.060714595 -0.22652294 0.047457255
0.3407604 -0.06741434 0.19829075 -0.096876636 0.15783256 -0.20295374 0.07494614 0.23031288
0.049641527 0.15974507 -0.0705328 -0.22010386 -0.03351688 -0.34818324 0.23253101 0.007220777
0.068140216 -0.099949405 -0.22027229 -0.19283263 -0.20958522 0.07939452 0.17307049 0.25654626
0.03439707 0.13482022 0.26541337 -0.25891438 -0.07251547 -0.18539236 -0.10931812 -0.10245302
0.23883556 -0.23007244 -0.01391004 -0.13981532 -0.13484219 -0.07042462 -0.3268263 -0.016243046
-0.17192231 -0.14802869 0.0322829 -0.23606278 -0.053882223 0.13350196 0.17578018 -0.31406432
0.3272884 -0.029050598 0.29284272 0.08759313 -0.23816846 0.06706723 0.2137781 -0.2554086
0.2113966 0.08301903 -0.30553073 0.21545407 -0.23950861 0.07775323 -0.12330116 -0.12379386
0.23141356 -0.11032362 0.1389129 0.07670323 0.3160166 0.13977894 0.05397444 -0.020615421
0.12655172 0.18981662 0.32392335 0.25050658 -0.0063765547 -0.00021576336 0.1610958 0.1454021
-0.111588895 -0.041090485 0.15906234 -0.23194396 0.0807304 -0.19508962 -0.048027083 0.07552083
0.105203144 0.09164162 -0.17637703 0.08529825 -0.07206927 0.20861183 0.2825607 0.2292226
0.2035184 -0.18796374 0.31501725 0.06458039 0.39010188 -0.08524507 -0.17159018 0.045801323
-0.22765213 0.24931139 -0.32288083 0.31849954 -0.3012952 -0.2105938 -0.20190327 -0.06988926
-0.21124394 0.07518088 0.13454773 0.3578545 0.21140133 -0.04605612 -0.025423711 0.06911035
-0.11882033 0.22857603 -0.3036213 0.15409344 -0.08793356 -0.3539626 0.2822515 -0.09281919
0.25812665 0.14796881 -0.33535117 -0.170195 -0.19261396 0.19986513 -0.32460397 0.3018472
-0.34532923 0.0102849305 -0.07294462 0.04866249 -0.16020672 -0.21907558 -0.33686528 -0.15932119
-0.22305498 -0.044328623 0.14898098 0.2813072 -0.2869287 0.041486144 -0.07954836 -0.1391348
-0.30821759 0.17213981 0.15327701 -0.2128909 0.1482616 -0.20546627 0.28317463 -0.38152066
0.05707215 -0.121485114 -0.026487827 -0.20085706 -0.19584751 -0.09522302 -0.22910373 0.0116171995
0.2500917 -0.123483 0.33934593 0.20661926 0.051873446 0.08025931 0.2911198 -0.0935369
0.010638581 0.25255486 0.13554981 -0.26018658 0.16525723 0.0960923 -0.032464795 -0.2759243
0.22108842 -0.16998033 -0.23227127 0.22034831 -0.18666665 0.013991892 -0.038266417 0.1294651
-0.21788742 -0.070926204 0.23175468 -0.13276944 -0.12153395 0.13564579 0.3090684 0.040859886
-0.20890014 -0.058224224 0.15156877 0.062342893 0.16376144 -0.11816334 -0.20523255 -0.19971113
-0.03720156 -0.20138785 -0.032209966 -0.0478548 0.11197243 0.028642489 0.20035331 0.22277518
-0.18164022 0.16238196 -0.19649065 0.046157066 -0.06416131 0.26043528 0.33511385 -0.24129601
0.01809245 -0.19323012 0.22561309 -0.1353671 0.01401208 -0.3166344 -0.23936675 0.013525086
00000000: 7da2 f13c 69d8 9abe 331f 4d3d 1010 4ebe
00000010: 5a98 b33d 3728 a43e 9590 1b3e 4ec0 64be
00000020: a27e 1c3e 473b 43be 89e9 7d3c 654f d93d
00000030: f7e1 58be ed47 b23e 709f 463e 7a05 c639
00000040: 99f3 3e3c bd3e c63d 2785 00bd 9048 18be
00000050: 404c 88bc deaf 78bd a1f5 67be 8a62 423d
00000060: 2678 ae3e 8810 8abd bb0c 4b3e 4267 c6bd
00000070: dc9e 213e 1bd3 4fbe 5d7d 993d 24d7 6b3e
00000080: ea54 4b3d 3694 233e 8073 90bd e862 61be
00000090: ff48 09bd 1345 b2be 9c1c 6e3e 459c ec3b
000000a0: 198d 8b3d 46b2 ccbd 0f8f 61be eb75 45be
000000b0: 829d 56be 9899 a23d 6439 313e 085a 833e
000000c0: f1e3 0c3d 500e 0a3e 43e4 873e 6d90 84be
000000d0: fe82 94bd 7fd7 3dbe 2ee2 dfbd e4d2 d1bd
000000e0: 4f91 743e 1c98 6bbe f0e6 63bc bf2b 0fbe
000000f0: 1214 0abe c83a 90bd c755 a7be 2310 85bc
00000100: 670c 30be d594 17be 133b 043d 71ba 71be
00000110: 9bb3 5cbd bdb4 083e b8ff 333e 0acd a0be
00000120: 5892 a73e 85fb edbc 7bef 953e 0764 b33d
00000130: 6fe2 73be 8b5a 893d a5e8 5a3e ebc4 82be
00000140: 5a78 583e e205 aa3d 866e 9cbe fe9f 5c3e
00000150: bf41 75be 163d 9f3d 5285 fcbd a387 fdbd
00000160: adf7 6c3e 5af1 e1bd 2f3f 0e3e 9516 9d3d
00000170: eecc a13e 3622 0f3e 4d14 5d3d ace1 a8bc
00000180: c696 013e 4a5f 423e 48d9 a53e 6642 803e
00000190: 6bf2 d0bb 893e 62b9 4cf6 243e 4ae4 143e
000001a0: b888 e4bd 7f4e 28bd 3de1 223e b882 6dbe
000001b0: fb55 a53d 93c5 47be 0cb8 44bd aaaa 9a3d
000001c0: bf74 d73d 9aae bb3d 2e9c 34be d9b0 ae3d
000001d0: 0e99 93bd 579e 553e ccab 903e 54b9 6a3e
000001e0: 2167 503e 9179 40be f149 a13e b942 843d
000001f0: 6fbb c73e f894 aebd 56b5 2fbe 2b9a 3b3d
00000200: a41d 69be 7c4b 7f3e a350 a5be 5f12 a33e
00000210: 5d43 9abe e7a5 57be bbbf 4ebe 1a22 8fbd
00000220: 5550 58be 6ff8 993d e1c6 093e b438 b73e
00000230: 9779 583e 58a5 3cbd 6345 d0bc ba89 8d3d
00000240: 1358 f3bd d60f 6a3e 4074 9bbe acca 1d3e
00000250: 8316 b4bd 963a b5be 4583 903e fd17 bebd
00000260: 2d29 843e 2385 173e 26b3 abbe 9947 2ebe
00000270: 983c 45be 72a9 4c3e 7e32 a6be b78b 9a3e
00000280: fece b0be 2082 283c fd63 95bd 5252 473d
00000290: 3b0d 24be 5955 60be 9b79 acbe 1825 23be
000002a0: 8668 64be ee91 35bd 788e 183e 7f07 903e
000002b0: 52e8 92be 60ed 293d 40ea a2bd 5a79 0ebe
000002c0: b2ce 9dbe 6b45 303e a6f4 1c3e 1200 5abe
000002d0: e4d1 173e c065 52be 44fc 903e ad56 c3be
000002e0: 7dc4 693d 30cd f8bd 00fd d8bc 79ad 4dbe
000002f0: 408c 48be 4904 c3bd 2b9a 6abe 1156 3e3c
00000300: 050c 803e a8e4 fcbd c0be ad3e 0094 533e
00000310: 4079 543d fe5e a43d a80d 953e 4690 bfbd
00000320: 714d 2e3c df4e 813e 92cd 0a3e 2d37 85be
00000330: 3139 293e 0acc c43d cef9 04bd f345 8dbe
00000340: 0165 623e 530f 2ebe 85d8 6dbe fda2 613e
00000350: 8b25 3fbe 403e 653c 3fbd 1cbd 8092 043e
00000360: e11d 5fbe c241 91bd 1951 6d3e b6f4 07be
00000370: cbe6 f8bd bbe6 0a3e 373e 9e3e b25c 273d
00000380: ebe9 55be 867c 6ebd d834 1b3e 435b 7f3d
00000390: 14b1 273e 9fff f1bd 7b28 52be 1381 4cbe
000003a0: aa60 18bd 9e38 4ebe 99ee 03bd 6503 44bd
000003b0: cd51 e53d a7a3 ea3c 6b29 4d3e 2d1f 643e
000003c0: e5ff 39be 7547 263e d834 49be 310f 3d3d
000003d0: 0167 83bd c657 853e 0b94 ab3e 4d16 77be
000003e0: 9e36 943c 1ede 45be 1e07 673e ac9d 0abe
000003f0: ec92 653c e71d a2be 8f1c 75be 5398 5d3c

backbone.6.depthwise.weight f4 [32, 1, 3, 3]
0.05568194 0.04634201 0.03512873 -0.24820212 0.087391816 0.27104464 -0.21399723 -0.27799246
0.21047212 0.11372359 0.06854641 0.06317026 -0.2762999 -0.20162918 -0.0087303305 0.2691094
-0.2993251 0.27761763 -0.013703482 -0.1827849 0.3119025 0.1843016 -0.0060825204 0.13193634
0.23721397 0.076822504 0.025604453 0.30634093 -0.074524626 -0.14795429 -0.088270515 -0.29759586
-0.30635148 0.031441577 0.28498024 0.10791646 -0.0105067035 0.2709124 -0.20017053 0.02594763
0.33441964 0.26338235 0.20755091 -0.088020004 0.23594816 0.1314025 -0.32807842 0.2343122
0.15024412 -0.044162616 0.10417788 -0.21117966 -0.028639747 0.06998423 -0.113879815 -0.03198796
-0.078250445 -0.1249177 -0.35087192 -0.23598315 0.047145292 -0.029396696 0.07734185 -0.22793303
0.1532488 0.054636948 0.046032324 0.00555933 0.07963413 0.0006139795 -0.0874709 0.019308241
-0.28976932 0.1484459 0.13053893 -0.37696886 -0.23196404 0.15903208 -0.23222932 0.103109844
-0.00079184567 -0.13771267 0.29069054 0.3315225 -0.28597286 0.3820326 0.33326676 -0.2588502
0.3367569 0.08650735 -0.09771004 0.12469102 -0.09723539 0.016669996 -0.3513054 -0.30964443
-0.15744446 0.10629765 -0.1974773 -0.21843171 0.06704676 0.11850797 -0.18655272 -0.13096587
0.14008984 0.014743559 -0.031464532 -0.14352648 -0.24346426 -0.11786238 -0.097317375 -0.16510667
-0.2489432 0.21901663 0.25576133 -0.20822337 0.043125723 -0.08942325 0.15598127 -0.0018931417
-0.095291875 0.040661495 0.12930776 -0.29779232 -0.1906858 -0.2045902 0.21736072 0.2763387
0.19048339 -0.11431424 -0.012778227 0.05293614 -0.0068414905 0.15312228 -0.09510015 -0.09141977
-0.11127785 0.14901643 0.038689118 0.31335244 -0.27081773 -0.16295116 -0.0088727465 0.31237644
0.21022047 -0.2796315 0.13749614 0.12650919 0.03315882 -0.17795035 -0.24742167 -0.30237883
0.17748444 0.27824515 0.16131133 0.26255614 -0.19895805 -0.26595992 0.07123407 0.051112466
-0.18286256 0.32792538 -0.28127888 -0.3241806 0.14935732 0.33331865 -0.079404 -0.23314586
0.32062435 0.33690006 0.022882557 -0.048037786 -0.03488323 -0.0633104 0.09520461 -0.24571231
-0.19611867 -0.2587688 -0.32876188 -0.13462453 0.056978367 -0.24986617 -2.1129952e-06 0.03689788
0.06936111 -0.32183197 -0.127835 -0.15835673 -0.06959012 0.204405 -0.12453076 0.062130317
-0.17661569 0.3441369 -0.30355668 -0.013935952 0.020723103 -0.07302469 0.14756197 0.14607008
0.15323465 0.116532154 0.20670019 0.05540727 0.23333213 0.121263586 0.17778231 -0.19619834
0.14121994 0.22138108 0.07969853 0.00039321405 -0.062474016 -0.03927033 0.33013764 0.021544937
-0.12629825 -0.23304573 -0.15344562 -0.07727907 0.16248241 0.1555868 -0.041393977 -0.21557866
-0.18905672 -0.17018098 0.037337232 0.01631338 -0.04213664 -0.050686564 0.22681174 0.1681783
-0.1606634 -0.21959691 -0.066522084 0.3431882 0.08739215 0.033421986 0.1686963 -0.11472796
0.020024035 0.039501626 0.083145864 0.20786613 -0.24545823 0.041846372 -0.055236887 0.24502912
0.2036371 -0.16314733 0.24579407 -0.21138486 -0.19835685 0.04691412 -0.01427884 -0.40679768
00000000: bf12 643d 1fd1 3d3d 25e3 0f3d b228 7ebe
00000010: 7bfa b23d 5dc6 8a3e 1722 5bbe 0755 8ebe
00000020: 0186 573e eae7 e83d 0f62 8c3d 695f 813d
00000030: 2e77 8dbe e177 4ebe a909 0fbc b5c8 893e
00000040: 2441 99be e623 8e3e 9284 60bc f72b 3bbe
00000050: afb1 9f3e 8fb9 3c3e e14f c7bb 521a 073e
00000060: 38e8 723e 1e55 9d3d 6ec0 d13c b8d8 9c3e
00000070: 5ea0 98bd 5481 17be 2cc7 b4bd 7c5e 98be
00000080: 1ada 9cbe e2c8 003d eee8 913e 4e03 dd3d
00000090: 4f24 2cbc 08b5 8a3e 81f9 4cbe 2090 d43c
000000a0: 0d39 ab3e 0dda 863e 3a88 543e d543 b4bd
000000b0: 659c 713e 618e 063e e5f9 a7be 8aef 6f3e
000000c0: 98d9 193e dce3 34bd 365b d53d 7b3f 58be
000000d0: e79d eabc e453 8f3d d239 e9bd cf05 03bd
000000e0: c541 a0bd dad4 ffbd 7ca5 b3be 91a5 71be
000000f0: 6c1b 413d 57d1 f0bc 6765 9e3d 4767 69be
00000100: 41ed 1c3e feca 5f3d 648c 3c3d 0a2b b63b
00000110: 3817 a33d 77f3 203a f123 b3bd 512c 9e3c
00000120: a55c 94be 3402 183e ffab 053e 1002 c1be
00000130: fb87 6dbe 4ed9 223e 86cd 6dbe 412b d33d
00000140: dd93 4fba 8d04 0dbe 64d5 943e 51bd a93e
00000150: 096b 92be c799 c33e f1a1 aa3e 0388 84be
00000160: 676b ac3e c42a b13d 341c c8bd 015e ff3d
00000170: 5923 c7bd 848f 883c 4dde b3be b789 9ebe
00000180: 1f39 21be 95b2 d93d 7d37 4abe 90ac 5fbe
00000190: d04f 893d 4eb4 f23d ad07 3fbe eb1b 06be
000001a0: b673 0f3e f88e 713c f4e0 00bd 9bf8 12be
000001b0: b24e 79be d561 f1bd 554e c7bd b911 29be
000001c0: f7ea 7ebe e545 603e 26f3 823e 8238 55be
000001d0: 99a4 303d 8923 b7bd 8eb9 1f3e 4b23 f8ba
000001e0: 6328 c3bd ab8c 263d 4169 043e 3c78 98be
000001f0: 2343 43be 1880 51be cf93 5e3e 447c 8d3e
00000200: 140e 433e 961d eabd c55b 51bc 91d3 583d
00000210: 952e e0bb 16cc 1c3e dec3 c2bd 4a3a bbbd
00000220: a4e5 e3bd c397 183e 7b78 1e3d bb6f a03e
00000230: 9fa8 8abe abdc 26be ff5e 11bc ceef 9f3e
00000240: 0944 573e dc2b 8fbe cacb 0c3e a08b 013e
00000250: 8bd1 073d 9e38 36be 1b5c 7dbe 66d1 9abe
00000260: 7bbe 353e 2676 8e3e cc2e 253e c26d 863e
00000270: a9bb 4bbe e62b 88be 2be3 913d 4e5b 513d
00000280: 5340 3bbe d6e5 a73e c903 90be 00fb a5be
00000290: 20f1 183e bea8 aa3e 909e a2bd cabd 6ebe
000002a0: e028 a43e 2a7e ac3e 3374 bb3c 45c3 44bd
000002b0: b8e1 0ebd e2a8 81bd a2fa c23d 029c 7bbe
000002c0: 55d3 48be 587d 84be 7a53 a8be 03db 09be
000002d0: 2662 693d ebdc 7fbe fbcc 0db6 3b22 173d
000002e0: 330d 8e3d 29c7 a4be 2ee7 02be 4428 22be
000002f0: 4485 8ebd 8b4f 513e fc09 ffbd 5c7c 7e3d
00000300: beda 34be b632 b03e c86b 9bbe 9f53 64bc
00000310: 7fc3 a93c f88d 95bd 7c1a 173e 6593 153e
00000320: 8be9 1c3e 69a8 ee3d 37a9 533e bcf2 623d
00000330: 9eee 6e3e 0b59 f83d 910c 363e 38e8 48be
00000340: f69b 103e b9b1 623e fc38 a33d 4c28 ce39
00000350: c1e4 7fbd edd9 20bd cd07 a93e 027f b03c
00000360: 5454 01be 8aa3 6ebe d920 1dbe 7d44 9ebd
00000370: ca61 263e 2552 1f3e bb8c 29bd a7c0 5cbe
00000380: 1698 41be ec43 2ebe edee 183d a3a3 853c
00000390: 7897 2cbd b79c 4fbd 5641 683e ef36 2c3e
000003a0: f284 24be 03de 60be bb3c 88bd 5db6 af3e
000003b0: a8fa b23d 7ee5 083d b9be 2c3e 7ef6 eabd
000003c0: 7209 a43c 75cc 213d 6148 aa3d dcda 543e
000003d0: 6759 7bbe 1a67 2b3d 1340 62bd eae8 7a3e
000003e0: 3e86 503e 1810 27be 71b1 7b3e 4675 58be
000003f0: 0f1e 4bbe 0529 403d ccf1 69bc c947 d0be
