Config/NeuralNets/RefereeEstimator/classifier.onnx (onnx, 69907 bytes, 5 tensors)

embedding.weight f4 [128, 4]
0	0xbe123077	-0.142763
1	0x3e567d68	0.20946276
2	0x3dfda685	0.12385277
3	0x3de17dd5	0.11010329
4	0x3e896493	0.26834545
5	0xbe52a0db	-0.20569174
6	0xbd2ad292	-0.04170472
7	0xbe903df4	-0.28172266
8	0x3e34a76f	0.17641996
9	0xbe4ceaa8	-0.2001139
10	0x3ca86953	0.020558035
11	0x3b224488	0.0024760086
12	0x3e0097ab	0.12557857
13	0x3e7c19e7	0.24619256
14	0xbd223453	-0.03960068
15	0xbc08daa1	-0.008352906
16	0x3e804456	0.25052136
17	0xbc80be41	-0.01571572
18	0xbe1b2bd7	-0.15153442
19	0x3e58637a	0.21131697
20	0xbb42055f	-0.0029605252
21	0xbb054812	-0.0020337147
22	0xbb44ccc7	-0.0030029283
23	0xbb13fbf1	-0.0022580589
24	0xbeba6f51	-0.36413053
25	0x3da820bd	0.08209369
26	0x3e1656a1	0.14681484
27	0x3e17a429	0.14808716
28	0xbd6ed750	-0.058310807
29	0xbe4226b4	-0.18960077
30	0x3e79d690	0.24398255
31	0xbe2f5bee	-0.17124912
32	0xbd017140	-0.031602144
33	0x3c51961d	0.012792137
34	0xbd3e4154	-0.04644902
35	0x3c20d72a	0.009816924
36	0xbea64a57	-0.32478592
37	0x3e183ccb	0.1486694
38	0x3dda1149	0.10647828
39	0x3e9f68be	0.311346
40	0xbeec1ed3	-0.46117267
41	0xbda8ef05	-0.08248714
42	0x3ea4a1f6	0.32154816
43	0x3d90693c	0.07051322
44	0x3eecf180	0.46278
45	0xbeeb32ef	-0.45937297
46	0xbdc8802d	-0.097900726
47	0x3d0c28d9	0.034218643
48	0xbde869e4	-0.11348322
49	0xbe00ed13	-0.12590437
50	0x3ee5c0d0	0.44873667
51	0xbe1c4443	-0.15260415
52	0x3d341216	0.04396256
53	0xbeeae03f	-0.4587421
54	0xbe8ad521	-0.2711573
55	0x3e2fd098	0.17169416
56	0x3d8d51cd	0.06900368
57	0xbe6c86b4	-0.2309826
58	0x3e7dd214	0.2478717
59	0x3d6966ad	0.056982685
60	0xbc32a941	-0.010904611
61	0xbb3b592b	-0.0028587084
62	0xbb87b991	-0.0041419943
63	0xbba4bcf6	-0.0050274087
64	0xbe27059d	-0.16310735
65	0x3e09969b	0.13436358
66	0x3eac46a3	0.33647642
67	0xbe980c19	-0.2969673
68	0xbdd07db2	-0.101802245
69	0x3e0dffbd	0.13867088
70	0x3eabf84e	0.3358788
71	0xbeedaba1	-0.46420005
72	0xba3c293f	-0.0007177777
73	0xbb581f89	-0.003297778
74	0xbbfb5206	-0.00766969
75	0xbc0dc415	-0.008652707
76	0x3eba088b	0.36334643
77	0x3b6d3ea9	0.0036200678
78	0x3d9e24e0	0.07721877
79	0xbe514e67	-0.20440064
80	0xbc8878da	-0.016659189
81	0x3d67d965	0.056603808
82	0x3e0ad3ab	0.13557307
83	0xbeb87edd	-0.3603429
84	0x3d7f81fc	0.062379822
85	0x3d9289e7	0.07155209
86	0x3d1dbc99	0.03850994
87	0xbf1a1e56	-0.6020254
88	0x3ea5bc84	0.32370389
89	0x3e4b01b7	0.19824873
90	0xbd8f65f9	-0.070018716
91	0xbd814859	-0.06312627
92	0x3e3435c8	0.17598641
93	0xbcdfb226	-0.027306627
94	0xbe5797ca	-0.21053997
95	0xbdaa4461	-0.083138235
96	0x3ea5463d	0.3228015
97	0x3db3c2b9	0.08777375
98	0x3ddd8469	0.10816271
99	0xbeb09c4e	-0.3449425
100	0xbd191979	-0.03737781
101	0x3c350d3c	0.011050519
102	0xbd0a9847	-0.03383663
103	0x3d75a639	0.059972975
104	0x3da06596	0.07831876
105	0xbea7affb	-0.3275145
106	0x3e5e721e	0.2172322
107	0xbe15bf51	-0.14623763
108	0xb2d736d4	-2.5054227e-08
109	0xb4058c7a	-1.2437695e-07
110	0xb3d86d0d	-1.007812e-07
111	0xb471e0f0	-2.2526706e-07
112	0x3dbf9c8d	0.093560316
113	0x3daf3014	0.08554092
114	0x3c4a6656	0.0123535
115	0x3e1c3833	0.15255813
116	0x3d84eeb4	0.064908415
117	0x3e560ca9	0.20903267
118	0xbc8765bf	-0.016528009
119	0xbcb6904f	-0.022285609
120	0xbe9b56ab	-0.3033956
121	0x3ec525fc	0.38505542
122	0x3ddd43c9	0.108039446
123	0xbf06d77a	-0.5267254
124	0xbe24d6af	-0.1609752
125	0xbc6dbcb6	-0.014510324
126	0xbe850b7d	-0.25985327
127	0x3e56709c	0.20941395
128	0xbe68ac89	-0.22722067
129	0x3ce0ad8f	0.02742651
130	0x3ece6e3e	0.40318483
131	0xbe7644a9	-0.2404963
132	0xbedc37f5	-0.43011442
133	0xbea14c39	-0.31503466
134	0x3f01b66f	0.50668997
135	0xbe8f30e9	-0.27967003
136	0xbeb65413	-0.3561102
137	0xbe5beced	-0.21477099
138	0xbcbba2eb	-0.022904834
139	0x3e0fd5a7	0.14046346
140	0xbe81223f	-0.2522144
141	0xbeb051ed	-0.34437504
142	0x3ea48349	0.32131413
143	0x3e46999f	0.1939454
144	0x3edea10c	0.43482244
145	0x3ec9a8aa	0.39386493
146	0xbec31125	-0.38099018
147	0x3b4aa474	0.0030920776
148	0xbec2ad16	-0.3802268
149	0xbea342ca	-0.31886894
150	0xbde990bb	-0.11404558
151	0x3ebb2bd2	0.3655687
152	0x3e3a3fba	0.18188372
153	0x3e85627b	0.26051697
154	0x3e8e1216	0.27748173
155	0xbe75f51c	-0.24019283
156	0xbed89822	-0.42303568
157	0x3d20688c	0.039162204
158	0x3df7f208	0.12106711
159	0x3ebc05b3	0.36723098
160	0x3e29d646	0.16585645
161	0x3c838f5d	0.016059572
162	0x3dab775d	0.08372376
163	0xbe000bad	-0.12504454
164	0xbcc41418	-0.023935363
165	0xbda232f4	-0.07919875
166	0xbf0e55e3	-0.555998
167	0x3ebc3920	0.36762333
168	0xbc58b3e4	-0.013226483
169	0x3c9b7a05	0.018979082
170	0xbcd43d97	-0.025908275
171	0xbdfa3c27	-0.122185044
172	0xbc57658b	-0.013146768
173	0x3cdac152	0.02670351
174	0xbc663480	-0.014050603
175	0xbc7cfcc9	-0.015441128
176	0xbe5d2d36	-0.21599278
177	0xbe19423b	-0.14966671
178	0x3e9b78b9	0.30365542
179	0x3e0004ee	0.1250188
180	0x3b0038af	0.0019565036
181	0xbe77987d	-0.24179263
182	0x3ecaadda	0.39585763
183	0xbcb4d4fc	-0.022074215
184	0xbe6fe23b	-0.23426144
185	0xbe488b9e	-0.1958451
186	0x3eae9fd3	0.3410631
187	0xbdba364f	-0.0909239
188	0xbe721b89	-0.23643316
189	0x3e93c7a5	0.28863254
190	0x3ea33911	0.31879476
191	0xbe295df5	-0.16539748
192	0xbe89db71	-0.26925233
193	0x3f03be9c	0.5146272
194	0xbeb7733a	-0.35830098
195	0x3ec5a218	0.3860023
196	0xbeb91ac0	-0.3615322
197	0xbd7b7890	-0.061394274
198	0x3d246744	0.040137544
199	0x3eeca7f4	0.46221888
200	0xbe49e3cf	-0.19715808
201	0xbea2496f	-0.3169665
202	0x3e3a5233	0.18195419
203	0x3e343158	0.17596948
204	0x3c24d546	0.010060614
205	0x3de113cd	0.10990105
206	0xbeb05427	-0.34439203
207	0x3e70e47e	0.23524663
208	0x3dae81b5	0.085208334
209	0xbd86a9a2	-0.06575324
210	0xbaa7bc9b	-0.0012797298
211	0xbccc39c0	-0.024929881
212	0x3e9c7512	0.30558068
213	0xbdd53194	-0.10409847
214	0xbde5f212	-0.11227812
215	0x3e55bee1	0.20873596
216	0x3e78d280	0.2429905
217	0x3e95b02a	0.29235965
218	0x3d8c003e	0.06835984
219	0xbe5dde01	-0.21666719
220	0x3e37e631	0.17958905
221	0xbe5f86e0	-0.21828794
222	0xbe6d75ab	-0.23189418
223	0xbdea2835	-0.1143345
224	0xbd5a3631	-0.053274337
225	0xbd7ae1df	-0.061250564
226	0x3e5cbcb4	0.2155636
227	0xbd94b3cf	-0.07260858
228	0xbe44a866	-0.19204864
229	0x3e764aac	0.24051923
230	0x3e72bb86	0.23704347
231	0xbee79b51	-0.45235685
232	0x3c61ea72	0.013788806
233	0xbca3ddd6	-0.02000324
234	0xbcd59438	-0.026071653
235	0xbc957ec0	-0.018248916
236	0xbddbce92	-0.107327595
237	0xbd016d99	-0.03159866
238	0xbda78c5e	-0.0818107
239	0x3d2abf23	0.04168619
240	0xbdfd8782	-0.12379362
241	0x3ea0f05e	0.31433386
242	0x3e59961b	0.21248667
243	0xbeabe6cf	-0.3357453
244	0xbbda3ac9	-0.00665984
245	0xbb932607	-0.004490617
246	0xbb46940b	-0.0030300643
247	0x3ae79348	0.0017667795
248	0x3e46790e	0.19382116
249	0x3e688c7b	0.22709839
250	0x3e70839a	0.23487702
251	0xbe336935	-0.17520602
252	0x3ed64b33	0.41854247
253	0x3d86c1d9	0.06579942
254	0xbe67438f	-0.22584365
255	0xbd4d4c6e	-0.050121717

embedding.bias f4 [128]
0	0x3d86a729	0.06574852
1	0xbdab059d	-0.0835068
2	0xbe58158d	-0.21101971
3	0xbdf636bf	-0.12022161
4	0xbca931d1	-0.020653637
5	0xb8fb852d	-0.000119934186
6	0x3e05d8aa	0.13070932
7	0x3ce06c41	0.02739537
8	0xbb3d133f	-0.0028850583
9	0x3e841bdb	0.25802502
10	0x3e1a95ba	0.15096179
11	0xbeb5cee6	-0.35509413
12	0xbe65916c	-0.22418755
13	0x3df93cf1	0.12169827
14	0xbe0ca336	-0.13734135
15	0xb9b18021	-0.00033855534
16	0x3cfd5d54	0.030928291
17	0xbcaf3ee5	-0.021392295
18	0xbb06ade9	-0.0020550436
19	0x3cdf5a02	0.027264599
20	0x3d4e0a4a	0.05030278
21	0x3e909c38	0.28244185
22	0xbed3ba9f	-0.41353318
23	0x3dadfcd0	0.08495486
24	0xbd605970	-0.054772794
25	0xbc830dd3	-0.015997803
26	0x3c67898b	0.014131914
27	0xb36d1167	-5.519669e-08
28	0xbdfb4c46	-0.122704074
29	0x3daf25ea	0.085521534
30	0x3ecc5ba5	0.3991367
31	0xbe04ed89	-0.12981237
32	0xbe37bc2f	-0.1794288
33	0x3eb017fb	0.34393296
34	0x3de36ee9	0.11105139
35	0x3e64ef37	0.22356878
36	0xbe027ffa	-0.12744132
37	0xbdafa1c4	-0.08575776
38	0xbdd3a4f3	-0.10334196
39	0xbe0cfa8a	-0.13767448
40	0xbe16ac55	-0.14714177
41	0xbe09ed27	-0.13469373
42	0x3d9233d5	0.071387924
43	0xbb2a0ae8	-0.0025946442
44	0x3e90b3eb	0.28262267
45	0xbe623604	-0.22090918
46	0xbe144374	-0.14478856
47	0x3eb0bc16	0.34518498
48	0xbe75e4c9	-0.24013056
49	0x3ea89be3	0.32931432
50	0xbe5c4680	-0.21511269
51	0xbde53d56	-0.111933395
52	0xbd59d897	-0.05318507
53	0xbeaa7c26	-0.33297843
54	0x3d71fe3a	0.05908034
55	0x3d077e27	0.033079293
56	0xbdccfe1c	-0.10009405
57	0x3dc17160	0.09445453
58	0xbc0c7c18	-0.008574508
59	0x3d1c2c71	0.03812832
60	0x3e6482d9	0.2231554
61	0xba81c8bb	-0.0009901741
62	0xbb7d8b94	-0.0038687931
63	0xbedb7fe8	-0.42871022
64	0xbc32025b	-0.010864819
65	0xbe51fe2c	-0.20507115
66	0xbdb33725	-0.08750752
67	0x3a107ef5	0.0005512082
68	0xbd2d9e8f	-0.04238754
69	0x397f7787	0.00024363222
70	0x3dd2af95	0.10287396
71	0xbb36abcf	-0.0027873402
72	0x3edf0031	0.43554834
73	0x3e1e44a2	0.15455869
74	0xbd0d1ab0	-0.03444928
75	0x3ee483bc	0.44631755
76	0xbb76cb40	-0.0037657768
77	0x3e26a31e	0.16273162
78	0x3e5b5260	0.21418142
79	0xbc21e25a	-0.009880627
80	0xbd07f206	-0.033189796
81	0xbc88cb19	-0.016698407
82	0xba0092e1	-0.0004904699
83	0x3d69f6e0	0.057120204
84	0xbe15bf13	-0.1462367
85	0xbeaf32d6	-0.34218472
86	0xbd53267b	-0.05155037
87	0xbd1583fb	-0.03650282
88	0x3ebbe180	0.3669548
89	0xbce67a60	-0.028134525
90	0xbd9b19e3	-0.07573297
91	0x3cd4bec9	0.02596988
92	0xbd73845f	-0.05945241
93	0xabf07107	-1.7084397e-12
94	0x3ecc91ca	0.39954978
95	0xbe228df8	-0.1587447
96	0xbe192b91	-0.14958026
97	0xbcc3bd60	-0.023894012
98	0x3d09a644	0.03360583
99	0x3e1b8cd0	0.15190434
100	0x3cc4d29a	0.024026204
101	0xbc870c75	-0.016485432
102	0xbe0338dc	-0.12814659
103	0xbe0520ea	-0.13000837
104	0x3d3022d7	0.043001976
105	0xbd23c69b	-0.039984327
106	0xbd091b06	-0.033473037
107	0xbcc8cd45	-0.024511943
108	0xbe237e56	-0.15966162
109	0x3cc667e0	0.024219453
110	0xbe5d0856	-0.21585211
111	0xbe6d26ca	-0.23159328
112	0x3ec6393b	0.38715538
113	0xbb90c81c	-0.004418386
114	0x3e444e12	0.19170406
115	0xbc1a84cf	-0.009431078
116	0x3dcd0f41	0.10012675
117	0xbe981e7a	-0.29710752
118	0x3e8abdeb	0.2709802
119	0xbd4edfd9	-0.050506447
120	0xbdc966fd	-0.098340966
121	0xbeaabe2e	-0.3334822
122	0xbd91a9e7	-0.071124844
123	0xbd8cdf27	-0.068785004
124	0xbdeee4d5	-0.1166474
125	0xbdfbb71e	-0.12290786
126	0xbd477338	-0.048693866
127	0x3e42900a	0.19000259

fc1.weight f4 [128, 128]
0	0xba00b85e	-0.00049102854
1	0x3c0d8e5c	0.008639898
2	0x3d6ea735	0.05826493
3	0x3d0a5944	0.033776537
4	0x3d9367c9	0.0719753
5	0x1cf81777	1.6417329e-21
6	0xb8309831	-4.210341e-05
7	0x3d0ddc7c	0.0346341
8	0xb57e8967	-9.482232e-07
9	0xbdafc274	-0.08582011
10	0xaec161b4	-8.7939794e-11
11	0x3de1fdd2	0.110347405
12	0x3d97de8a	0.07415493
13	0xbd9df723	-0.07713153
14	0x3d91cfb5	0.07119695
15	0x31255133	2.4056817e-09
16	0xbd7c4906	-0.061593078
17	0xbd9b568b	-0.07584866
18	0x35e475ce	1.702161e-06
19	0x3d5ed513	0.054402422
20	0xbd8cff62	-0.06884648
21	0xbdde3f20	-0.10851884
22	0x3dd6f46b	0.10495838
23	0x3cd07460	0.025446117
24	0x3daa177b	0.0830526
25	0xb8357938	-4.3266657e-05
26	0x3c2973ee	0.010342581
27	0x2f8d39ea	2.56889e-10
28	0x3c6db50a	0.014508495
29	0x3d402957	0.046914425
30	0xbe103ce3	-0.14085726
31	0xbc7aaae5	-0.0152995335
32	0x3c92f149	0.01793732
33	0x3ac4f9e0	0.0015028082
34	0x000324b5	2.88674e-40
35	0xbd964b91	-0.07338632
36	0x3dea4788	0.11439425
37	0xbaa91040	-0.001289852
38	0x3d89b07a	0.06723113
39	0x3ccf9dd8	0.02534382
40	0x3d638c9f	0.05555403
41	0x3d1ff1ae	0.039048843
42	0xbcc55f5c	-0.024093322
43	0x3ba56fd0	0.0050487295
44	0xbd2f840f	-0.04285055
45	0x3d5d7228	0.054063946
46	0x350966ff	5.1186356e-07
47	0xbdabb798	-0.08384627
48	0xbdfb8b1f	-0.122823946
49	0xbdf6b5ff	-0.12046432
50	0xbd601ebc	-0.05471681
51	0x3d073e1e	0.033018224
52	0xbcc9b990	-0.024624616
53	0x3d659773	0.056052636
54	0x3d526019	0.051361177
55	0x3d1706ae	0.036871605
56	0x3cf0394d	0.029324198
57	0xbdb337dd	-0.087508895
58	0xb71bf53a	-9.295816e-06
59	0x8000247f	-1.3092e-41
60	0xbdc3f5da	-0.09568377
61	0x35e2a487	1.6886196e-06
62	0xbcc9ef16	-0.024650138
63	0x3dd8ff8c	0.10595617
64	0x3c024a60	0.007952303
65	0x3d63a2f3	0.055575322
66	0x3d03c4dd	0.032170165
67	0x3dadda4a	0.08488901
68	0x3d1a4ce9	0.037671003
69	0x3dc2dd93	0.09514918
70	0x3d430211	0.047609393
71	0x3a51fcce	0.0008010388
72	0xbe0c3f6d	-0.1369607
73	0x3d8ce693	0.06879916
74	0xbddc2aad	-0.10750327
75	0xbe1e31cd	-0.15448685
76	0x3add35ac	0.0016876957
77	0xbe33e040	-0.17566013
78	0x3cfc554c	0.030802391
79	0xbd67a41c	-0.05655299
80	0x3cf0f58b	0.029413959
81	0xbd784800	-0.06061554
82	0x362b343b	2.5511388e-06
83	0xbd48adfb	-0.048994046
84	0xb956aa90	-0.0002047217
85	0x3e00e0b1	0.12585713
86	0x3d4a23d3	0.04935057
87	0x3d2785c4	0.040899053
88	0xbe33068c	-0.17482966
89	0x3bc21ae0	0.005923614
90	0xbd27f099	-0.041000936
91	0x3d0ed257	0.034868564
92	0xbcd11f00	-0.025527477
93	0x1a8f6ade	5.931607e-23
94	0xbe4e819f	-0.20166634
95	0x3d01dc70	0.031704366
96	0xbd0302d1	-0.031985108
97	0xbcca7817	-0.024715466
98	0x3c29a927	0.0103552705
99	0x80062171	-5.6301e-40
100	0x3d5cdc7a	0.0539212
101	0x3ce84b7f	0.028356312
102	0x3d53a8fd	0.05167483
103	0x3d4e5b41	0.050379995
104	0x3be40260	0.006958291
105	0x3b5ee966	0.0034013628
106	0x3b977c8a	0.0046230005
107	0x3bf72f99	0.007543516
108	0x3dba207a	0.09088226
109	0x39575676	0.00020536207
110	0xbd87377d	-0.066023804
111	0x3de494ae	0.11161171
112	0xbe25c4ab	-0.16188304
113	0xbdb8f79e	-0.09031604
114	0x3a3ed3b4	0.0007279471
115	0x37c20d73	2.3132865e-05
116	0xbd213922	-0.039361127
117	0xbd718daf	-0.05897301
118	0xbe0196d4	-0.12655193
119	0xbcb897cd	-0.022533322
120	0x3d370a7b	0.04468773
121	0x3de531a6	0.1119111
122	0x3a2d59ae	0.00066127896
123	0x3c1e4081	0.009658934
124	0x3c9f7670	0.019465655
125	0xbcadad82	-0.021200899
126	0x3d1ce1c2	0.038301237
127	0x27e296e8	6.2891214e-15
128	0xbdbba21b	-0.091617785
129	0xbb26d95a	-0.0025459141
130	0x3d156eeb	0.036482733
131	0xbd736f02	-0.059432037
132	0x3c495d9e	0.0122903865
133	0xb87d58dc	-6.0402657e-05
134	0xbcf4cfb1	-0.029884191
135	0xbcaaad18	-0.02083449
136	0xbaa6fd35	-0.0012740256
137	0xbd6e8f59	-0.058242176
138	0xbcc2a250	-0.023759037
139	0x3da9711a	0.082735255
140	0xbd18f593	-0.037343573
141	0x3dd0ae11	0.101894505
142	0x3ccb0f3c	0.024787538
143	0xba1bcc5d	-0.0005943233
144	0x3cacbceb	0.021086177
145	0x3d4ffbb5	0.050777156
146	0xae8c1eb9	-6.3719204e-11
147	0x3cc61f76	0.024184924
148	0x3d4cc579	0.049993012
149	0x3dcb6a2e	0.099323615
150	0xbd5adfc9	-0.053436074
151	0x3d171b53	0.036891293
152	0x3bfcdede	0.0077169975
153	0xbc5e879f	-0.013582139
154	0x3dc1694b	0.09443911
155	0xb1dc365c	-6.4090226e-09
156	0xbd83eed6	-0.06442039
157	0xbd1bba98	-0.038019747
158	0x3daeace4	0.0852907
159	0xb94405e6	-0.00018694214
160	0xbca7a1fd	-0.020462984
161	0xbcd1b628	-0.025599554
162	0xbcaac632	-0.02084646
163	0x3d9b72eb	0.07590278
164	0xbd4c6aae	-0.049906425
165	0xbcc85536	-0.024454694
166	0x3c268a62	0.010164829
167	0xbd546f95	-0.051864225
168	0x3d0cfdba	0.03442166
169	0xbd5ed84f	-0.054405507
170	0x3c5cca18	0.013475917
171	0xbb939747	-0.0045041176
172	0x3d2992a0	0.041399598
173	0x3d67bde9	0.056577597
174	0xbc340e63	-0.010989758
175	0x3cedb36b	0.029016217
176	0xbd41651f	-0.047215577
177	0x3d1c7578	0.038197964
178	0x3dcc68bf	0.09980916
179	0xbd8c5e79	-0.06853957
180	0x3d3a0472	0.045414396
181	0xbd0aafbd	-0.033859003
182	0xbd3bb14f	-0.04582339
183	0xbbfa2dd7	-0.007634859
184	0xbc4a91d2	-0.012363868
185	0x3d3cd646	0.046102785
186	0xb586109d	-9.988613e-07
187	0xbc124ca6	-0.008929407
188	0x3d9f64da	0.07782908
189	0xb8c25d8a	-9.268064e-05
190	0x3c202ab8	0.00977581
191	0xba89df53	-0.0010518826
192	0x3bb2c1c6	0.0054552285
193	0xbda870a1	-0.08224607
194	0xbcb1ee14	-0.02171997
195	0x3d546764	0.051856413
196	0x3c7fecd7	0.015620432
197	0x3d17a7ec	0.037025377
198	0xbc0bb5d8	-0.008527242
199	0x3a84e946	0.0010140322
200	0x3dc2cb94	0.09511486
201	0xbd14fe80	-0.036375523
202	0x3c3a3f10	0.011367574
203	0x3d039d4b	0.03213243
204	0xbc155dc4	-0.009116594
205	0x3d98bd2a	0.07457955
206	0xbd95f47c	-0.07322022
207	0x3dc05027	0.09390288
208	0x3dac1a3c	0.08403441
209	0xbd3b7bd1	-0.045772377
210	0xb5e3a02f	-1.6959438e-06
211	0x3d4ee1e7	0.050508406
212	0x3d0c1898	0.034203142
213	0x3d0d5fc8	0.034515172
214	0xbdc79d41	-0.09746791
215	0xbc6d2ae8	-0.014475562
216	0x3d415744	0.047202364
217	0xbbfddffe	-0.007747649
218	0x3c7b27f0	0.015329346
219	0x3d6b6c01	0.057476047
220	0x3bf0163e	0.00732687
221	0x325e705c	1.2947648e-08
222	0x3e7ee767	0.2489296
223	0x3d0cce19	0.034376238
224	0x3d7b7635	0.061392028
225	0xbd7296c9	-0.05922583
226	0xbcb84ac6	-0.022496592
227	0xbc619ef6	-0.013770809
228	0xbcdb38d7	-0.026760502
229	0xbdd0be62	-0.10192563
230	0x3c900703	0.017581468
231	0x3d8d2809	0.06892402
232	0xbd5b2c66	-0.05350914
233	0xbaec4170	-0.0018024873
234	0xb93a8ca8	-0.00017790741
235	0xbc6d6c2d	-0.014491123
236	0x3ce7fa34	0.028317548
237	0xbc3071db	-0.010769333
238	0xbcb12ff8	-0.021629319
239	0x3cefcc5b	0.029272249
240	0x3da58352	0.08081688
241	0x3b942547	0.0045210454
242	0xbd8488dc	-0.06471416
243	0xb67c8062	-3.7625655e-06
244	0x3d82419d	0.06360171
245	0xbce4eb50	-0.027944237
246	0x3dc97c50	0.09838164
247	0x3d58f4f2	0.052967973
248	0x3dc3d490	0.095620275
249	0xbda67699	-0.081280895
250	0xbc0fcd3f	-0.008776962
251	0xbca7599f	-0.020428477
252	0x3b851475	0.0040612766
253	0x3c54d5ba	0.0129904095
254	0x3d5058c0	0.05086589
255	0xbcc04af7	-0.023473246

fc1.bias f4 [128]
0	0xbde64c94	-0.11245075
1	0x3d9c7f48	0.076414645
2	0xbdda002f	-0.10644566
3	0xa8194717	-8.508621e-15
4	0xbd9e8f1f	-0.07742142
5	0x3d882ee3	0.06649568
6	0xbdfee164	-0.124453336
7	0x3bdc7b53	0.0067285686
8	0xbd523933	-0.05132408
9	0xbd8cfbec	-0.06883988
10	0xbdca0558	-0.098643005
11	0x3ddd461c	0.10804388
12	0x3cb409ab	0.021977266
13	0xba2ed0f0	-0.00066687074
14	0x3c990614	0.018679656
15	0xb254d20e	-1.2387785e-08
16	0xbdd6de66	-0.10491638
17	0xb3619adb	-5.2527735e-08
18	0x3ced3f14	0.028960742
19	0x39f910a8	0.0004750539
20	0xa8b18041	-1.9706569e-14
21	0xbd81c84e	-0.06337033
22	0x3d2bf265	0.041979212
23	0xbc820d7d	-0.015875572
24	0xbc6724f0	-0.014107928
25	0xbdd809df	-0.10548758
26	0x3ad9902e	0.0016598755
27	0xbd1213bf	-0.035663363
28	0x3caf3604	0.021388061
29	0xb08db987	-1.031183e-09
30	0xbca8e4e0	-0.020616949
31	0xbdd046f8	-0.10169786
32	0x225a6650	2.9598673e-18
33	0x3c09f3c4	0.008419935
34	0x3d1abc0d	0.037776995
35	0x3cc7f2ee	0.02440783
36	0x3d11da01	0.035608295
37	0xb6649f82	-3.4067493e-06
38	0x3d2c3835	0.04204579
39	0x3d93dbad	0.07219634
40	0xb80e283c	-3.389291e-05
41	0x3d710878	0.058845967
42	0xbdc2f5bb	-0.095195256
43	0x393adbab	0.00017820175
44	0x1888a2d5	3.5319594e-24
45	0x3d333f2d	0.04376142
46	0x3d7819af	0.06057137
47	0x3d3c398c	0.04595332
48	0xbd4d140f	-0.050067957
49	0xb6f82918	-7.39576e-06
50	0x3d8e7fa5	0.0695794
51	0x3cb51620	0.022105277
52	0xbbdf3951	-0.0068122526
53	0x3d388d22	0.04505647
54	0x3dbc702a	0.09201081
55	0x3ca4a1bb	0.02009665
56	0xad8da8f9	-1.6104883e-11
57	0xbde1102e	-0.10989414
58	0xbd03292c	-0.032021686
59	0x3cc177e1	0.023616733
60	0xb8236cc0	-3.896351e-05
61	0x3c2bd03f	0.010486661
62	0xbca6ebde	-0.020376142
63	0xbd9967fe	-0.07490538
64	0x000673e6	5.9259e-40
65	0xbb05e609	-0.00204313
66	0xbcaac028	-0.02084358
67	0xbc5b27d9	-0.0133762
68	0xbdc26bb4	-0.09493199
69	0x3c452d98	0.012034796
70	0xbd0330e3	-0.032029044
71	0x3d6d3329	0.05791012
72	0x3c4f8f41	0.012668432
73	0xbd2f56fb	-0.04280756
74	0x3d94d39c	0.07266924
75	0xbd8dad8d	-0.06917868
76	0x3cdcc0c9	0.026947396
77	0xbd20a782	-0.039222248
78	0x3daa2d6e	0.08309446
79	0xbd365139	-0.044511054
80	0xbdebbc1c	-0.115104884
81	0x3d2fc6a4	0.042914048
82	0x3d835f51	0.064146645
83	0x3c7bc9ed	0.015367967
84	0xbd765195	-0.060136396
85	0x9f0f3872	-3.0328118e-20
86	0xb2977153	-1.7630247e-08
87	0xbdb6352e	-0.08896862
88	0x3d3752a3	0.044756543
89	0xb837671a	-4.372662e-05
90	0xbd2d7366	-0.04234638
91	0xbd55b700	-0.052176476
92	0xbc452965	-0.012033795
93	0xb114b896	-2.164176e-09
94	0xb59e81fb	-1.1809747e-06
95	0x3b268475	0.002540854
96	0xbda475eb	-0.080303036
97	0x3d5c3011	0.053756777
98	0xbb8dd2ad	-0.004328093
99	0x3d476327	0.048678543
100	0xbd809ecf	-0.0628029
101	0xb9713a71	-0.00023005322
102	0x3d826596	0.06367032
103	0x3da44f0a	0.08022888
104	0x3c236e18	0.009974979
105	0x80011642	-9.982e-41
106	0x3d139cd5	0.03603824
107	0xbd952a9c	-0.07283518
108	0x86c8df2e	-7.555957e-35
109	0xab91e72e	-1.0367035e-12
110	0xbc6d3734	-0.0144784935
111	0x3dcdd2f0	0.10049999
112	0xbdbd6938	-0.092485845
113	0xbc8282e5	-0.015931556
114	0x8801b387	-3.903056e-34
115	0xb1cf6827	-6.0363337e-09
116	0x3c9d0042	0.019165162
117	0x3c0b02b4	0.008484531
118	0x3cd20749	0.02563824
119	0xbd2758a0	-0.040856004
120	0x3b968b46	0.0045942394
121	0xbb480ae3	-0.0030524067
122	0xbda46dc1	-0.080287464
123	0xbdbb2395	-0.09137646
124	0x3b085d26	0.0020807474
125	0xbdd2c1c9	-0.10290868
126	0x089a5922	9.289493e-34
127	0x3bdd78dc	0.0067587923

fc3.weight f4 [1, 128]
0	0xbedfc372	-0.437038
1	0x3e92c3a5	0.2866489
2	0xbeadfa23	-0.33979902
3	0x3b6a4816	0.0035748533
4	0xbeacda82	-0.33760458
5	0x3e65a47c	0.22426027
6	0xbee498f9	-0.4464796
7	0x3ca2e477	0.019884331
8	0xbe9082a4	-0.2822467
9	0xbe48d4d0	-0.19612432
10	0xbec27830	-0.3798232
11	0x3ea1dacb	0.31612238
12	0x3e127ceb	0.14305465
13	0x3c377b2c	0.0111988
14	0x3e1f811c	0.15576595
15	0xb3d4a875	-9.9026614e-08
16	0xbec62742	-0.38701826
17	0xb98d47fd	-0.0002694725
18	0x3eb1ebbd	0.34750167
19	0x3bebfce3	0.0072017773
20	0xba1d82ee	-0.0006008585
21	0xbe62a99e	-0.22135016
22	0x3e40e503	0.18837361
23	0xbe94614a	-0.28980476
24	0xbd8bba7f	-0.06822681
25	0xbe9eb764	-0.3099929
26	0x3e3bd019	0.18341102
27	0xbddb1644	-0.10697606
28	0xbe545fa5	-0.2073961
29	0x39e6a44c	0.0004399143
30	0xbe9df472	-0.3085056
31	0xbed80764	-0.4219314
32	0x3bf258ce	0.0073958402
33	0x3e16f93e	0.14743516
34	0x3dffae07	0.12484365
35	0xbe3cca78	-0.1843661
36	0x3d9405b5	0.07227651
37	0xbbf79dfc	-0.007556675
38	0x3e376fe6	0.1791378
39	0x3e87cd43	0.2652379
40	0x3a56d64c	0.0008195385
41	0x3e78f665	0.24312742
42	0xbed0b122	-0.40760142
43	0x399c2f2c	0.00029789784
44	0x31f4addd	7.1211006e-09
45	0x3e0418c6	0.12900075
46	0x3e6cd1e7	0.23126946
47	0xbe7b69ff	-0.24552153
48	0xbe08caca	-0.13358608
49	0x369eaea2	4.729097e-06
50	0x3e4c28d0	0.19937444
51	0xbe411203	-0.18854527
52	0x3c86b389	0.01644303
53	0x3e221eb2	0.15832022
54	0x3e67bb8e	0.2263014
55	0x3ebe4ac1	0.37166408
56	0x39cf879e	0.0003958316
57	0xbeb311ba	-0.34974462
58	0xbd9aecf9	-0.0756473
59	0xbe25451b	-0.16139643
60	0x3aa00f9a	0.0012211681
61	0x3e879d5c	0.26487243
62	0xbd2c7710	-0.042105734
63	0xbea74b62	-0.326747
64	0x39290e1d	0.00016122354
65	0x3d55acb0	0.05216664
66	0xbd4a79ed	-0.049432684
67	0xbe14b132	-0.1452072
68	0xbea8dd59	-0.32981375
69	0xbe1ab4fd	-0.15108104
70	0xbd84cb10	-0.064840436
71	0x3e6f8d46	0.23393735
72	0x3dbd139b	0.09232255
73	0xbddda1f7	-0.10821908
74	0x3e6d1777	0.23153482
75	0xbe9fc486	-0.31204623
76	0x3e64d325	0.2234617
77	0xbe1eafcd	-0.1549675
78	0x3e5f7b2a	0.21824327
79	0xbe193933	-0.14963226
80	0xbeb3a9ae	-0.35090393
81	0x3e22a64e	0.15883753
82	0x3e42a3ae	0.19007751
83	0xbe2565c4	-0.16152102
84	0xbe127814	-0.14303619
85	0x35aa5827	1.2691643e-06
86	0xb58ef3d2	-1.0650785e-06
87	0xbebaabbd	-0.3645915
88	0x3e03c7d5	0.12869199
89	0xbb0c202d	-0.0021381483
90	0xbe8dfc25	-0.27731434
91	0xbe6c9616	-0.23104128
92	0xbd62e26c	-0.055391714
93	0xba586825	-0.0008255265
94	0x3c1096e5	0.008825039
95	0x3e497b04	0.19675833
96	0xbe65296e	-0.22379085
97	0x3e06c115	0.13159592
98	0xbcdfea28	-0.027333334
99	0x3e4d78d3	0.20065622
100	0xbebc20ea	-0.3674386
101	0xbbe9a06e	-0.0071297204
102	0x3e574fae	0.21026489
103	0x3e913dcb	0.28367457
104	0x3e7d09f4	0.24710828
105	0xbbb36051	-0.0054741283
106	0x3e60c58f	0.21950363
107	0xbe8360db	-0.25659832
108	0xb806f77c	-3.2178577e-05
109	0xbb9852d8	-0.0046485476
110	0x3b2c9aff	0.0026337502
111	0x3e9c2dc8	0.30503678
112	0xbe9a679f	-0.30157182
113	0xbd4efc6b	-0.050533693
114	0x38b1676f	8.459284e-05
115	0x3c9e5f4b	0.019332549
116	0x3e327f3b	0.17431347
117	0x3e2c0a30	0.16800761
118	0x3e7f43a2	0.24928144
119	0xbe713bcc	-0.23557967
120	0x3d5208ea	0.051278032
121	0x3e83ba12	0.25727898
122	0xbee05843	-0.43817338
123	0xbebafbaa	-0.3652013
124	0xbe95213d	-0.2912692
125	0xbeeeef3b	-0.46666893
126	0xb9933c26	-0.0002808284
127	0xbe8b0929	-0.27155426
